DDPG/models/1100_actor.pt (torch, 2835 bytes, 3 tensors)

fa1.weight f4 [60, 3]
000000 90 da 79 3c 2e 98 8b be 6b 9a ea bd a2 da 2e 3e
       0.015249863 -0.2726454 -0.11455234 0.1707559
000010 b4 14 89 bf b2 b2 70 be 1e 57 8c 3e 87 0c 82 bf
       -1.0709443 -0.23505667 0.27410215 -1.0160073
000020 f6 ee 7f be f6 4c fb 3e fe 1b 7c 3f 58 24 2a bf
       -0.249935 0.49082154 0.9848021 -0.66461706
000030 ab e3 e4 3e 6a ad 87 3f 8b a5 83 3e f9 0a 20 3f
       0.44704947 1.0599797 0.25712237 0.6251674
000040 e6 f7 a9 3f 1b 24 73 bd df af bd bd b3 3c 24 be
       1.3278778 -0.059360605 -0.092620604 -0.1603878
000050 2f 5a bf bb 22 0e fe 3e 74 3f 89 3f ec f2 88 3e
       -0.005839608 0.49620157 1.0722489 0.26747835
000060 3a 5a 85 bf 26 bf 56 bf 56 26 8f be 6c 68 1b 3d
       -1.041816 -0.8388542 -0.27958935 0.03794138
000070 45 57 29 3f ad 12 d2 be af 5b a6 3d 0b e4 17 bf
       0.6614879 -0.41029873 0.08122956 -0.5933234
000080 9d 94 16 be 4e 75 81 3c 2c a4 3c bf 4a c6 e0 3e
       -0.14705129 0.015803006 -0.73688006 0.43901283
000090 8d 33 0c bd 04 38 28 3e 97 cd 77 bc 27 71 09 3f
       -0.03422885 0.16427618 -0.0151247 0.5368828
0000a0 6e 0b ad bf 70 3f a5 be 97 10 d0 be ff f6 5e bf
       -1.3519113 -0.3227496 -0.40637657 -0.87095636
0000b0 17 e0 27 3f d5 9e 2e 3c a3 17 14 3f 9e 71 c0 be
       0.6557631 0.010657986 0.57848567 -0.37586683
0000c0 06 c7 70 bf 43 7d 75 be cb 14 df be d7 24 2c 3f
       -0.94053686 -0.23973565 -0.4357055 0.67243713
0000d0 06 37 91 bf 0f 85 f0 be a5 df 46 bb 40 de 05 3f
       -1.1344917 -0.46976516 -0.0030345705 0.5229225
0000e0 4b fb 2f 3e 5d f7 4a bd 37 b6 0b 3c 35 13 5c bd
       0.17185704 -0.04955231 0.00852733 -0.053729255
0000f0 f5 c4 94 bf 18 42 1b 3f 1c 59 df 3e 63 2c 4d 3e
       -1.1622607 0.60647726 0.43622673 0.20036463
000100 61 15 12 bd d4 a9 8f bd 03 43 1f 3f 66 a4 87 bf
       -0.03566492 -0.07014814 0.62211627 -1.0597045
000110 f6 fa 00 bf bb 18 59 3c 61 c4 52 be 03 1a e1 bd
       -0.50382936 0.013250525 -0.20582725 -0.109912895
000120 9a 7d 59 3f 50 43 7b be d6 39 d5 3e 39 c4 8e bf
       0.8495728 -0.24537396 0.41645688 -1.1153632
000130 11 f1 3a 3f 4e 5e a6 3e 44 87 28 3d 4d fa d1 bd
       0.7302409 0.32493824 0.041144624 -0.10252819
000140 fb 90 d0 3c 68 80 a3 3e 46 85 87 bf 94 94 79 be
       0.025459757 0.31933904 -1.0587547 -0.24373084
000150 fa 5c 0a 3e e0 81 25 3f af 1c c1 be 72 e6 a2 bf
       0.1351203 0.646513 -0.37717196 -1.2726576
000160 82 c5 95 bf 2a d5 bb be 13 eb 50 3e 01 7c 85 bf
       -1.17009 -0.3668607 0.20402174 -1.0428468
000170 df 70 7b be 1d 88 ee 3e 6e 56 89 bf cf 40 df be
       -0.24554776 0.4658822 -1.0729501 -0.43604133
000180 33 44 de 3e 63 3e 44 3f 6e 62 c4 3e b2 b6 70 3f
       0.43411407 0.76657695 0.38356346 0.9402877
000190 63 76 05 bf 04 2b 08 3f 3c 51 0a 3f 32 32 bc bf
       -0.5213377 0.53190637 0.54030204 -1.4702818
0001a0 be c2 94 be b7 d3 5c bf 58 d6 ac be 6d 43 ce be
       -0.29054826 -0.8626055 -0.3375728 -0.40285817
0001b0 e3 57 8e 3d b0 81 4d 3f 0e 90 69 3e b3 e5 c4 3d
       0.06950357 0.8027601 0.22808859 0.09614124
0001c0 ec 79 ff 3e f1 13 b3 be 2e fc e0 3e 13 45 4c 3f
       0.49897707 -0.34976152 0.43942398 0.797929
0001d0 cf 66 c7 3e 5b 5e dd be f0 ea f7 3e 2a 36 f4 be
       0.38945624 -0.4323605 0.4842143 -0.47697574
0001e0 30 54 23 3f 26 5b 5a 3f 77 a3 ff 3e 2c 4d c6 be
       0.63800335 0.8529533 0.499294 -0.38730752
0001f0 af fe 17 3f b3 49 ee be dd f8 0d bc 81 ad f9 3e
       0.5937299 -0.46540603 -0.008665291 0.48765185
000200 14 fa 65 3e 26 cb 41 3f 55 d9 7a 3f d6 10 11 3f
       0.22458678 0.75700605 0.9798787 0.56666315
000210 17 c6 a6 bf 36 c9 98 bf 40 41 c0 be 91 93 ac 3e
       -1.3029202 -1.1936405 -0.37549782 0.33706334
000220 9e 05 84 3f 0c c1 83 3e bc 57 c0 bd db 5e 5d bf
       1.0314214 0.2573322 -0.09391734 -0.8647286
000230 ad 45 f3 3e f0 9e 0b 3f 94 d0 b1 bf 31 f3 8d be
       0.47514096 0.54539394 -1.3891778 -0.27724603
000240 94 39 82 3e a8 b0 69 3f df 11 9c 3e e0 af 85 bf
       0.25434554 0.9128518 0.30482385 -1.0444298
000250 6e 75 32 3f 5f 39 9d 3e 78 4b f4 3e 60 c3 b8 bf
       0.69710433 0.30707833 0.47713828 -1.4434624
000260 52 03 95 be 64 dc 19 3f 78 7f 6e bf 6f 84 15 bf
       -0.29104096 0.60101914 -0.9316325 -0.584052
000270 bb 1c 1f be 14 87 fb 3e 8d 4b c0 be 83 36 af be
       -0.15538304 0.49126494 -0.3755764 -0.34221277
000280 5b 1c 62 bf dd 51 1a 3f 32 2a 58 3f d1 e4 a0 be
       -0.88324517 0.60281163 0.84439385 -0.31424573
000290 76 17 ce 3e 08 42 86 bf 99 0c 23 3f 81 d8 be 3e
       0.40252274 -1.0488901 0.636911 0.37274554
0002a0 f2 7e 21 3f f9 4c 37 3f e1 e6 db 3e 8d 67 0b 3c
       0.6308433 0.71601826 0.42949584 0.008508575
0002b0 98 95 50 3f ee 1d 83 3e 0a 2b 48 3f 43 c5 a4 3f
       0.8147826 0.25608772 0.7819067 1.28727
0002c0 98 d1 af 3e 37 a4 84 bf de 1f 3a 3f bd df c7 3e
       0.34339595 -1.0362614 0.72704875 0.39037886

fa1.bias f4 [60]
000000 8e e7 33 3f 02 ec ee 3e ed e2 25 3f f9 7a 02 bf
       0.702752 0.46664435 0.64799386 -0.5096889
000010 49 94 81 3d 67 8e 5a be 3f 6e 97 be 4e 8b 10 3d
       0.06327111 -0.21343385 -0.295763 0.0352891
000020 44 67 f8 3d d4 92 1d 3f 30 25 fc 3e 5f 7a 11 3f
       0.12129071 0.61552167 0.49247122 0.5682735
000030 bf 55 91 be 33 da ca bc 94 8c 03 3f 91 76 e6 3e
       -0.28385732 -0.024762249 0.5138638 0.45012334
000040 c6 a3 43 3e 12 fd d9 bb fc 1e 5e 3e 7b 0d 0d bf
       0.19105443 -0.006652483 0.21691507 -0.55098695
000050 27 12 17 3f c5 d4 02 3f 73 0e 9d bd 1a 17 21 3f
       0.59012073 0.5110591 -0.076687716 0.62925875
000060 f5 88 01 bf 63 29 f7 3e e3 70 9f be 20 0e 05 3f
       -0.50599605 0.48273763 -0.31140813 0.5197468
000070 89 30 1a 3f 77 f0 61 3d 25 b8 13 3f dc 9c 0b be
       0.6023031 0.055160966 0.5770286 -0.13634056
000080 82 5a 20 bd 6b 9b 33 bf 3f af 1a 3e 08 2f 67 3e
       -0.039148815 -0.70159024 0.15105914 0.22576535
000090 6a 04 5a 3e 8b e2 f9 3e 34 e3 43 bd 3d 2d 6a 3e
       0.21290746 0.4880565 -0.0478241 0.2286882
0000a0 6a 66 1c be c3 cc 3f 3e b6 e1 04 3f b7 ff 47 be
       -0.15273443 0.18730454 0.5190691 -0.19531141
0000b0 e4 a1 26 3d bf b9 f3 3d d9 16 e4 3e 67 72 f9 3d
       0.040681735 0.11900663 0.4454868 0.12180024
0000c0 b0 cb fb 3e a0 d5 f1 3e 1e 63 07 3e 89 3c 84 be
       0.4917884 0.47233295 0.13221404 -0.25827435
0000d0 88 5a 97 3e b0 8b f0 3e 62 62 02 bf 39 65 10 3f
       0.29561257 0.46981573 -0.5093137 0.56404454
0000e0 7c a8 5e be c6 ef b5 3e 8c 0c ba bb d4 7d 1b 3f
       -0.21743959 0.35534495 -0.0056777652 0.60738873

fa2.weight f4 [1, 60]
000000 02 9f 71 3e 94 ef c3 3e 69 fc 4a 3e 15 7d 91 3f
       0.23595813 0.3826872 0.1982285 1.1366297
000010 fd ff 42 bf 48 c9 9f bf dc 27 8c bd 19 e8 4e bf
       -0.7617186 -1.2483301 -0.0684354 -0.808229
000020 7e 59 93 bf 88 fb 8b be 12 32 91 3e 6f 08 8d 3e
       -1.1511686 -0.2734034 0.28358513 0.27545497
000030 b4 2c 24 be db 0c 86 3f 4e 7f 67 3f 62 a2 b6 be
       -0.16032678 1.0472673 0.90428627 -0.35670763
000040 b3 98 31 bf 08 49 28 3f cd 89 ac be 2b bf e7 3d
       -0.69373626 0.65736437 -0.33698884 0.11315759
000050 e8 54 23 3f f6 4f f7 3d 39 e7 51 3f ac 48 8b 3e
       0.6380143 0.12075798 0.8199344 0.27203882
000060 8f b2 81 bf 3f 4f 44 3f 88 07 92 3d 95 38 ce 3e
       -1.0132617 0.7668342 0.07130343 0.40277544
000070 63 19 cc be 2d c7 ae bf 2a ca db 3e a6 52 8b 3f
       -0.3986312 -1.3654534 0.42927676 1.0884597
000080 0d 53 57 bf c5 66 63 bf 76 2b 7f 3f de 3c 0b bf
       -0.841111 -0.8882869 0.9967569 -0.5438975
000090 75 b1 0c bf 4d d5 a4 be d5 20 90 bf 9b c9 de be
       -0.5495828 -0.32193986 -1.126002 -0.43513188
0000a0 79 07 8f bf 00 76 26 bf 8b 5d 22 be 38 d3 80 bf
       -1.1174155 -0.65023804 -0.15855996 -1.0064459
0000b0 c7 c7 aa bf b9 2e 18 bf 5f 1f 04 3f b2 22 76 3f
       -1.3342217 -0.59446293 0.5161037 0.9614669
0000c0 bb 7f 3c be 7f cd 19 3f 56 ab 79 3f f3 c6 63 3f
       -0.184081 0.6007919 0.9752706 0.8897545
0000d0 25 19 f0 be ce 69 38 3f d5 09 66 bf d3 6a 29 3f
       -0.46894184 0.72036445 -0.8985875 0.66178626
0000e0 0c fe 78 bf ba 21 a6 be ef 48 9b bf d1 60 17 3f
       -0.97262645 -0.32447606 -1.2131633 0.59132105
