DDPG/models/1200_actor.pt (torch, 2835 bytes, 3 tensors)

fa1.weight f4 [60, 3]
0.021448541 -0.3048078 -0.14736046 0.17578505 -1.1393567 -0.27080774 0.2810281 -1.0876273
-0.2868913 0.43043703 0.995955 -0.6766634 0.44861537 1.1070397 0.2610116 0.6115071
1.3943282 -0.05252287 -0.092620604 -0.1603878 -0.005839608 0.49957561 1.121775 0.26663607
-1.1132252 -0.9208623 -0.26932395 0.017539708 0.75122195 -0.43356985 0.096720695 -0.6856876
-0.18556114 0.012999189 -0.756003 0.43964016 -0.03422885 0.16427618 -0.0151247 0.54553825
-1.4386513 -0.3386002 -0.37766975 -0.8821257 0.6401246 -0.015192529 0.6781073 -0.40420035
-0.9874128 -0.29790458 -0.42774254 0.67894256 -1.2131197 -0.50663114 0.0009706488 0.5846477
0.1652424 -0.04955231 0.00852733 -0.053729255 -1.2157329 0.64072984 0.45649746 0.2040009
-0.07029656 -0.080234446 0.6230682 -1.1092043 -0.5753372 0.018116245 -0.23993672 -0.12740178
0.833217 -0.22212243 0.4556715 -1.1757016 0.77245504 0.34189874 0.041144624 -0.10252819
0.025459757 0.32366702 -1.1263533 -0.2793997 0.11996731 0.7247661 -0.39213496 -1.3613553
-1.2506479 -0.34590235 0.21046323 -1.113275 -0.28188664 0.46883076 -1.1298716 -0.5016765
0.44937095 0.78884673 0.38360903 0.9086773 -0.50382257 0.58034503 0.5470675 -1.5385529
-0.32302657 -0.916177 -0.3935825 -0.39114222 0.07156413 0.85975254 0.22394758 0.077876374
0.5865267 -0.3665558 0.45458442 0.8209473 0.3893435 -0.33988926 0.49024093 -0.5155721
0.6551059 0.8756564 0.49824816 -0.27605438 0.5986764 -0.5051699 0.005820246 0.5772795
0.22485615 0.7729113 1.0024498 0.56681246 -1.3915083 -1.2743572 -0.35466462 0.33782223
1.0797801 0.26097506 -0.08575666 -0.8502217 0.46484643 0.5519331 -1.4608418 -0.3065222
0.25711352 0.9615227 0.3097913 -1.1044143 0.73961085 0.32404783 0.48343077 -1.5177226
-0.3176199 0.6252858 -1.0277865 -0.60421413 -0.1911703 0.6055188 -0.40627936 -0.3145771
-0.889898 0.58781123 0.8255393 -0.287688 0.4458269 -1.0947602 0.6678561 0.39614892
0.64754385 0.7398856 0.42882037 0.012070917 0.87333894 0.25217304 0.7924153 1.3219767
0.34194866 -1.0910062 0.7570954 0.40968907
00000000: dab4 af3c c50f 9cbe a9e5 16be ff00 343e
00000010: 71d6 91bf 50a7 8abe eae2 8f3e 5f37 8bbf
00000020: 6be3 92be 3e62 dc3e e8f6 7e3f d039 2dbf
00000030: eab0 e53e 7ab3 8d3f 50a3 853e bb8b 1c3f
00000040: 5979 b23f 3922 57bd dfaf bdbd b33c 24be
00000050: 2f5a bfbb 60c8 ff3e 5396 8f3f 8684 883e
00000060: 2a7e 8ebf a2bd 6bbf d4e4 89be 6faf 8f3c
00000070: 1550 403f defc ddbe 8015 c63d 3989 2fbf
00000080: bd03 3ebe 8dfa 543c 6a89 41bf 8418 e13e
00000090: 8d33 0cbd 0438 283e 97cd 77bc 65a8 0b3f
000000a0: ba25 b8bf 015d adbe ee5d c1be fdd2 61bf
000000b0: 35df 233f 16ea 78bc 7198 2d3f 59f3 cebe
000000c0: 16c7 7cbf f386 98be 1201 dbbe 2ecf 2d3f
000000d0: 8247 9bbf 94b2 01bf 2373 7e3a 79ab 153f
000000e0: 4e35 293e 5df7 4abd 37b6 0b3c 3513 5cbd
000000f0: 239d 9bbf df06 243f 09ba e93e 9de5 503e
00000100: a5f7 8fbd f551 a4bd 6681 1f3f 68fa 8dbf
00000110: 4c49 13bf 8568 943c f9b1 75be 9d75 02be
00000120: b64d 553f 1074 63be c64d e93e 647d 96bf
00000130: 9dbf 453f 5a0d af3e 4487 283d 4dfa d1bd
00000140: fb90 d03c afb7 a53e 582c 90bf 7a0d 8fbe
00000150: 6cb1 f53d 458a 393f eac5 c8be e440 aebf
00000160: 3b15 a0bf 1d1a b1be ac83 573e cc7f 8ebf
00000170: 7253 90be 960a f03e a29f 90bf df6d 00bf
00000180: f313 e63e dcf1 493f 6768 c43e 139f 683f
00000190: 84fa 00bf 7e91 143f 9e0c 0c3f 4def c4bf
000001a0: bd63 a5be 938a 6abf a583 c9be cb43 c8be
000001b0: 3790 923d be18 5c3f 8452 653e a67d 9f3d
000001c0: 9d26 163f 34ad bbbe 4abf e83e 9a29 523f
000001d0: 0858 c73e f705 aebe dc00 fb3e 88fc 03bf
000001e0: 05b5 273f 052b 603f 621a ff3e 0057 8dbe
000001f0: db42 193f d152 01bf c3b7 be3b 97c8 133f
00000200: b140 663e 84dd 453f 4650 803f 9f1a 113f
00000210: f21c b2bf 231e a3bf 9a96 b5be 09f7 ac3e
00000220: 3c36 8a3f 869e 853e 30a1 afbd 21a8 59bf
00000230: 5a00 ee3e 7d4b 0d3f ddfc babf 7af0 9cbe
00000240: 62a4 833e 5a26 763f f79c 9e3e 735d 8dbf
00000250: 2357 3d3f 99e9 a53e 3d84 f73e bc44 c2bf
00000260: 139f a2be bb12 203f 828e 83bf c7ad 1abf
00000270: 26c2 43be 4803 1b3f d903 d0be 4010 a1be
00000280: 5bd0 63bf cc7a 163f 8b56 533f d74b 93be
00000290: 6c43 e43e 1a21 8cbf 9ef8 2a3f 08d4 ca3e
000002a0: 6fc5 253f 2569 3d3f 588e db3e 18c5 453c
000002b0: 2493 5f3f d31c 813e bbdb 4a3f 8836 a93f
000002c0: e513 af3e 17a6 8bbf 01d1 413f c4c2 d13e

fa1.bias f4 [60]
0.71107477 0.47815803 0.6563776 -0.59382606 0.059185937 -0.25567505 -0.295763 0.030851645
0.11242171 0.5892475 0.4898933 0.5927445 -0.28385732 -0.009908069 0.5686527 0.41979212
0.17919803 0.0034445648 0.21353419 -0.55098695 0.63856995 0.5240121 -0.07452031 0.641167
-0.5296045 0.5294744 -0.31140813 0.5321847 0.5811548 0.055441357 0.5867135 -0.13211828
-0.053319898 -0.73793805 0.16270763 0.2165115 0.21071649 0.46500897 -0.061688222 0.3165321
-0.16468413 0.2905155 0.50171995 -0.2075961 0.04091196 0.11564928 0.49378356 0.13433753
0.4851518 0.5182915 0.14566694 -0.23884383 0.25822273 0.52460426 -0.53334975 0.617872
-0.22855651 0.3512129 -0.017209359 0.66052425
00000000: ff08 363f 21d1 f43e 5d08 283f fc04 18bf
00000010: f46c 723d d7e7 82be 3f6e 97be 97bc fc3c
00000020: 5a3d e63d edd8 163f 4bd3 fa3e 1bbe 173f
00000030: bf55 91be 7455 22bc 3993 113f feee d63e
00000040: b07f 373e 35be 613b b5a8 5a3e 7b0d 0dbf
00000050: 5279 233f a825 063f 1b9e 98bd 8523 243f
00000060: 2994 07bf a28b 073f e370 9fbe 423d 083f
00000070: 90c6 143f 7a16 633d db32 163f 044a 07be
00000080: f765 5abd 82e9 3cbf d49c 263e 31b5 5d3e
00000090: 10c6 573e a815 ee3e caac 7cbd 7f10 a23e
000000a0: f5a2 28be 73be 943e b870 003f 1294 54be
000000b0: 4d93 273d 88d9 ec3d 33d1 fc3e c78f 093e
000000c0: d165 f83e c0ae 043f b729 153e 7a93 74be
000000d0: c535 843e 774c 063f 9c89 08bf dc2c 1e3f
000000e0: b80a 6abe 2dd2 b33e a4fa 8cbc 1e18 293f

fa2.weight f4 [1, 60]
0.2537374 0.4286345 0.23322137 1.1660783 -0.78590786 -1.2790248 -0.0684354 -0.8322615
-1.2149105 -0.27069286 0.3157471 0.29541606 -0.16032678 1.1079099 0.91234773 -0.36016235
-0.71821725 0.70104736 -0.35644454 0.11315759 0.6893983 0.133875 0.8729393 0.29005843
-1.0416174 0.8238556 0.07130343 0.44009244 -0.39352402 -1.4338868 0.4690091 1.162416
-0.8616949 -0.92916155 1.0468321 -0.57127136 -0.57507384 -0.31754455 -1.1473699 -0.45996252
-1.1415309 -0.674409 -0.16252768 -1.0316699 -1.403051 -0.61941373 0.53270715 1.010743
-0.1959995 0.65786165 1.0300503 0.95924854 -0.5040578 0.72955567 -0.9259033 0.71554404
-1.0014012 -0.34322003 -1.2355056 0.64554375
00000000: dee9 813e fb75 db3e 95d1 6e3e 0e42 953f
00000010: 4231 49bf 16b7 a3bf dc27 8cbd 170f 55bf
00000020: 3082 9bbf 4198 8abe 9ba9 a13e c640 973e
00000030: b42c 24be fecf 8d3f 9f8f 693f 3367 b8be
00000040: 16dd 37bf d777 333f e67f b6be 2bbf e73d
00000050: 687c 303f 8716 093e f378 5f3f 8a82 943e
00000060: b853 85bf 33e8 523f 8807 923d cc53 e13e
00000070: fb7b c9be 9a89 b7bf f621 f03e 0cca 943f
00000080: 0998 5cbf 88dd 6dbf 98fe 853f d73e 12bf
00000090: 0a38 13bf 3395 a2be 04dd 92bf 3580 ebbe
000000a0: af1d 92bf 11a6 2cbf a86d 26be c20d 84bf
000000b0: 2d97 b3bf e691 1ebf 7f5f 083f 0760 813f
000000c0: 18b4 48be 9f69 283f b0d8 833f 5091 753f
000000d0: ef09 01bf 29c4 3a3f 0008 6dbf e52d 373f
000000e0: ea2d 80bf 89ba afbe 0c25 9ebf 5b42 253f
