DDPG/models/1500_critic.pt (torch, 18423 bytes, 7 tensors)

fc1.weight f4 [30, 3]
00000000: 7049 96be 9af7 febe b962 d9bd 9c03 55be
00000010: e3e4 97bd 24e3 b7bd b296 f13e c4d3 3b3e
00000020: 8cc1 733e 587c 15be c2cf 39bf d3c2 02be
00000030: 6a24 18bf da68 21bf 3471 17be 12a2 5f3c
00000040: 272c a1be 9d99 25bc 934c 48be 91ea 45bf
00000050: 8ce6 9ebe 0cc7 7cbe 9754 953f 4f77 683e
00000060: d23e 86bd 769a 1d3f b2a1 c63d 305c 103d
00000070: d01e cb3d f0f3 7abc a280 693d 52a2 003e
00000080: 121c 75bc 7831 f6be cd80 ca3d 4833 493e
00000090: 07b6 f23e 2373 a5be e41a 1dbe 5d06 b8be
000000a0: 925c 02be b170 0cbe f807 1b3f 1cc4 d03e
000000b0: 28b2 523e b2d1 873c 5813 c7be fe17 d4bc
000000c0: 8945 9a3e 9981 28bf c547 f5bd 6f21 d9be
000000d0: b1fa 893e 3314 3cbe e87f 6a3e 61b6 383f
000000e0: 1c86 213e 64d3 863e 674c 0a3f 268d e73d
000000f0: 215f 41be d524 e1be f772 023e 2a95 48bc
00000100: 97df d8bd 71a1 3d3a 2677 22be 3cdf 0e3f
00000110: 47b9 ca3d 1464 18be c158 333f cf56 1d3e
00000120: d317 25bf 710a ff3e c1d7 c63e 6073 c3be
00000130: a683 d2be 21bd 00be 8d5b 6bbe 22ae c23d
00000140: 8373 db3d 1de1 0cbf b4b9 f43e 64c4 013e
00000150: 8531 05bf 9f47 16bd 8a5b fd3d 6254 0abe
00000160: 1fb5 cd3e 678d 4bbe
-0.29352903 -0.4979828 -0.10614533 -0.20802158 -0.074167036 -0.089788705 0.47185284 0.18342501
0.23804301 -0.14598215 -0.7258264 -0.12769632 -0.59430563 -0.63050616 -0.14789277 0.01364948
-0.31478998 -0.010107425 -0.19560461 -0.77311045 -0.31035268 -0.24685305 1.166644 0.22701763
-0.06554951 0.61563814 0.0969881 0.035244167 0.099179864 -0.015316948 0.05700744 0.1256192
-0.014960306 -0.48084617 0.09887848 0.19648468 0.474045 -0.32314405 -0.15342289 -0.35942355
-0.12730625 -0.13714863 0.60559034 0.4077462 0.20575774 0.016579483 -0.38881946 -0.025890347
0.30131176 -0.6582275 -0.119765796 -0.4240832 0.26949075 -0.1836708 0.22900355 0.7215329
0.15773815 0.26333153 0.5402283 0.11306219 -0.18883945 -0.43973413 0.12739168 -0.012242595
-0.105895214 0.00072338345 -0.15865764 0.5580938 0.0989862 -0.14881927 0.700573 0.15365146
-0.6448948 0.49812654 0.38836482 -0.38173962 -0.41116065 -0.12572147 -0.22984143 0.095058694
0.107153915 -0.55030996 0.4779793 0.12672573 -0.52028686 -0.036689397 0.12370975 -0.13508752
0.40177247 -0.1987816

fc1.bias f4 [30]
00000000: 8d27 df3d 658e cd3e c48a 38be fdcf 123e
00000010: 09c7 ad3e 511a cabe b921 febd bae6 7cbe
00000020: aa1d 8ebd 4041 b0be b02e b7be f4bc d6be
00000030: 72f1 9bbe ccd5 d03e 0f28 dcbe 7fff 093f
00000040: a174 84bc b935 553e 8265 9f3d 6460 083f
00000050: 00d6 273f 0c93 b8be 8e88 6e3e 564a 70be
00000060: eb96 013e fc19 dc3e 784d b63e f303 333e
00000070: bd32 193f 63cb d9bd
0.108962156 0.401477 -0.18021685 0.14337154 0.33940914 -0.39473203 -0.12408776 -0.2469739
-0.06939252 -0.34424782 -0.35777807 -0.41941035 -0.30457646 0.40788114 -0.42999312 0.5390548
-0.016168894 0.20821275 0.07783033 0.5327208 0.65560913 -0.36049688 0.23294279 -0.23465857
0.12655227 0.42988575 0.3560598 0.17481975 0.59843045 -0.10634496

fa1.weight f4 [30, 1]
00000000: 83a9 db3d 8b47 c5bd 0746 72ba 19f5 2abd
00000010: c2fe 653d e34b e93d e40d 793d 7d0c a43d
00000020: 6ccf 6bbe bb09 46be 865b 333c 1484 e43c
00000030: 62cf 2a3e 47a8 b13d 47b4 8bbd 97c1 13be
00000040: fe6e 39bc cc36 723d d6c9 183e a7ef 88bd
00000050: 1936 8d3d 04c3 f3bd 9fc3 82bd 2a6f 753d
00000060: b490 b9bc 1fcf 02bc e6ed b3bd a1be b73d
00000070: 4055 223a c514 cb3c
0.10725691 -0.09632786 -0.0009242002 -0.04173765 0.05615116 0.11391427 0.060804263 0.080101945
-0.23028344 -0.1933965 0.010947114 0.027895011 0.16680673 0.086746745 -0.068214945 -0.14429317
-0.0113179665 0.05913429 0.14920744 -0.06686335 0.06895084 -0.11902431 -0.06384968 0.059920467
-0.022652008 -0.007983952 -0.0878561 0.089719065 0.0006192513 0.024790177

fa1.bias f4 [30]
00000000: 300a 783f ee28 e83e a002 6ebd 44a3 43bf
00000010: 68c8 4ebf eaf3 53bf ae00 123f 5808 11bf
00000020: 99fd f2bd a612 6abf f6f8 e43e cfe8 473d
00000030: 5520 343e 1433 5ebf c7f6 3a3f 05ae 353f
00000040: 4e0c 0a3f 5bb7 6b3f f036 03bf f019 6bbe
00000050: 292c 6f3e 8d0a b13e 42be 19bf 7eae 6d3f
00000060: 541a 823f 6f73 a63e 2ad0 48bf 962a a23e
00000070: c4f2 adbe 4707 3a3f
0.96890545 0.45343727 -0.058107972 -0.76421 -0.80774546 -0.8279406 0.5703229 -0.56653357
-0.11864776 -0.91434705 0.44721192 0.048806008 0.17590459 -0.8679669 0.730328 0.7096866
0.53925025 0.92076653 -0.512557 -0.22959113 0.2335669 0.34578362 -0.60055935 0.9284438
1.0164285 0.32509944 -0.78442633 0.31673115 -0.33974278 0.72667354

fca1.weight f4 [60, 60]
00000000: 7ba6 863e 7b06 2b3e ae1b e0bd 4258 623d
00000010: fbfa a53c f929 f23d 25bb 403d d5c0 02be
00000020: 7835 ec3d fc21 cbbd 38d1 53bd ff40 9fbd
00000030: 61db e83e 0eed fd3d ac4c 0a3e 34db b43d
00000040: f15e 873e 978d ac3d c5c8 f73c 71e5 cebb
00000050: 5570 fc3d ed32 49bc 8668 ce3d 7dc1 dbbe
00000060: 8e61 8dbd 49b3 f7ba 3849 443e 89e3 913e
00000070: 971d b33e 57cb 36be 1055 af3d 3422 db3c
00000080: 6af7 303e 4ebc b0bb e595 193d a70f 32be
00000090: c6e8 a63d f001 5dbd 769f d13d e347 fdbd
000000a0: 375b 68be f839 a0bd 66d2 c73b 0005 e23d
000000b0: 3094 973c dfa4 b33d c46a 4b3e 1422 933d
000000c0: fccb 0abd ceac 8c3d de9c f73d 8d53 d43d
000000d0: bc68 90bd 0bee 84bc eb28 fdbd 853c 24be
000000e0: bab9 883d 5aab 5f3c 9726 92bd 2d13 cdbc
000000f0: 71c8 943e 0a1d c53d ee6d 123f 7622 2e3e
00000100: eea1 963e 3ff8 b0bd 0eeb 8b3e 1b7d 0bbe
00000110: 8275 f63e c4c5 0fbe b27c 1e3d 0942 4abf
00000120: 76fa 84be b9e1 5abd 8131 453e e24a 44bd
00000130: 5d56 593e 0f26 e23d b5a4 0fc0 6a53 01bf
00000140: be06 a23e 9556 5abe 3a86 de3d ed28 693e
00000150: f50c 03bf f7e3 2a3e 7a16 3bbe 41d4 b7bd
00000160: 10a5 f63e 38bb cabc c4a1 14be 495b 19be
00000170: af13 103d ff83 0c3d 8879 923d e556 61bd
00000180: 3126 893c 171f 6c3c b168 53bd dbe4 abbd
00000190: 788f 0abe 96c5 163d f488 8bbd 53ae a53b
000001a0: f237 edbd 81f8 7abe 9179 83bd bbf0 e0bd
000001b0: ea7f f4bc 47e2 133d f1cb 7d3d 25a7 80bd
000001c0: 4b49 18bd c037 15bd ca3e ae3d b7f6 813b
000001d0: 3645 ccbc f10a e1bd 0dd2 f03c c49a 00be
000001e0: 42f1 af3d cc8a 7d3e 96f1 503c a3e1 8a3e
000001f0: 15bb f83c 55e3 2b3e 26ce 593e ce20 583e
00000200: 96aa 0d3e 55ca 7fbc 776d 093e c401 0c3e
00000210: 7557 8d3e 80fe 703e 7df7 a2bd 381a 183e
00000220: 5c7d 4d3e 452c a7bb ed3d a03d 2ab5 f2bc
00000230: 8e1d 133e 6627 a5bc a3eb 5f3e 83da 80bd
00000240: d1b9 723d 891f 763e d171 1a3e 5b54 773e
00000250: dcc6 153e 13b2 07be 391f be3d 3939 973d
00000260: 154a 703d 2bfc 99bd a560 283e bf68 e93c
00000270: 52f9 26bc 6d9e fdbd a36f 65bc 690c 8d3d
00000280: 5306 83bd 4c5e 4abd 263d 333e 0bc1 b8bd
00000290: a6be e33c 5846 093e 3e83 873e dbd1 7e3e
000002a0: 1df8 d93d 88c0 2fbe 116f 03be 3b9d 123e
000002b0: 85a4 81bd bc75 32be e997 e13d 7ce7 fa3d
000002c0: 0b96 4b3d f944 373d d4bc 0c3d 9f20 52bd
000002d0: cbf9 d83d b626 14bc fd53 2fbe 5009 8bbd
000002e0: f3b9 30bd a45c b43c 93fb 01bd 60c4 5ebd
000002f0: 32c3 5abe cc71 1f3d 8ced 23bb 9067 f13c
00000300: 68de 903d 9805 97bd 57e3 c23d 0e27 93bd
00000310: d29f 58bd c75d 0b3e 42cb 75bd ed6b 23be
00000320: de1e 00be 40ee 75bd 437a a9bd b01b f8bd
00000330: 67d0 54bc 70d8 71bd f340 25bc 6edf 88bd
00000340: a085 1c3c 0dce bdbd 1a8f fdbd 4b7d 21be
00000350: f247 60be cc06 18be fff9 babc 13bc 6bbc
00000360: c49a 0dbe 6acd 693c 01a0 8a3d c8cc 5fbe
00000370: 2b63 8d3d a10a 81ba 1aab 4e3d 9664 9abd
00000380: af43 b03d 759a fb3d 8ad5 94bd fad3 39ba
00000390: 5335 3ebe 5b4c 43bc 42fa 363b a714 0fbd
000003a0: d77f b23a 5f3b 983c 4974 14bd dfc6 55bc
000003b0: 2ac4 66be 336b aa3d a497 213e cf18 4d3e
000003c0: 4fae 8bbe 4d48 11be 266f aabe 2f43 6abe
000003d0: 82c6 07bf 2dc2 51be b367 54ba 1ed4 7c3d
000003e0: e58e 0b3e 38e9 1cbd 1772 40be 60e7 233e
000003f0: 3af3 4d3c feaa c1be eccb d7be 608c 34be
0.2629889 0.16701691 -0.109427795 0.05525995 0.020261278 0.11824412 0.047053475 -0.12768872
0.11533636 -0.099185914 -0.0517132 -0.07776069 0.45479873 0.1239873 0.1350581 0.08830872
0.26439622 0.084254436 0.030247102 -0.0063139726 0.12326113 -0.012280208 0.1007853 -0.42921057
-0.06903373 -0.0018898036 0.19168556 0.28493908 0.34983513 -0.17851005 0.08561146 0.026749708
0.17281881 -0.0053935414 0.037496466 -0.17388783 0.08149867 -0.053956926 0.10235493 -0.12367227
-0.22691046 -0.07823557 0.0060980795 0.1103611 0.018503278 0.08771681 0.19864947 0.07184234
-0.03388594 0.068688974 0.12090467 0.103674985 -0.070512265 -0.016226789 -0.1236132 -0.16038711
0.066760495 0.013651693 -0.07136267 -0.025033558 0.29059175 0.096246794 0.5719899 0.17005333
0.29420418 -0.08641099 0.2732777 -0.13621943 0.48136526 -0.14040285 0.038693137 -0.7900701
-0.25972337 -0.053437922 0.19257165 -0.047922976 0.21224351 0.11042415 -2.244428 -0.50517905
0.3164577 -0.21322091 0.108654454 0.22769518 -0.51191646 0.16688524 -0.18270293 -0.08976031
0.48172808 -0.024747476 -0.14514834 -0.14976229 0.03517502 0.03430557 0.071520865 -0.05501451
0.016741844 0.014411709 -0.051613513 -0.0839326 -0.13531291 0.036809526 -0.06813231 0.0050561815
-0.11582936 -0.24508859 -0.06419671 -0.10983416 -0.02984615 0.036104467 0.06196207 -0.0628188
-0.037179273 -0.03643012 0.0850807 0.0039661783 -0.024935346 -0.10988415 0.029397035 -0.12559038
0.08590938 0.24759978 0.012752911 0.27125272 0.030362645 0.16785939 0.21270046 0.21106264
0.13834605 -0.015612205 0.13420664 0.13672549 0.27605787 0.23534584 -0.07957361 0.14853752
0.20067352 -0.005101713 0.078243114 -0.029627401 0.14366743 -0.020160388 0.21867232 -0.06291678
0.05925924 0.24035467 0.1508248 0.24153273 0.1462664 -0.13251524 0.09283299 0.07383961
0.0586644 -0.075188 0.16443117 0.02849233 -0.0101912785 -0.12383733 -0.014003667 0.06887133
-0.063976906 -0.049406335 0.17503795 -0.09021195 0.02780087 0.1340574 0.26467317 0.24884741
0.10643027 -0.17163289 -0.12835337 0.14317791 -0.06330208 -0.17427725 0.11015303 0.122511834
0.04970364 0.04474351 0.034359768 -0.05130064 0.10594519 -0.0090424325 -0.17121883 -0.067888856
-0.043146085 0.02201683 -0.03173406 -0.054386497 -0.21363524 0.038926885 -0.0025013415 0.029468328
0.070736706 -0.07374114 0.09516018 -0.071851835 -0.05288679 0.13609992 -0.060008295 -0.15959139
-0.12511775 -0.060041666 -0.08275273 -0.12114656 -0.01298914 -0.0590443 -0.010086286 -0.06683241
0.009553343 -0.09267817 -0.1238081 -0.15770452 -0.21902445 -0.14846343 -0.022824286 -0.014388102
-0.1382857 0.014270166 0.067687996 -0.21855462 0.069036804 -0.0009845087 0.050456144 -0.075387165
0.086066596 0.1228532 -0.07267292 -0.0007088777 -0.18575029 -0.01192006 0.0027920161 -0.034931805
0.0013618422 0.018582998 -0.03624371 -0.013047903 -0.22535768 0.08321228 0.15780503 0.20028995
-0.27281424 -0.14187737 -0.33287925 -0.22877191 -0.53037274 -0.20484228 -0.00081026106 0.06172573
0.13628729 -0.038308352 -0.18793522 0.16006231 0.012570197 -0.3782577 -0.42147768 -0.17631674

fca1.bias f4 [60]
00000000: efb9 0c3e 9db1 ba3c 58e5 f23d 8125 e73b
00000010: f403 58bd 0594 0b3e 3b5f fe3c d007 dc3d
00000020: 5079 9bbd 0b2f 783c 733c 013e 6b73 523d
00000030: 6999 873b afa1 45bd f434 d63c c73e d33d
00000040: a887 933c 93ef 873d fbb6 3abd 0a45 903d
00000050: d522 de3d 661c fa3d 44ed b33c 4a2a 4b3c
00000060: b637 11bd 7eef 3d3d 48e8 babd 6fdb 12bd
00000070: 60b2 b13d 587a 073e 8b40 05bc 06e2 5cbd
00000080: 6f05 783d d564 eabd 6791 1a3e edd0 80bd
00000090: 0c3c 593d 126a 5d3d 9645 6a3e 98a3 1c3c
000000a0: 5324 383e 6396 de3d 8762 cc3c df07 ba3d
000000b0: 5d02 eabd fb0d df3d 13eb 39bd cd39 c13d
000000c0: 84e8 e5bd bb1d db3d a185 c43d 363c 153e
000000d0: ab13 093e bc50 9abd ae17 21be f797 5e3d
000000e0: ac32 433d bc83 2bbd 2ce9 aa3c 78eb 8a3d
0.13742803 0.02278977 0.1186015 0.0070540314 -0.052738145 0.13630684 0.031051269 0.107436776
-0.07591498 0.015147935 0.12620716 0.051379602 0.004138161 -0.048249897 0.026148297 0.10314708
0.018009022 0.06637492 -0.04558466 0.07044418 0.108464874 0.12212448 0.021963723 0.012400219
-0.03545352 0.046370976 -0.091263354 -0.0358538 0.086766005 0.13230264 -0.008133064 -0.05392649
0.060552057 -0.114450134 0.15094529 -0.062898494 0.05303578 0.054056235 0.22878107 0.009560488
0.17982607 0.10868528 0.024949325 0.090835325 -0.11426232 0.108913384 -0.0453902 0.09434853
-0.112259895 0.1069903 0.095958 0.1457375 0.13386409 -0.0753493 -0.1573169 0.054344144
0.047655746 -0.04187368 0.020863138 0.06783193

fca2.weight f4 [1, 60]
00000000: afb0 dcbd 084e 083f 13b6 08be 8d8b 3c3d
00000010: 7335 cc3e 0c4c 44bf 57c6 20be d106 dd3e
00000020: 87be f03d 9e40 1c3f 04aa 043f 6adf db3e
00000030: 206c 96be 90e2 1b3f ce1a 143f 3fd2 9fbe
00000040: 5737 e1bd 3fae 0b3f 51ab babe 1954 143f
00000050: 966e 3cbe e5cb 1f3f d746 9ebe cd77 4abe
00000060: 2a0c 49be 3723 5fbd 7b92 a0bd 648e 353c
00000070: 2893 073f da0a 193f aed4 92bd 17ac 0b3f
00000080: 798a f93e eba4 073d 096d d23e 3d6e 4b3d
00000090: 6488 0abe d031 eabd 5515 3dbe 94e7 2bbe
000000a0: 672f 043f e3e0 02be 2529 a23e 62eb 923e
000000b0: acf6 c83c 0f58 a0be dbcb acbd 523f 0f3d
000000c0: b279 d83e fc32 cabd 6222 f0bd 1488 323f
000000d0: 3706 ea3e 30f3 2dbe b498 323f 50aa 44be
000000e0: 13ed 493f d4da 4ebe 8306 31be 58ea e13e
-0.10775887 0.53244066 -0.13350706 0.046031523 0.3988453 -0.7667854 -0.1570066 0.43169263
0.1175509 0.610361 0.51821923 0.4294389 -0.29379368 0.6089258 0.578534 -0.31215093
-0.10996883 0.54562753 -0.3645883 0.5794082 -0.1840156 0.62420493 -0.30913422 -0.19772263
-0.19633546 -0.054476943 -0.07840439 0.011081312 0.5295892 0.59782183 -0.07169472 0.54559463
0.4873846 0.033116262 0.41098812 0.04966568 -0.13528591 -0.11435282 -0.18465169 -0.16787559
0.5163483 -0.127811 0.31672016 0.28695208 0.024531685 -0.31317183 -0.0843732 0.034972496
0.42280346 -0.09873006 -0.11725308 0.6973889 0.45707867 -0.169873 0.69764256 -0.19205594
0.7887737 -0.20200664 -0.1728764 0.44124103
