DDPG/models/1500_actor.pt (torch, 2835 bytes, 3 tensors)

fa1.weight f4 [60, 3]
000000 1f 06 ee 3c 97 ef 8e be 07 02 47 be e2 ca 28 3e
       0.029055653 -0.27917168 -0.19434367 0.16483644
000010 d1 2f 8a bf 7d 0c aa be 40 3d 8a 3e fe d5 82 bf
       -1.0795842 -0.33212653 0.26999855 -1.0221555
000020 7f c2 b6 be 51 04 be 3e 55 07 a6 3f 06 42 60 bf
       -0.35695264 0.37112668 1.2970988 -0.87600744
000030 ef 46 e9 3e f2 ce 8e 3f 8c d7 97 3e fc 7a 1a 3f
       0.4556193 1.1156905 0.29656637 0.6034391
000040 66 32 b7 3f e7 08 82 bd df af bd bd b3 3c 24 be
       1.4312255 -0.06349354 -0.092620604 -0.1603878
000050 2f 5a bf bb 83 35 02 3f 09 11 91 3f 30 09 97 3e
       -0.005839608 0.508629 1.1333324 0.29499197
000060 ea 88 ad bf 45 27 84 bf a7 21 4b be 30 1f 2a bd
       -1.3557408 -1.0324484 -0.19837056 -0.04153365
000070 79 86 54 3f 9f fb 04 bf 71 ef cf 3d 9e a0 2a bf
       0.8301769 -0.51946443 0.10153092 -0.6665133
000080 f9 17 7b be a4 d2 52 bd b0 45 6e bf 79 66 2b 3f
       -0.24520864 -0.051470414 -0.93075085 0.66953236
000090 8d 33 0c bd 04 38 28 3e 97 cd 77 bc d2 87 09 3f
       -0.03422885 0.16427618 -0.0151247 0.5372287
0000a0 f7 81 af bf 95 25 c7 be 33 78 b6 be e3 2a 80 bf
       -1.3711537 -0.3889586 -0.3563858 -1.0013088
0000b0 94 07 4b 3f b7 c9 94 bd ee 0a 3d 3f 06 1e f1 be
       0.7930844 -0.072650366 0.738448 -0.4709322
0000c0 08 a2 93 bf 4a 5b a8 be 93 e6 dd be 60 ed 30 3f
       -1.1533823 -0.32882148 -0.43339977 0.69112206
0000d0 bd ee 90 bf 9f 04 11 bf 55 2c dd 3b 7e 51 1c 3f
       -1.1322857 -0.56647676 0.0067496696 0.6106185
0000e0 3a 10 51 3e 5d f7 4a bd 37 b6 0b 3c 35 13 5c bd
       0.20416346 -0.04955231 0.00852733 -0.053729255
0000f0 b7 28 b3 bf b0 68 4f 3f 9a 4c cd 3e fd 86 53 3e
       -1.39968 0.81019115 0.40097505 0.20656963
000100 d2 b0 40 bc 4e 5a ed bd aa 64 29 3f be 86 90 bf
       -0.011760907 -0.1158949 0.66169226 -1.129112
000110 cc e5 0e bf 1d 92 bf 3c b9 71 4b be 27 c0 25 be
       -0.5581939 0.023385102 -0.198676 -0.16186582
000120 e2 3a 6e 3f ee 5d d0 bc 0c cc b0 3e 49 59 a2 bf
       0.930586 -0.025435414 0.34530675 -1.2683498
000130 e2 aa 58 3f 98 34 b3 3e 44 87 28 3d 4d fa d1 bd
       0.84635746 0.35001063 0.041144624 -0.10252819
000140 fb 90 d0 3c da 73 9f 3e f0 7f 87 bf 0a 4d b2 be
       0.025459757 0.31143075 -1.0585918 -0.348244
000150 c1 ca 55 3d 0f 40 4c 3f 76 08 f8 be b5 14 d2 bf
       0.052195314 0.79785246 -0.48443955 -1.6412569
000160 d3 f9 a9 bf b0 b6 83 be 2b 5e 4c 3e d2 7e 86 bf
       -1.3279365 -0.25725317 0.19957797 -1.0507452
000170 a7 ad b1 be fe 65 02 3f 88 7c 95 bf 99 4b f4 be
       -0.347028 0.5093688 -1.1678629 -0.47713926
000180 50 43 f1 3e 5e f1 30 3f 71 f8 e7 3e dd f2 65 3f
       0.47121668 0.691183 0.45306733 0.89823705
000190 52 53 ce be cf 2f 14 3f 87 37 08 3f a0 e0 bc bf
       -0.40297943 0.5788545 0.5320973 -1.475605
0001a0 60 9d c3 be ed a1 8a bf db fa d7 be c6 7c cb be
       -0.38206005 -1.0830666 -0.42183575 -0.39743632
0001b0 5c d8 93 3d 78 de 5e 3f cd 24 87 3e 34 f5 45 3c
       0.07219002 0.8705821 0.26395264 0.012082387
0001c0 9d 93 2a 3f a2 84 e3 be 34 8f f3 3e 03 20 39 3f
       0.6663149 -0.44437128 0.47570193 0.7231447
0001d0 69 6b eb 3e b2 8a a7 be ea 7a f9 3e 3e 83 1b bf
       0.45980385 -0.32723004 0.48726588 -0.60747135
0001e0 a1 d7 30 3f 88 65 45 3f 07 73 0a 3f 2b f4 90 be
       0.69079024 0.7710805 0.5408177 -0.28311285
0001f0 29 46 15 3f 73 dd 17 bf b4 66 e0 3c 97 4b 29 3f
       0.5831018 -0.5932228 0.027392723 0.66130966
000200 68 cc 87 3e 32 75 4e 3f 73 50 64 3f e5 9b 1d 3f
       0.26523137 0.80647576 0.89185256 0.61566
000210 4d ec d5 bf 59 26 ad bf d2 9f 87 be 06 7d af 3e
       -1.6712738 -1.3527328 -0.2648912 0.34275073
000220 d4 15 8c 3f cb f7 95 3e ef f1 de bd 23 d8 7a bf
       1.0944161 0.29290614 -0.10885989 -0.9798605
000230 2a 62 26 3f 1f b4 09 3f 4c ae b2 bf f7 61 bb be
       0.64993536 0.5379047 -1.3959441 -0.3659818
000240 08 0e 85 3e 96 bc 7d 3f e1 1c aa 3e c3 91 9a bf
       0.25987267 0.99115884 0.33225158 -1.2075733
000250 06 20 52 3f b7 c5 a5 3e 86 91 ef 3e b4 8e ba bf
       0.82080114 0.32377407 0.46790713 -1.45748
000260 ac dd bf be e5 ef 2c 3f 69 f0 89 bf 39 12 0d bf
       -0.3747381 0.6755355 -1.0776492 -0.5510593
000270 0e 19 33 be 9d 82 20 3f cf 01 dd be 84 e7 96 be
       -0.17490026 0.626993 -0.43165442 -0.29473507
000280 9b f6 80 bf c6 0d 3e 3f 7c 36 6a 3f b2 7d c7 bd
       -1.0075258 0.74239767 0.91489387 -0.09740771
000290 f8 4d b3 3e ca 54 a2 bf 5b 12 51 3f 48 6d b2 3e
       0.35020423 -1.2682126 0.81668633 0.34849
0002a0 ac 4c 30 3f 2a a7 21 3f a4 80 eb 3e 34 72 9a 3c
       0.6886699 0.631457 0.45996583 0.018853284
0002b0 0c b2 66 3f 92 4e 94 3e 44 13 50 3f 77 a1 aa 3f
       0.9011543 0.28966194 0.81279397 1.3330525
0002c0 a1 14 ab 3e a0 db a3 bf 64 d7 66 3f 73 fd b3 3e
       0.33414176 -1.2801399 0.9017241 0.35154304

fa1.bias f4 [60]
000000 23 74 30 3f d6 7d f5 3e 7b 9f 27 3f 69 c9 19 bf
       0.6892721 0.47947568 0.6547772 -0.6007295
000010 7a 47 bb 3d 29 60 a4 be 3f 6e 97 be b8 51 81 3d
       0.091444924 -0.32104614 -0.295763 0.06314415
000020 52 1c 04 3e 88 6a 13 3f f0 c1 f2 3e 3d 77 ff 3e
       0.12901428 0.5758443 0.47413588 0.4989566
000030 bf 55 91 be b8 39 c5 bb 20 49 0f 3f 60 5c d8 3e
       -0.28385732 -0.0060188435 0.55970955 0.42257977
000040 92 14 86 3e d8 a5 02 3c 07 39 78 3e 7b 0d 0d bf
       0.2618757 0.007974111 0.24240504 -0.55098695
000050 a3 46 d3 3e 5d 67 01 3f dd fc 28 bd 27 91 1f 3f
       0.4126483 0.50548345 -0.041256774 0.6233086
000060 d4 57 df be 2d 5a d1 3e e3 70 9f be c7 8f 08 3f
       -0.43621695 0.4088911 -0.31140813 0.53344387
000070 02 fa 10 3f 58 25 d1 3d 4f 3f 16 3f b9 69 bf bd
       0.5663148 0.10212201 0.5869035 -0.09346337
000080 ea 1a 32 bd ec 56 40 bf 5c a5 2d 3e 15 cd 9b 3e
       -0.0434827 -0.7513263 0.16957611 0.30429903
000090 32 8b 7b 3e d7 5b e9 3e d6 e3 53 bd 5a ea fd 3e
       0.24564818 0.4557788 -0.051730953 0.4959286
0000a0 15 0a 1e be 6f c1 e6 3e a2 1f 02 3f 85 c2 4b be
       -0.15433533 0.45069453 0.5082952 -0.19898422
0000b0 ae 7d af 3d 67 67 18 3e ac 1a e4 3e b2 ba 0f 3e
       0.085688934 0.14883195 0.445516 0.14036062
0000c0 33 aa 04 3f 7d d6 c7 3e b8 39 1d 3e 2c df 4b be
       0.51822203 0.3903083 0.15354049 -0.19909352
0000d0 d8 0c a9 3e 23 a4 03 3f 77 b1 e4 be 1b fe d3 3e
       0.33017612 0.5142233 -0.44666645 0.41404805
0000e0 f6 ae 5e be 3a a4 c1 3e 63 ad 08 3c b1 d5 ea 3e
       -0.2174643 0.37820607 0.00834212 0.4586616

fa2.weight f4 [1, 60]
000000 79 54 76 3e 8d 24 dd 3e 04 83 71 3e ea cc b6 3f
       0.24055661 0.4319195 0.23585135 1.4281285
000010 1b 08 50 bf e2 a0 a9 bf dc 27 8c bd 64 6a 5b bf
       -0.8126237 -1.3252223 -0.0684354 -0.85709214
000020 0b ef ad bf d2 e5 9e be 97 cc a2 3e 3b 34 b3 3e
       -1.3588575 -0.31034714 0.31796715 0.35000786
000030 b4 2c 24 be b2 9f 8c 3f 3e 01 81 3f 65 fe d1 be
       -0.16032678 1.0986235 1.0078504 -0.410144
000040 02 36 51 bf 4a e3 37 3f 10 29 d1 be 2b bf e7 3d
       -0.81723034 0.7183119 -0.4085164 0.11315759
000050 5e fc 38 3f 7a aa 00 3e 47 2d 66 3f fe c0 8d 3e
       0.7226008 0.12565032 0.8991284 0.27686304
000060 14 b1 89 bf 11 bb 5a 3f 88 07 92 3d 04 12 e2 3e
       -1.0757165 0.8544169 0.07130343 0.4415437
000070 b8 29 d7 be 52 c4 ca bf b0 db f1 3e 8b ac 98 3f
       -0.42024016 -1.5841162 0.4723792 1.1927656
000080 3f ee 65 bf 82 d4 68 bf ce ea 84 3f 40 1c 2c bf
       -0.8981666 -0.9094926 1.0384157 -0.67230606
000090 f9 6a 1f bf 63 84 b3 be 4b 83 97 bf ac b1 10 bf
       -0.622726 -0.3506194 -1.1836942 -0.56521106
0000a0 71 88 97 bf 72 db 45 bf 03 56 4b be d4 92 89 bf
       -1.1838514 -0.7728797 -0.1985703 -1.0747933
0000b0 fd d8 c6 bf 18 79 26 bf 77 7b 1d 3f 7e 38 80 3f
       -1.553497 -0.65028524 0.6151652 1.001724
0000c0 67 d2 6c be 7b 7c 30 3f 7f cd 82 3f af 69 7b 3f
       -0.23127137 0.6893994 1.0218962 0.98208135
0000d0 2e cb 11 bf e8 72 53 3f 5c d9 73 bf 93 8f 3f 3f
       -0.5695065 0.8259721 -0.9525354 0.7482845
0000e0 b3 63 86 bf 6b 04 c9 be f0 d1 a0 bf 19 4c 2d 3f
       -1.0499176 -0.39261183 -1.2564068 0.6769424
