DDPG/models/2200_actor.pt (torch, 2835 bytes, 3 tensors)

fa1.weight f4 [60, 3]
0.051165193 -0.34164864 -0.10191432 0.14646924 -1.0961566 -0.19693986 0.26442763 -1.0639803
-0.20180374 0.49344766 1.2602355 -0.9803394 0.4001291 1.2395878 0.26578233 0.2234575
1.901961 0.2678228 -0.092620604 -0.1603878 -0.005839608 0.45400292 1.2575691 0.27487478
-1.1020652 -0.76262635 -0.21134196 -0.111079365 0.65818745 -0.61007744 0.1305907 -0.7099638
-0.15702814 0.0171411 -1.0899327 0.67545754 -0.03422885 0.16427618 -0.0151247 0.47799823
-1.8094151 -0.036377743 -0.37963608 -1.2998627 0.8715695 -0.111194186 0.56875145 -0.5555941
-1.2017103 -0.14789796 -0.4794388 0.75048006 -0.51592594 -0.5937771 0.01496818 0.8134092
0.1902885 -0.04955231 0.00852733 -0.053729255 -1.4824632 0.48398 0.5364534 0.2440924
-0.12627192 -0.045244075 0.7260621 -0.49041376 -0.57399434 0.047972575 -0.26238605 -0.09416343
0.88294125 0.048921227 0.4582555 -1.2744056 0.47368208 0.47296187 0.041144624 -0.10252819
0.025459757 0.29195774 -1.0770015 -0.21249917 -0.057932287 0.6351743 -0.57905906 -1.4893569
-0.9337363 -0.33434388 0.18787254 -1.0753961 -0.19769163 0.551694 -0.4566885 -0.5082418
0.4763509 0.70612764 0.46160817 0.8766635 -1.2043523 0.6758486 0.53068435 -1.4133735
-0.295782 -1.1282231 -0.24025631 -0.447372 0.045163658 1.0008218 0.23544008 -0.072755665
0.51002944 -0.5335959 0.48102623 0.74609023 0.46582523 -0.3561288 1.0528109 -0.62689257
0.70800835 0.7752615 0.5532694 -0.3140019 1.1784928 -0.60521454 0.045556046 0.9644308
0.25995302 0.83431906 0.90960443 0.61982536 -1.4838696 -0.9263915 -0.30889252 0.272716
1.2447426 0.27351367 -0.013900919 -1.1106833 0.64502895 0.5382244 -1.3292634 -0.28530785
0.201115 1.1542236 0.3131294 -1.1456815 0.64155984 0.1945803 0.46509147 -1.392676
-0.29216474 0.7807002 -0.4119829 -0.52715856 -0.20088196 1.2011738 -0.45113876 -0.28236076
-1.268702 0.80255824 0.8621103 -0.021903109 0.45206773 -1.2901858 0.46102288 0.48767054
0.6815013 0.5963779 0.5019897 -0.014186479 1.1104572 0.27233395 0.77142227 1.4344542
0.34977993 -1.2172452 0.45408243 0.4899232
00000000: 9892 513d 92ec aebe 74b8 d0bd 08fc 153e
00000010: dc4e 8cbf 9aaa 49be 0f63 873e 8230 88bf
00000020: a4a5 4ebe 2ca5 fc3e 664f a13f 86f7 7abf
00000030: b9dd cc3e d0aa 9e3f 9f14 883e 0bd2 643e
00000040: 7573 f33f 1220 893e dfaf bdbd b33c 24be
00000050: 2f5a bfbb 1273 e83e 06f8 a03f 63bc 8c3e
00000060: 7910 8dbf 7b3b 43bf 076a 58be 947d e3bd
00000070: f97e 283f 092e 1cbf 92b9 053e 30c0 35bf
00000080: fccb 20be 7e6b 8c3c ea82 8bbf c9ea 2c3f
00000090: 8d33 0cbd 0438 283e 97cd 77bc 2fbc f43e
000000a0: ea9a e7bf d400 15bd a95f c2be e761 a6bf
000000b0: 2e1f 5f3f c7b9 e3bd b299 113f 6a3b 0ebf
000000c0: a5d1 99bf 9072 17be 0179 f5be 761f 403f
000000d0: b913 04bf c701 18bf 193d 753c 963b 503f
000000e0: fdda 423e 5df7 4abd 37b6 0b3c 3513 5cbd
000000f0: 5bc1 bdbf 3acc f73e 0355 093f 5cf3 793e
00000100: 6d4d 01be da51 39bd 35df 393f 8317 fbbe
00000110: 4bf1 12bf e47e 443d 7757 86be c2d8 c0bd
00000120: 7008 623f a061 483d 77a0 ea3e b91f a3bf
00000130: 7586 f23e 0f28 f23e 4487 283d 4dfa d1bd
00000140: fb90 d03c 7c7b 953e 2fdb 89bf 6299 59be
00000150: 684a 6dbd c89a 223f 373d 14bf 3fa3 bebf
00000160: 5809 6fbf 1f2f abbe a961 403e 94a6 89bf
00000170: ad6f 4abe d13b 0d3f 13d3 e9be 221c 02bf
00000180: 44e4 f33e c8c4 343f e857 ec3e 056d 603f
00000190: 3728 9abf 6a04 2d3f eeda 073f 6ce9 b4bf
000001a0: bd70 97be 9d69 90bf c005 76be f10d e5be
000001b0: 87fd 383d ee1a 803f 3417 713e ec00 95bd
000001c0: 4a91 023f be99 08bf 1249 f63e c5ff 3e3f
000001d0: a580 ee3e 8456 b6be 82c2 863f 087c 20bf
000001e0: 0940 353f 8a77 463f 10a3 0d3f dbc4 a0be
000001f0: dad8 963f 57ef 1abf fa98 3a3d f0e4 763f
00000200: 9018 853e ef95 553f d6db 683f e0ac 1e3f
00000210: 70ef bdbf fe27 6dbf 2927 9ebe 6ea1 8b3e
00000220: ba53 9f3f fc09 8c3e aec0 63bc df2a 8ebf
00000230: 9e20 253f 13c9 093f 4e25 aabf df13 92be
00000240: 17f1 4d3e 99bd 933f 7f52 a03e b1a5 92bf
00000250: 443d 243f 0f40 473e 7820 ee3e 3543 b2bf
00000260: 9e96 95be f8db 473f 6cef d2be ddf3 06bf
00000270: 00b4 4dbe 10c0 993f a9fb e6be 9791 90be
00000280: d464 a2bf 7574 4d3f 43b3 5c3f 266e b3bc
00000290: 6c75 e73e cf24 a5bf 310b ec3e f4af f93e
000002a0: df76 2e3f 39ac 183f 6682 003f 686e 68bc
000002b0: 7623 8e3f 5b6f 8b3e ee7b 453f 329c b73f
000002c0: 5b16 b33e b1ce 9bbf 7e7d e83e 37d7 fa3e

fa1.bias f4 [60]
0.7849413 0.6416419 0.80363435 -0.6467783 0.16296726 -0.17537765 -0.295763 0.13198517
-0.17548773 0.54798037 0.5831489 0.6633112 -0.28385732 0.13957281 0.595668 0.43808246
0.1304229 0.0038717035 0.22748859 -0.55098695 0.46094814 0.5880707 -0.052747827 0.7141137
-0.49353155 0.46684337 -0.31140813 0.6990398 0.5116441 -0.13206752 0.74026805 -0.119103454
-0.07824829 -0.85650796 0.35443756 0.17719215 0.2821557 0.43262488 -0.0811708 0.35177422
-0.19220535 0.30954334 0.44927546 -0.22543818 -0.17244387 0.2199129 0.6344188 0.32512498
0.535056 0.06063108 0.3444608 -0.21154003 0.19673187 0.59400195 -0.5127861 0.48026216
-0.28630707 0.37369192 0.06506709 0.6011722
00000000: eaf1 483f a542 243f fbba 4d3f 4393 25bf
00000010: e4e0 263e 3396 33be 3f6e 97be 1f27 073e
00000020: 0eb3 33be 7148 0c3f 3f49 153f c3ce 293f
00000030: bf55 91be 2dec 0e3e b37d 183f 584c e03e
00000040: 958d 053e 68bc 7d3b c5f2 683e 7b0d 0dbf
00000050: 6501 ec3e cd8b 163f 1b0e 58bd 28d0 363f
00000060: 2bb0 fcbe 1806 ef3e e370 9fbe 46f4 323f
00000070: 1cfb 023f b53c 07be 3582 3d3f 83ec f3bd
00000080: a440 a0bd 1b44 5bbf d778 b53e dc71 353e
00000090: b676 903e 0281 dd3e e03c a6bd c01b b43e
000000a0: 7bd1 44be 777c 9e3e 6f07 e63e 44d9 66be
000000b0: 2095 30be d930 613e 4569 223f c876 a63e
000000c0: 6ef9 083f 4c58 783d 2a5d b03e f39d 58be
000000d0: 1474 493e 8310 183f f345 03bf ece4 f53e
000000e0: d796 92be 8c54 bf3e e541 853d 6ce6 193f

fa2.weight f4 [1, 60]
0.31763646 0.45084253 0.27052942 1.5389789 -0.78901374 -1.896911 -0.0684354 -0.8281643
-1.0287669 -0.30284974 0.36481375 0.4524168 -0.16032678 1.0071176 1.165152 -0.41639453
-0.8535697 0.6592143 -0.4439624 0.11315759 0.71599054 0.1915649 0.82606786 0.3550933
-1.1212784 0.7836184 0.07130343 0.46527916 -0.40570188 -1.2830474 0.5021439 1.0377396
-0.9016441 -1.2538482 0.94607955 -0.6914914 -0.63442564 -0.34966528 -1.1849031 -0.68262684
-1.2001362 -0.9109978 -0.23724887 -1.0865918 -1.205596 -0.63968194 0.71697694 0.9059636
-0.24933305 0.38505092 0.91887224 0.9006547 -0.74876547 0.96436197 -0.98785836 0.70684874
-1.0987799 -0.43629962 -1.2201116 0.5866211
00000000: 3fa1 a23e d5d4 e63e d582 8a3e 43fd c43f
00000010: cefc 49bf fbcd f2bf dc27 8cbd 9302 54bf
00000020: a2ae 83bf 1f0f 9bbe dec8 ba3e 2da3 e73e
00000030: b42c 24be 3be9 803f b323 953f aa31 d5be
00000040: 8b83 5abf 45c2 283f 0a4f e3be 2bbf e73d
00000050: 284b 373f 9729 443e 2f79 533f cace b53e
00000060: 0d86 8fbf 379b 483f 8807 923d 1239 ee3e
00000070: 28b8 cfbe e63a a4bf 818c 003f a7d4 843f
00000080: 26d2 66bf 197e a0bf 4532 723f 9505 31bf
00000090: b869 22bf 5407 b3be e8aa 97bf a2c0 2ebf
000000a0: 109e 99bf 2737 69bf 5ef1 72be 7115 8bbf
000000b0: f850 9abf 32c2 23bf cd8b 373f 3bed 673f
000000c0: 2a51 7fbe 6525 c53e 363b 6b3f 4e91 663f
000000d0: 18af 3fbf 6de0 763f 49e4 7cbf 0af4 343f
000000e0: d2a4 8cbf aa62 dfbe 9e2c 9cbf cd2c 163f
