DDPG/models/2300_actor.pt (torch, 2835 bytes, 3 tensors)

fa1.weight f4 [60, 3]
0.034571406 -0.25167254 -0.10179966 0.16009068 -1.1119764 -0.3133397 0.27829352 -1.0805626
-0.3170393 0.58912873 1.2591335 -1.0741969 0.46936086 1.2321879 0.25905368 0.36433265
1.8991344 0.2021404 -0.092620604 -0.1603878 -0.005839608 0.5232284 1.2497008 0.2694102
-1.3845204 -0.92661935 -0.26109877 -0.13630871 0.68953997 -0.5652526 0.14506212 -0.7313947
-0.26643348 -0.05138965 -0.9556818 0.7787218 -0.03422885 0.16427618 -0.0151247 0.46105525
-1.8494912 -0.32225394 -0.4787237 -1.1650568 1.0120264 -0.14097922 0.60754716 -0.5093849
-1.4425441 -0.2276857 -0.57309806 0.72508097 -0.65570456 -0.697952 0.08501265 0.81044173
0.17787248 -0.04955231 0.00852733 -0.053729255 -1.3864322 0.94973654 0.73460305 0.22781236
-0.03643454 -0.042856287 0.7016354 -0.6341095 -0.67619413 0.031359762 -0.17195998 -0.09400032
0.98717844 0.18277895 0.47843203 -1.1782874 0.9379852 0.6705895 0.041144624 -0.10252819
0.025459757 0.30583948 -1.0927979 -0.32899296 -0.08186113 0.6661242 -0.5324997 -1.7634665
-1.0471557 -0.39430377 0.20166036 -1.091399 -0.31411967 0.53142244 -0.6061251 -0.60538983
0.5687143 0.67313623 0.4959975 0.79043937 -1.3282698 0.71621096 0.5461892 -1.4344096
-0.40535873 -1.3687576 -0.31935316 -0.5419544 0.115064256 0.99700814 0.22402354 -0.10080561
0.5509479 -0.48191997 0.5720094 0.70841676 0.50397885 -0.31933087 1.0383246 -0.5967068
0.8018216 0.75333333 0.5818173 -0.27025878 1.1530932 -0.57718974 0.10687218 0.9472194
0.24806234 0.92505026 0.87596846 0.6584319 -1.7637709 -1.0711211 -0.35394636 0.34243327
1.2379751 0.26584855 -0.08683987 -0.97942513 0.7531311 0.55451566 -1.3514836 -0.39276618
0.27254304 1.1507746 0.30254182 -1.0281322 1.122958 0.44799092 0.4806518 -1.415492
-0.3997102 0.74993616 -0.582943 -0.636517 -0.13372366 1.1944348 -0.43725652 -0.39174202
-1.1432368 0.9389777 0.96750927 0.12354812 0.47339055 -1.1928929 0.92443854 0.68652743
0.7850452 0.6173741 0.5028017 0.055058744 1.1093385 0.25656217 0.8408589 1.4066708
0.36489347 -1.1287606 0.92142457 0.68347895
00000000: bf9a 0d3d 39db 80be 577c d0bd d0ee 233e
00000010: 3e55 8ebf 106e a0be 7d7c 8e3e e04f 8abf
00000020: fa52 a2be 24d1 163f 492b a13f 497f 89bf
00000030: 1150 f03e 55b8 9d3f afa2 843e cf89 ba3e
00000040: d616 f33f e5fd 4e3e dfaf bdbd b33c 24be
00000050: 2f5a bfbb 4cf2 053f 32f6 9f3f 22f0 893e
00000060: f737 b1bf ed36 6dbf bdae 85be 8394 0bbe
00000070: b185 303f 65b4 10bf 2a8b 143e af3c 3bbf
00000080: f869 88be f47d 52bd 90a7 74bf 505a 473f
00000090: 8d33 0cbd 0438 283e 97cd 77bc 6f0f ec3e
000000a0: 21bc ecbf 78fe a4be 461b f5be 9520 95bf
000000b0: 158a 813f db5c 10be 3688 1b3f 0c67 02bf
000000c0: 49a5 b8bf 7126 69be 8eb6 12bf e89e 393f
000000d0: 41dc 27bf fbac 32bf 1d1b ae3d 1c79 4f3f
000000e0: 3424 363e 5df7 4abd 37b6 0b3c 3513 5cbd
000000f0: 9c76 b1bf ef21 733f f20e 3c3f a547 693e
00000100: 623c 15bd 138a 2fbd 619e 333f 0055 22bf
00000110: 0f1b 2dbf 1873 003d 4716 30be 3d83 c0bd
00000120: bab7 7c3f 682a 3b3e 0bf5 f43e 1fd2 96bf
00000130: cc1f 703f c1ab 2b3f 4487 283d 4dfa d1bd
00000140: fb90 d03c fe96 9c3e cde0 8bbf c471 a8be
00000150: cfa6 a7bd 1e87 2a3f e651 08bf 45b9 e1bf
00000160: 3309 86bf 2fe2 c9be 0e80 4e3e f6b2 8bbf
00000170: 4bd4 a0be 4d0b 083f 042b 1bbf d4fa 1abf
00000180: 4397 113f a852 2c3f 62f3 fd3e 3c5a 4a3f
00000190: bf04 aabf 9a59 373f 0ed3 0b3f bc9a b7bf
000001a0: 2e8b cfbe 7333 afbf 4282 a3be 86bd 0abf
000001b0: cfa6 eb3d ed3b 7f3f 6d66 653e 2c73 cebd
000001c0: ec0a 0d3f 37be f6be 356f 123f cd5a 353f
000001d0: c204 013f 567f a3be d2e7 843f c7c1 18bf
000001e0: 2e44 4d3f 74da 403f fbf1 143f 5c5f 8abe
000001f0: 8f98 933f b5c2 13bf cddf da3d f87c 723f
00000200: 0e04 7e3e 18d0 6c3f 783f 603f fe8e 283f
00000210: 3fc3 e1bf 7f1a 89bf 7538 b5be 6a53 af3e
00000220: f875 9e3f 4d1d 883e 1ad9 b1bd 9bbb 7abf
00000230: 33cd 403f bdf4 0d3f 6afd acbf a618 c9be
00000240: c38a 8b3e 954c 933f c3e6 9a3e d699 83bf
00000250: 16bd 8f3f 115f e53e fe17 f63e d82e b5bf
00000260: d1a6 ccbe d1fb 3f3f c13b 15bf c7f2 22bf
00000270: dbee 08be 3de3 983f 16e0 dfbe 6992 c8be
00000280: 9555 92bf d860 703f b0ae 773f cc06 fd3d
00000290: 3f60 f23e b7b0 98bf 01a8 6c3f 43c0 2f3f
000002a0: b9f8 483f 3b0c 1e3f 9db7 003f 4785 613d
000002b0: cefe 8d3f 1e5c 833e 8742 573f ca0d b43f
000002c0: 51d3 ba3e 3a7b 90bf 7be2 6b3f 7af8 2e3f

fa1.bias f4 [60]
0.7231628 0.5408751 0.7032991 -0.5469758 0.17143509 -0.09702583 -0.295763 0.14016266
0.08047133 0.6129583 0.48360828 0.5405749 -0.28385732 0.015570861 0.44070762 0.5013585
0.31149098 -0.04093206 0.23670517 -0.55098695 0.31756246 0.52701503 -0.09587972 0.6522469
-0.42968068 0.3240653 -0.31140813 0.5980948 0.57822925 0.117104135 0.63937294 -0.15855543
-0.05896326 -0.97997266 0.25347897 0.3601763 0.29078916 0.50016665 -0.06326316 0.47386283
-0.16939831 0.44008335 0.46831197 -0.20610116 0.071503 0.2283095 0.5070767 0.22416233
0.5434395 -0.045868684 0.24406628 -0.24500906 0.30463502 0.4296163 -0.4458991 0.33860227
-0.25048277 0.38407555 0.069855444 0.4516382
00000000: 3221 393f ca76 0a3f 690b 343f 9b06 0cbf
00000010: ae8c 2f3e 7ab5 c6bd 3f6e 97be cd86 0f3e
00000020: 27ce a43d d6ea 1c3f 819b f73e 1e63 0a3f
00000030: bf55 91be ed1c 7f3c 6ea4 e13e 0859 003f
00000040: bf7b 9f3e 60a8 27bd d762 723e 7b0d 0dbf
00000050: 8c97 a23e 75ea 063f 965c c4bd a7f9 263f
00000060: 1bff dbbe e3eb a53e e370 9fbe be1c 193f
00000070: d506 143f 4bd4 ef3d f2ad 233f 5b5c 22be
00000080: 7683 71bd 7ddf 7abf ffc7 813e 0769 b83e
00000090: 51e2 943e ec0a 003f 1e90 81bd 269e f23e
000000a0: c076 2dbe 9b52 e13e 96c6 ef3e 2f0c 53be
000000b0: 2a70 923d f7c9 693e c7cf 013f cf8a 653e
000000c0: da1e 0b3f cde0 3bbd 83ec 793e a8e3 7abe
000000d0: 1ff9 9b3e abf6 db3e e34c e4be 475d ad3e
000000e0: 473f 80be 8da5 c43e 5f10 8f3d 1f3d e73e

fa2.weight f4 [1, 60]
0.24919076 0.41079885 0.22668801 1.6155239 -0.8283932 -1.9489156 -0.0684354 -0.8714311
-1.302584 -0.32873547 0.32143325 0.38136068 -0.16032678 1.0165552 1.1773205 -0.4391395
-1.091576 0.7193733 -0.44839045 0.11315759 0.8351435 0.1393796 0.8931613 0.2883102
-1.2731438 0.90916497 0.07130343 0.43057352 -0.42910734 -1.5489198 0.45759323 1.1325632
-1.0063074 -1.3896888 0.96163195 -0.9354498 -0.64087063 -0.37159833 -1.289601 -0.7037229
-1.318021 -0.9278412 -0.2449629 -1.2051848 -1.4741046 -0.66844004 0.6460317 0.9242007
-0.2668041 0.5683864 0.93546516 0.97769874 -0.7607766 0.95082426 -1.1420096 0.8300278
-1.2341405 -0.43331128 -1.275832 0.7016028
00000000: dd2b 7f3e 3a54 d23e e720 683e 7dc9 ce3f
00000010: 9411 54bf 1176 f9bf dc27 8cbd 1c16 5fbf
00000020: 13bb a6bf 0450 a8be e692 a43e b541 c33e
00000030: b42c 24be 7b1e 823f 70b2 963f e4d6 e0be
00000040: c3b8 8bbf d928 383f 6f93 e5be 2bbf e73d
00000050: f7cb 553f 87b9 0e3e 38a6 643f 659d 933e
00000060: 60f6 a2bf 09bf 683f 8807 923d 2274 dc3e
00000070: f5b3 dbbe 0143 c6bf a949 ea3e d5f7 903f
00000080: aece 80bf 53e1 b1bf 832d 763f a379 6fbf
00000090: 1910 24bf 2342 bebe a511 a5bf 2f27 34bf
000000a0: eab4 a8bf 0087 6dbf 8ed7 7abe 7f43 9abf
000000b0: 76af bcbf e31e 2bbf 5562 253f 6b98 6c3f
000000c0: 8c9a 88be c581 113f a57a 6f3f 774a 7a3f
000000d0: 41c2 42bf 3869 733f 5f2d 92bf b47c 543f
000000e0: 51f8 9dbf fada ddbe 774e a3bf 3e9c 333f
