DDPG/models/3300_critic.pt (torch, 18423 bytes, 7 tensors)

fc1.weight f4 [30, 3]
00000000: 3273 8ebe e588 18bf 3afd efbd 872f 9bbe
00000010: cc1f b7bd cb35 edbd de54 0b3f 49ee ad3e
00000020: 3592 7a3e ecc5 4ebe c1a7 57bf 7d6a 13be
00000030: f083 0cbf 8543 37bf 01fc 0ebe 12a2 5f3c
00000040: 272c a1be 9d99 25bc 7c0d 01bd c0d2 7abf
00000050: 83a6 8cbe 33a5 8abe fb5b a53f 706f ab3e
00000060: fe34 61be 08f0 3a3f 2dbc c33d 305c 103d
00000070: d01e cb3d f0f3 7abc a280 693d 52a2 003e
00000080: 121c 75bc 6bc6 14bf 2972 ef3d 9f7b 823e
00000090: 7d1b fb3e b0b0 d1be 6d28 26be 389c a3be
000000a0: e74e 8cbe aab9 12be 4a43 1c3f 9c5b f03e
000000b0: 0503 583e 7dff 8abd f3b3 27be 49ad 82bd
000000c0: 845d a63e 0bb1 26bf 29f5 ffbd 96c6 b2be
000000d0: 8746 d43d e9bd 76be 1ceb 3b3e 90d8 443f
000000e0: 5b1c 2f3e c95f 753e a841 193f 9d21 f53d
000000f0: 37f7 57be e120 1ebf 4557 e03d 2a95 48bc
00000100: 97df d8bd 71a1 3d3a 6e7d a9bd 63c3 183f
00000110: d2c9 af3d abf8 f5bd 3378 3b3f f558 683e
00000120: cc5b 3ebf afe8 083f 33b5 cc3e b70a 1abf
00000130: c225 e2be 4d24 d0bd c276 edbe 7524 533e
00000140: 360a 043e 879e 25bf 97a5 e03e 4466 f13d
00000150: 75c4 eebe 1beb 363e 9b45 483e 4585 56bd
00000160: 35ae 433d 2428 80be
-0.27822262 -0.59583884 -0.11718221 -0.30309698 -0.08941612 -0.11582526 0.5442637 0.3397086
0.24469836 -0.20192689 -0.8424035 -0.14396091 -0.5488882 -0.715874 -0.1396332 0.01364948
-0.31478998 -0.010107425 -0.031507 -0.9797783 -0.27470788 -0.27079162 1.2918695 0.33483458
-0.21992871 0.7302251 0.09557376 0.035244167 0.099179864 -0.015316948 0.05700744 0.1256192
-0.014960306 -0.5811526 0.11691696 0.2548494 0.4904441 -0.40955114 -0.16226359 -0.31955123
-0.27403948 -0.14328638 0.61040175 0.46944892 0.21094902 -0.06787012 -0.16377239 -0.06380708
0.32493222 -0.65113896 -0.124979325 -0.34917134 0.103650145 -0.24095882 0.18351406 0.7689295
0.1710066 0.2396232 0.5986581 0.11969302 -0.21090399 -0.6176892 0.10954145 -0.012242595
-0.105895214 0.00072338345 -0.08275877 0.59673136 0.08583416 -0.1201032 0.73230284 0.22690184
-0.7435882 0.53480047 0.39981994 -0.601726 -0.44169432 -0.10163174 -0.46379668 0.20619376
0.1289452 -0.6469502 0.43876335 0.11787084 -0.4663426 0.17863123 0.19557802 -0.05237319
0.04777356 -0.25030625

fc1.bias f4 [30]
00000000: 9cb1 cb3d 39fb b73e d9bc 35be 86e5 01bc
00000010: 6563 873e 511a cabe 8182 7abe 3edb 28be
00000020: 306d 43be 4041 b0be b02e b7be 4e59 f5be
00000030: 52de 9fbe 5293 c43e f649 c9be 1903 d63e
00000040: 2337 aabd 402a 933e e7dd f83d f2c1 013f
00000050: 403b 173f 0c93 b8be cc43 983e eea1 cebd
00000060: e90d e73d 5751 9c3e ad93 813e c3cd c73d
00000070: 9ef8 223f 830b 13be
0.09945986 0.35933855 -0.17747821 -0.007928258 0.2644302 -0.39473203 -0.24463846 -0.16489884
-0.1908462 -0.34424782 -0.35777807 -0.47919697 -0.31224304 0.38393646 -0.3931424 0.41799238
-0.08311298 0.28743172 0.121516995 0.5068656 0.59074783 -0.36049688 0.29739225 -0.100894794
0.1128195 0.30530807 0.2530798 0.09756043 0.6366061 -0.1435986

fa1.weight f4 [30, 1]
00000000: 3a66 d63d 05ef 16bd 0746 72ba 19f5 2abd
00000010: c2fe 653d e34b e93d 8d19 643c 7d0c a43d
00000020: c596 58be bb09 46be 5ae6 35bd 7f30 0b3d
00000030: d95d a73d 47a8 b13d abc8 f33a 2878 86bd
00000040: 5478 273a 6a84 4c3d d6c9 183e a7ef 88bd
00000050: 4295 45be 9048 adbd 9fc3 82bd 79b3 003e
00000060: 8d5f 0cbd 1863 ccbd e6ed b3bd f8d4 433e
00000070: 4055 223a 8c40 643d
0.10468717 -0.03684904 -0.0009242002 -0.04173765 0.05615116 0.11391427 0.013922107 0.080101945
-0.21151264 -0.1933965 -0.044409133 0.033981796 0.08172197 0.086746745 0.0018599232 -0.06565887
0.0006388475 0.049930967 0.14920744 -0.06686335 -0.19295219 -0.08461106 -0.06384968 0.12568463
-0.03427081 -0.09979838 -0.0878561 0.1912421 0.0006192513 0.05572562

fa1.bias f4 [30]
00000000: 1102 663f 783a 923e a002 6ebd 44a3 43bf
00000010: 68c8 4ebf eaf3 53bf 0b4d e13e 5808 11bf
00000020: e4eb 98be a612 6abf 74e6 b03e c152 8cbd
00000030: 9311 163c 1433 5ebf 3780 083f 4135 0c3f
00000040: 6c53 c83e 7689 5b3f f036 03bf f019 6bbe
00000050: 7101 14bc c35a 933e 42be 19bf 6e48 4d3f
00000060: ed3f 763f 894d 3a3e 2ad0 48bf 2bba 363d
00000070: c4f2 adbe e44e 223f
0.89846903 0.28560233 -0.058107972 -0.76421 -0.80774546 -0.8279406 0.44004092 -0.56653357
-0.2986747 -0.91434705 0.34550822 -0.068517216 0.009159463 -0.8679669 0.5332064 0.5476876
0.39126146 0.85756624 -0.512557 -0.22959113 -0.009033547 0.28780183 -0.60055935 0.80188644
0.96191293 0.1819364 -0.78442633 0.044611137 -0.33974278 0.6340163

fca1.weight f4 [60, 60]
00000000: 28ef 643e da04 203e 4ffe fcbd 86dc d33c
00000010: b47f c939 f929 f23d af48 9b3d d74d d0bd
00000020: 7835 d83d fc21 cbbd 38d1 53bd 3b00 e6bc
00000030: 5035 c33e fdc4 c43d 3035 cc3d 1f6f a63d
00000040: 8be6 533e f6cf ae3d 8084 303c d952 94bc
00000050: 7f47 073e ed32 49bc 2383 c53d b233 a3be
00000060: 7807 63bd a3d5 053a 790f 623e b90b 983e
00000070: bf19 cf3e 557d d9bd b8f0 933d 09ce 8c3c
00000080: 6af7 303e 4ebc b0bb e595 193d a70f 32be
00000090: e7a7 733d f001 5dbd b351 ea3d e347 fdbd
000000a0: 9a5e 80be e7e4 dbbd a701 75bc 0005 e23d
000000b0: f1bd ad3b 1a03 9b3d 9197 303e 1d2c 703d
000000c0: fccb 0abd ceac 8c3d 943c c13d df20 ed3d
000000d0: bc68 90bd 6806 03bd 5eff 09be 9274 44be
000000e0: bab9 883d d265 8b3a 9726 92bd 5c02 f2bc
000000f0: 9cf5 9e3e 9323 a83d 75e9 193e 2747 643e
00000100: cd52 8f3e 3ff8 b0bd 9dc7 ad3e c882 3abf
00000110: 9f44 c23e c4c5 0fbe b27c 1e3d cb6d 6a3e
00000120: 3852 333e 38a7 92bd 1a0c 41bf 2735 3ebd
00000130: fc9c 9c3e 3eff 5d3c c7c4 39c0 f0d2 d1be
00000140: bdbc ad3e 9556 5abe b399 67be 7f5c d8bd
00000150: 6e0d 6abe db21 183e 63f2 adbe dda9 10bf
00000160: 3e87 983e 3cb4 9abd 51bf eabd bf72 39be
00000170: af13 103d ff83 0c3d 8879 923d e556 61bd
00000180: db31 373d 171f 6c3c e384 9a3c dbe4 abbd
00000190: 619f bdbd 568f 313e 15f6 683d 53ae a53b
000001a0: a626 d8bd 71fb 81be 45a2 21bd f3f0 a8bd
000001b0: ea7f f4bc 47e2 133d 79cb 2e3e 29b6 f4bd
000001c0: 4b49 18bd 987d 62bc e30f cf3d 8137 533d
000001d0: 3645 ccbc db1a 81bd 0dd2 f03c 7349 02be
000001e0: f9de 833d 5a21 813e df2e 543b 1048 853e
000001f0: 1f9d e83c 55e3 2b3e 5c80 833e e70d 773e
00000200: 25c9 073e 55ca 7fbc 776d 093e cc7c 433e
00000210: 8ac2 573e 3b7a 643e 7e3f e5bd c9de 1e3e
00000220: 0474 1f3e 2513 fd3b 0f34 813d 36b0 13bd
00000230: 79e7 283e 6627 a5bc 5d74 623e 6ba9 533d
00000240: 9b95 a13d 28e3 853e e587 403e 9b8b 853e
00000250: 921f 573e 21da 51bd 45a4 ba3d 598a 973d
00000260: 154a 703d 2bfc 99bd a560 283e bf68 e93c
00000270: 388f a8bc 6d9e fdbd 7e0b d23b 690c 8d3d
00000280: e28e 9dbd 8df4 8ebd 3c40 2b3e 0bc1 b8bd
00000290: 416c d23c e1a6 073e 598a 7f3e ecfe 7c3e
000002a0: 1df8 d93d 88c0 2fbe 0097 13be ba1a 293e
000002b0: 85a4 81bd a6a8 36be cfa0 e13d ba20 cf3d
000002c0: 0b96 4b3d 00e6 373d d4bc 0c3d 0dd8 35bd
000002d0: cbf9 d83d b626 14bc fd53 2fbe 5009 8bbd
000002e0: f3b9 30bd a45c b43c 93fb 01bd 60c4 5ebd
000002f0: 32c3 5abe cc71 1f3d 8ced 23bb 9067 f13c
00000300: 68de 903d 9805 97bd 57e3 c23d 0e27 93bd
00000310: d29f 58bd c75d 0b3e 42cb 75bd ed6b 23be
00000320: de1e 00be 40ee 75bd 437a a9bd b01b f8bd
00000330: 67d0 54bc 70d8 71bd f340 25bc 6edf 88bd
00000340: a085 1c3c 0dce bdbd 1a8f fdbd 4b7d 21be
00000350: f247 60be cc06 18be fff9 babc 13bc 6bbc
00000360: c49a 0dbe 6acd 693c 01a0 8a3d c8cc 5fbe
00000370: 2b63 8d3d a10a 81ba 1aab 4e3d 9664 9abd
00000380: af43 b03d 759a fb3d 8ad5 94bd fad3 39ba
00000390: 5335 3ebe 5b4c 43bc 42fa 363b a714 0fbd
000003a0: d77f b23a 5f3b 983c 4974 14bd dfc6 55bc
000003b0: 2ac4 66be 336b aa3d a497 213e cf18 4d3e
000003c0: 126d 24bf 47c6 2d3d 02c4 bcbe 3657 83be
000003d0: 979a 08bf 2dc2 51be 4b88 aabd 877a fb3d
000003e0: 4613 803e 38e9 1cbd 1772 40be 8741 693d
000003f0: 63eb c1bd 720c 62be ed14 9dbe 9d36 7bbe
0.22356856 0.1562685 -0.12353193 0.02586199 0.00038432854 0.11824412 0.07582223 -0.10171097
0.10557073 -0.099185914 -0.0517132 -0.028076282 0.38126612 0.09607885 0.09971082 0.081266634
0.20693414 0.08535759 0.010773778 -0.018105911 0.13210867 -0.012280208 0.09644153 -0.31875378
-0.055427045 0.0005105382 0.22076215 0.29696444 0.4044933 -0.10619608 0.07223648 0.017188089
0.17281881 -0.0053935414 0.037496466 -0.17388783 0.059486296 -0.053956926 0.11441364 -0.12367227
-0.25072175 -0.10737019 -0.014954007 0.1103611 0.005302184 0.07568951 0.17245318 0.05863582
-0.03388594 0.068688974 0.094353825 0.11578535 -0.070512265 -0.03198853 -0.13476321 -0.19185093
0.066760495 0.0010635203 -0.07136267 -0.02954214 0.3104676 0.0820991 0.15030463 0.22292767
0.2799286 -0.08641099 0.33941355 -0.72855806 0.3794298 -0.14040285 0.038693137 0.22893445
0.17511833 -0.07160801 -0.7540909 -0.04643741 0.3058852 0.013549624 -2.9026353 -0.40981245
0.33933058 -0.21322091 -0.22617225 -0.10564517 -0.22856686 0.14856665 -0.3397399 -0.5650919
0.29790682 -0.07553908 -0.11462272 -0.18110178 0.03517502 0.03430557 0.071520865 -0.05501451
0.04472528 0.014411709 0.018862193 -0.0839326 -0.09258915 0.17339835 0.056875307 0.0050561815
-0.105542466 -0.25387147 -0.039461393 -0.082490824 -0.02984615 0.036104467 0.17069806 -0.11948807
-0.037179273 -0.013823889 0.10110452 0.051566605 -0.024935346 -0.063039504 0.029397035 -0.12723331
0.06439013 0.25220758 0.003237657 0.26031542 0.028395234 0.16785939 0.25683868 0.24126397
0.13260324 -0.015612205 0.13420664 0.19090575 0.21070305 0.22312252 -0.11193751 0.15514673
0.155716 0.0077232295 0.063087575 -0.03605672 0.1649455 -0.020160388 0.22114702 0.05167524
0.07889863 0.2614987 0.1880184 0.26083073 0.21008137 -0.051233415 0.09113363 0.073994346
0.0586644 -0.075188 0.16443117 0.02849233 -0.020576105 -0.12383733 0.0064100614 0.06887133
-0.07693268 -0.06980238 0.16723722 -0.09021195 0.025686385 0.13247253 0.24955119 0.2470662
0.10643027 -0.17163289 -0.1441307 0.16514102 -0.06330208 -0.17837772 0.11017 0.10113664
0.04970364 0.04489708 0.034359768 -0.044395495 0.10594519 -0.0090424325 -0.17121883 -0.067888856
-0.043146085 0.02201683 -0.03173406 -0.054386497 -0.21363524 0.038926885 -0.0025013415 0.029468328
0.070736706 -0.07374114 0.09516018 -0.071851835 -0.05288679 0.13609992 -0.060008295 -0.15959139
-0.12511775 -0.060041666 -0.08275273 -0.12114656 -0.01298914 -0.0590443 -0.010086286 -0.06683241
0.009553343 -0.09267817 -0.1238081 -0.15770452 -0.21902445 -0.14846343 -0.022824286 -0.014388102
-0.1382857 0.014270166 0.067687996 -0.21855462 0.069036804 -0.0009845087 0.050456144 -0.075387165
0.086066596 0.1228532 -0.07267292 -0.0007088777 -0.18575029 -0.01192006 0.0027920161 -0.034931805
0.0013618422 0.018582998 -0.03624371 -0.013047903 -0.22535768 0.08321228 0.15780503 0.20028995
-0.6422893 0.04242542 -0.36868292 -0.25652474 -0.53360885 -0.20484228 -0.08326777 0.122792296
0.25014704 -0.038308352 -0.18793522 0.056947257 -0.094687246 -0.2207506 -0.30680028 -0.24532552

fca1.bias f4 [60]
00000000: cc3f fd3d 3357 013d 5cbc ed3d 8125 e73b
00000010: 5ce8 9abd e94e ec3d 04a2 f93c 49c9 ed3d
00000020: 5079 9bbd 9454 efbb d59d f63d de9e 2e3d
00000030: 3ec3 073c 6573 54bd 67f4 d03b a3e4 943d
00000040: 6ace 4c3c 0ebd cd3d 2cd1 22bd 31e0 363d
00000050: 9783 e03d 65c6 f63d c859 d93c 3fd4 653c
00000060: 2358 0dbd 7eef 3d3d 48e8 babd 206a 29bd
00000070: a005 763d 0f00 1d3e b7ed 6fbd ff65 adbd
00000080: ef0d 9c3d d564 eabd 46f5 023e 3b9e 8abd
00000090: e396 4f3d 6312 463d 021b 6c3e e793 1d3c
000000a0: 929d 353e 86e2 d73d 2283 893b 5268 a03d
000000b0: 5d02 eabd c26a e93d 15c2 46bd cd39 c13d
000000c0: 0479 d1bd 0b11 ce3d a7d5 bb3d 7a0e 1b3e
000000d0: c4c3 043e 6038 98bd b74f 27be 989f 603d
000000e0: 050b ef3c 12e3 23bd a232 ac3c f487 cc3d
0.12365684 0.0315773 0.11608192 0.0070540314 -0.0756385 0.115384884 0.030472763 0.11610658
-0.07591498 -0.0073037837 0.12041823 0.042631976 0.008286295 -0.05186786 0.0063767913 0.072701715
0.012500385 0.10045825 -0.039750263 0.0446474 0.10962599 0.120495595 0.026532069 0.014027654
-0.03450788 0.046370976 -0.091263354 -0.041360974 0.06006396 0.15332054 -0.058576312 -0.0846672
0.07619845 -0.114450134 0.12788877 -0.06768461 0.050681006 0.04835738 0.23057178 0.009617782
0.1773589 0.10541253 0.0041965405 0.078323975 -0.11426232 0.113973156 -0.048524935 0.09434853
-0.1022816 0.100618444 0.0917161 0.15142241 0.12965304 -0.07432628 -0.16339003 0.0548397
0.02918006 -0.040011473 0.021020237 0.099868685

fca2.weight f4 [1, 60]
00000000: 0226 4fbd 43b6 ca3e bb3c febd 8d8b 3c3d
00000010: 2423 c83e 0fde 5ebf 3a7e 14be a920 f23e
00000020: 87be f03d 6bad f83e 3b76 073f 7d20 e43e
00000030: 038d 88be 4f05 153f cea6 2a3f bb38 bebe
00000040: 73fd d2bd db5e 0f3f 529c b4be 0dcd 033f
00000050: 097a 35be 612a f83e df53 92be 1a50 42be
00000060: 5ce6 29be 3723 5fbd 7b92 a0bd 3766 1e3c
00000070: 3df3 143f b132 293f ec98 65bf 7c33 d43e
00000080: 3827 0b3f eba4 073d 5410 d73e a9f0 d23c
00000090: 7792 fbbd 0c4b cbbd 7f68 41be 75ff 1fbe
000000a0: 8cd0 1a3f 5d8c debd 03ac 033f 9db4 e53e
000000b0: acf6 c83c 55e8 9abe 4510 9ebd 523f 0f3d
000000c0: 5f33 cc3e cdeb c3bd 7355 dabd 9a76 283f
000000d0: ddf8 f13e ba10 29be 1373 1b3f d49c 26be
000000e0: e7c8 3e3f 1486 48be d0e1 20be a1ba ef3e
-0.050573356 0.3959218 -0.12413927 0.046031523 0.3908931 -0.87057585 -0.14501277 0.47290543
0.1175509 0.48569807 0.5291478 0.44556037 -0.26670083 0.58211225 0.66660774 -0.37152657
-0.10302248 0.5600411 -0.35275513 0.5148476 -0.17722334 0.48469833 -0.28579614 -0.18975869
-0.16591781 -0.054476943 -0.07840439 0.009667925 0.5818365 0.66092974 -0.89686465 0.4144553
0.5435672 0.033116262 0.42004645 0.025749521 -0.12283795 -0.099264234 -0.18887518 -0.15624793
0.6047447 -0.10866616 0.51434344 0.4486436 0.024531685 -0.3025538 -0.07717947 0.034972496
0.39882943 -0.0956646 -0.106608294 0.6580597 0.4726018 -0.16510287 0.60722464 -0.16270763
0.745253 -0.19582397 -0.1571114 0.46822074
