DDPG/models/3400_critic.pt (torch, 18423 bytes, 7 tensors)

fc1.weight f4 [30, 3]
-0.2952022 -0.6029371 -0.11820629 -0.31381324 -0.10278717 -0.11624366 0.54280704 0.35981467
0.23988143 -0.24617201 -0.83563477 -0.13182975 -0.5715014 -0.69496346 -0.13543971 0.01364948
-0.31478998 -0.010107425 -0.0029859813 -1.005744 -0.25807536 -0.29231277 1.3182973 0.31229812
-0.2405468 0.73025775 0.08739748 0.035244167 0.099179864 -0.015316948 0.05700744 0.1256192
-0.014960306 -0.612123 0.13470356 0.249952 0.49094564 -0.40030715 -0.16101283 -0.32723588
-0.28929535 -0.14423166 0.6110989 0.4836609 0.20873329 -0.08093541 -0.14965232 -0.060921494
0.33085358 -0.650979 -0.123017415 -0.356691 0.026725762 -0.25131577 0.18798119 0.753673
0.15658917 0.24292284 0.6192991 0.12848467 -0.19878998 -0.6408746 0.1096902 -0.012242595
-0.105895214 0.00072338345 -0.08641229 0.58237976 0.08354685 -0.10698406 0.7564099 0.21836345
-0.7579352 0.5224716 0.39841554 -0.59960836 -0.43868122 -0.09557391 -0.4635235 0.22957623
0.12674858 -0.6488071 0.4407073 0.120068446 -0.47009826 0.19880542 0.19984357 0.018324632
0.06262098 -0.24688846
00000000: be24 97be 165a 1abf 2416 f2bd 21ac a0be
00000010: 1482 d2bd 2811 eebd 67f5 0a3f a139 b83e
00000020: 7aa3 753e 8414 7cbe 29ec 55bf 61fe 06be
00000030: ea4d 12bf 20e9 31bf b5b0 0abe 12a2 5f3c
00000040: 272c a1be 9d99 25bc 74b0 43bb 38bc 80bf
00000050: 7422 84be 05aa 95be f7bd a83f 8ae5 9f3e
00000060: e651 76be 2cf2 3a3f 73fd b23d 305c 103d
00000070: d01e cb3d f0f3 7abc a280 693d 52a2 003e
00000080: 121c 75bc 18b4 1cbf bbef 093e 6bf3 7f3e
00000090: 3a5d fb3e 0ff5 ccbe 8ce0 24be 768b a7be
000000a0: 851e 94be 77b1 13be fa70 1c3f 67a2 f73e
000000b0: 2ebe 553e 77c1 a5bd 753e 19be d188 79bd
000000c0: a465 a93e 8fa6 26bf 8ef0 fbbd 34a0 b6be
000000d0: fcef da3c 76ac 80be 247e 403e b7f0 403f
000000e0: e958 203e c4c0 783e 638a 1e3f 7c91 033e
000000f0: 9a8f 4bbe 5c10 24bf 41a5 e03d 2a95 48bc
00000100: 97df d8bd 71a1 3d3a edf8 b0bd d716 153f
00000110: 9c1a ab3d 751a dbbd 14a4 413f ab9a 5f3e
00000120: 0b08 42bf b3c0 053f 1ffd cb3e ef7f 19bf
00000130: d39a e0be 41bc c3bd f452 edbe 0816 6b3e
00000140: 61ca 013e 3918 26bf 63a4 e13e 72e6 f53d
00000150: b8b0 f0be a693 4b3e cba3 4c3e 8a1d 963c
00000160: 6e3f 803d 54d0 7cbe

fc1.bias f4 [30]
0.08042063 0.36072934 -0.17909208 -0.03385099 0.24297069 -0.39473203 -0.2538528 -0.15290225
-0.21028978 -0.34424782 -0.35777807 -0.48388535 -0.2996055 0.37750548 -0.38867557 0.39966902
-0.065949336 0.28298897 0.12306589 0.49832472 0.5857959 -0.36049688 0.29868305 -0.094958946
0.10689892 0.28033584 0.24947366 0.08568219 0.63251495 -0.13134442
00000000: 92b3 a43d 84b1 b83e ea63 37be 56a7 0abd
00000010: 4fcd 783e 511a cabe fff8 81be 6892 1cbe
00000020: 3456 57be 4041 b0be b02e b7be d2bf f7be
00000030: e465 99be 6648 c13e 7c00 c7be 6ba1 cc3e
00000040: 7210 87bd eee3 903e f809 fc3d 6b24 ff3e
00000050: b8f6 153f 0c93 b8be fcec 983e d679 c2bd
00000060: d2ed da3d 2e88 8f3e 0676 7f3e 257a af3d
00000070: 80ec 213f 277f 06be

fa1.weight f4 [30, 1]
0.09602129 -0.04662707 -0.0009242002 -0.04173765 0.05615116 0.11391427 0.02023438 0.080101945
-0.18786813 -0.1933965 -0.03687192 0.033981796 0.06843194 0.086746745 -0.018026743 -0.060735136
0.0077576707 0.051796723 0.14920744 -0.06686335 -0.15895216 -0.06609208 -0.06384968 0.11610596
-0.04392213 -0.067342155 -0.0878561 0.14965078 0.0006192513 0.050683323
00000000: cfa6 c43d 07fc 3ebd 0746 72ba 19f5 2abd
00000010: c2fe 653d e34b e93d 92c2 a53c 7d0c a43d
00000020: 8160 40be bb09 46be 0307 17bd 7f30 0b3d
00000030: 0c26 8c3d 47a8 b13d d2ac 93bc 68c5 78bd
00000040: 0f34 fe3b cd28 543d d6c9 183e a7ef 88bd
00000050: 5bc4 22be 495b 87bd 9fc3 82bd f6c8 ed3d
00000060: b1e7 33bd afea 89bd e6ed b3bd 0e3e 193e
00000070: 4055 223a 5199 4f3d

fa1.bias f4 [30]
0.89357734 0.27173242 -0.058107972 -0.76421 -0.80774546 -0.8279406 0.44049677 -0.56653357
-0.33793885 -0.91434705 0.3411463 -0.068517216 0.014566363 -0.8679669 0.5251124 0.53810185
0.38337338 0.85200095 -0.512557 -0.22959113 -0.040670685 0.28501827 -0.60055935 0.7954758
0.9610408 0.18402418 -0.78442633 0.029155402 -0.33974278 0.6238127
00000000: 7cc1 643f 8320 8b3e a002 6ebd 44a3 43bf
00000010: 68c8 4ebf eaf3 53bf cb88 e13e 5808 11bf
00000020: 5206 adbe a612 6abf baaa ae3e c152 8cbd
00000030: c1a7 6e3c 1433 5ebf c46d 063f 0bc1 093f
00000040: 8449 c43e bc1c 5a3f f036 03bf f019 6bbe
00000050: 4e96 26bd eaed 913e 42be 19bf 4da4 4b3f
00000060: c506 763f d670 3c3e 2ad0 48bf 4fd7 ee3c
00000070: c4f2 adbe 30b2 1f3f

fca1.weight f4 [60, 60]
0.2221855 0.1665751 -0.1206743 0.019106586 -0.004755784 0.11824412 0.081749134 -0.10365487
0.09623258 -0.099185914 -0.0517132 -0.022450337 0.3668593 0.101231925 0.10193729 0.08282677
0.20466253 0.08173289 -0.0016977806 -0.02526972 0.13547544 -0.012280208 0.0869213 -0.31679526
-0.055888932 -0.0030518244 0.21909767 0.29522166 0.40496248 -0.09930523 0.070361994 0.015652338
0.17281881 -0.0053935414 0.037496466 -0.17388783 0.057390254 -0.053956926 0.11611265 -0.12367227
-0.25243863 -0.10737019 -0.02246726 0.1103611 0.0035511558 0.0743644 0.16977906 0.05684553
-0.03388594 0.068688974 0.09320419 0.11615008 -0.070512265 -0.034216497 -0.13609144 -0.19163294
0.066760495 -0.007793357 -0.07136267 -0.030967392 0.3045717 0.078720294 0.2197854 0.21687968
0.2731902 -0.08641099 0.33462828 -0.8425454 0.35135004 -0.14040285 0.038693137 0.18576881
0.1766695 -0.07691826 -0.69131553 -0.048884217 0.31266406 0.013222548 -2.6973693 -0.364785
0.35194576 -0.21322091 -0.21278468 -0.12927803 -0.20547858 0.14163557 -0.3431823 -0.6107214
0.3084128 -0.07273082 -0.11357821 -0.17418912 0.03517502 0.03430557 0.071520865 -0.05501451
0.04709118 0.014411709 -0.008159182 -0.0839326 -0.086514905 0.17339835 0.043869905 0.0050561815
-0.10140996 -0.24848838 -0.03645455 -0.08041624 -0.02984615 0.036104467 0.16437246 -0.1132243
-0.037179273 -0.0131009575 0.10441357 0.06002084 -0.024935346 -0.07399362 0.029397035 -0.12625927
0.06488183 0.26419243 0.0064644776 0.25543112 0.025191687 0.16785939 0.264482 0.24016681
0.12406943 -0.015612205 0.13420664 0.19748323 0.19691718 0.23000088 -0.10963567 0.15812676
0.15463832 0.005402154 0.05107188 -0.04281843 0.16984229 -0.020160388 0.21241736 0.05449411
0.07949134 0.25989625 0.1876232 0.26032436 0.2118607 -0.043288734 0.09046064 0.073378004
0.0586644 -0.075188 0.16443117 0.02849233 -0.02153342 -0.12383733 0.00891357 0.06887133
-0.07768442 -0.06980238 0.1613303 -0.09021195 0.025016848 0.1321262 0.2479979 0.24643038
0.10643027 -0.17163289 -0.14463393 0.16632168 -0.06330208 -0.17937335 0.10990371 0.10195395
0.04970364 0.037625607 0.034359768 -0.044643383 0.10594519 -0.0090424325 -0.17121883 -0.067888856
-0.043146085 0.02201683 -0.03173406 -0.054386497 -0.21363524 0.038926885 -0.0025013415 0.029468328
0.070736706 -0.07374114 0.09516018 -0.071851835 -0.05288679 0.13609992 -0.060008295 -0.15959139
-0.12511775 -0.060041666 -0.08275273 -0.12114656 -0.01298914 -0.0590443 -0.010086286 -0.06683241
0.009553343 -0.09267817 -0.1238081 -0.15770452 -0.21902445 -0.14846343 -0.022824286 -0.014388102
-0.1382857 0.014270166 0.067687996 -0.21855462 0.069036804 -0.0009845087 0.050456144 -0.075387165
0.086066596 0.1228532 -0.07267292 -0.0007088777 -0.18575029 -0.01192006 0.0027920161 -0.034931805
0.0013618422 0.018582998 -0.03624371 -0.013047903 -0.22535768 0.08321228 0.15780503 0.20028995
-0.6865801 0.054875284 -0.37243617 -0.19998504 -0.5197006 -0.20484228 0.0118178325 0.12284642
0.25651842 -0.038308352 -0.18793522 0.038406692 -0.0725885 -0.1900259 -0.30740672 -0.23242003
00000000: 9984 633e aa92 2a3e 1624 f7bd 6a85 9c3c
00000010: 68d6 9bbb f929 f23d 176c a73d 0149 d4bd
00000020: 9615 c53d fc21 cbbd 38d1 53bd c5e9 b7bc
00000030: fbd4 bb3e af52 cf3d 7fc4 d03d 15a1 a93d
00000040: 0e93 513e 9363 a73d 1088 deba 7202 cfbc
00000050: 13ba 0a3e ed32 49bc cb03 b23d fd32 a2be
00000060: cbeb 64bd 1e01 48bb 245b 603e 4b27 973e
00000070: 3e57 cf3e 8a60 cbbd f319 903d 5539 803c
00000080: 6af7 303e 4ebc b0bb e595 193d a70f 32be
00000090: 0b12 6b3d f001 5dbd 78cc ed3d e347 fdbd
000000a0: a33f 81be e7e4 dbbd 420d b8bc 0005 e23d
000000b0: 82ba 683b 5d4c 983d 90da 2d3e dcd6 683d
000000c0: fccb 0abd ceac 8c3d d7e1 be3d 18e0 ed3d
000000d0: bc68 90bd 9926 0cbd 8e5b 0bbe 6d3b 44be
000000e0: bab9 883d 6b5f ffbb 9726 92bd 54af fdbc
000000f0: d2f0 9b3e 1b38 a13d 6d0f 613e b515 5e3e
00000100: 96df 8b3e 3ff8 b0bd 6654 ab3e 0eb1 57bf
00000110: 27e4 b33e c4c5 0fbe b27c 1e3d 2e3a 3e3e
00000120: d9e8 343e 5287 9dbd 0efa 30bf d13a 48bd
00000130: 8115 a03e 63a3 583c b3a1 2cc0 19c5 babe
00000140: 3c32 b43e 9556 5abe 3ae4 59be 7661 04be
00000150: fa68 52be ea08 113e 97b5 afbe 3d58 1cbf
00000160: 48e8 9d3e e5f3 94bd b19b e8bd a25e 32be
00000170: af13 103d ff83 0c3d 8879 923d e556 61bd
00000180: aee2 403d 171f 6c3c 17ae 05bc dbe4 abbd
00000190: ba2e b1bd 568f 313e eeb0 333d 53ae a53b
000001a0: 06b0 cfbd bd73 7ebe 5e51 15bd 45b1 a4bd
000001b0: ea7f f4bc 47e2 133d 4151 283e 24e2 e7bd
000001c0: 4b49 18bd 66a5 56bc c8d6 d53d 6ad8 753d
000001d0: 3645 ccbc f889 97bd 0dd2 f03c 1c4a 01be
000001e0: c4e0 843d 3b44 873e f8d3 d33b dec7 823e
000001f0: cc5e ce3c 55e3 2b3e 2f6a 873e 4aee 753e
00000200: 1d18 fe3d 55ca 7fbc 776d 093e 0b39 4a3e
00000210: a8a4 493e 5a85 6b3e ab88 e0bd fbeb 213e
00000220: 8259 1e3e 8d04 b13b bf30 513d 6162 2fbd
00000230: 23eb 2d3e 6627 a5bc f083 593e 3735 5f3d
00000240: 5bcc a23d 1f11 853e 4c20 403e 3c49 853e
00000250: 03f2 583e 874f 31bd 6e43 b93d 3547 963d
00000260: 154a 703d 2bfc 99bd a560 283e bf68 e93c
00000270: db66 b0bc 6d9e fdbd 390a 123c 690c 8d3d
00000280: 0219 9fbd 8df4 8ebd c533 253e 0bc1 b8bd
00000290: 22f0 cc3c 174c 073e 29f3 7d3e 3f58 7c3e
000002a0: 1df8 d93d 88c0 2fbe eb1a 14be 3b50 2a3e
000002b0: 85a4 81bd a6ad 37be 3215 e13d 3ccd d03d
000002c0: 0b96 4b3d 4f1d 1a3d d4bc 0c3d fbdb 36bd
000002d0: cbf9 d83d b626 14bc fd53 2fbe 5009 8bbd
000002e0: f3b9 30bd a45c b43c 93fb 01bd 60c4 5ebd
000002f0: 32c3 5abe cc71 1f3d 8ced 23bb 9067 f13c
00000300: 68de 903d 9805 97bd 57e3 c23d 0e27 93bd
00000310: d29f 58bd c75d 0b3e 42cb 75bd ed6b 23be
00000320: de1e 00be 40ee 75bd 437a a9bd b01b f8bd
00000330: 67d0 54bc 70d8 71bd f340 25bc 6edf 88bd
00000340: a085 1c3c 0dce bdbd 1a8f fdbd 4b7d 21be
00000350: f247 60be cc06 18be fff9 babc 13bc 6bbc
00000360: c49a 0dbe 6acd 693c 01a0 8a3d c8cc 5fbe
00000370: 2b63 8d3d a10a 81ba 1aab 4e3d 9664 9abd
00000380: af43 b03d 759a fb3d 8ad5 94bd fad3 39ba
00000390: 5335 3ebe 5b4c 43bc 42fa 363b a714 0fbd
000003a0: d77f b23a 5f3b 983c 4974 14bd dfc6 55bc
000003b0: 2ac4 66be 336b aa3d a497 213e cf18 4d3e
000003c0: b7c3 2fbf e8c4 603d f4af bebe e1c8 4cbe
000003d0: 190b 05bf 2dc2 51be 959f 413c e796 fb3d
000003e0: 6256 833e 38e9 1cbd 1772 40be 5650 1d3d
000003f0: 48a9 94bd 2696 42be 6a64 9dbe 84ff 6dbe

fca1.bias f4 [60]
0.122006655 0.034151293 0.11553214 0.0070540314 -0.075951114 0.11316894 0.030045135 0.1121349
-0.07591498 -0.0040047364 0.12209593 0.03631596 0.008130354 -0.04791453 0.006949425 0.06848716
0.011805689 0.09920413 -0.039806407 0.041344248 0.109314874 0.116772056 0.026398849 0.013730284
-0.034896262 0.046370976 -0.091263354 -0.041360974 0.0578959 0.16427223 -0.05993291 -0.08554678
0.07480405 -0.114450134 0.12866819 -0.06768461 0.050149 0.047612794 0.23030648 0.009230267
0.1769001 0.10478503 0.0040117083 0.07496267 -0.11426232 0.11387546 -0.048524935 0.09434853
-0.10862002 0.09988873 0.09105592 0.14867438 0.12973389 -0.07463075 -0.16723968 0.054455094
0.02863318 -0.04029187 0.02062872 0.10936836
00000000: a0de f93d 3ae2 0b3d 1d9c ec3d 8125 e73b
00000010: 428c 9bbd 1ec5 e73d 3721 f63c fca6 e53d
00000020: 5079 9bbd 2a3a 83bb 6e0d fa3d 0bc0 143d
00000030: 2d35 053c 0742 44bd 01b8 e33b ff42 8c3d
00000040: a66c 413c 892b cb3d 0b0c 23bd 9658 293d
00000050: 7ae0 df3d 3026 ef3d 6642 d83c fcf4 603c
00000060: 62ef 0ebd 7eef 3d3d 48e8 babd 206a 29bd
00000070: 4024 6d3d fb36 283e 367c 75bd 2633 afbd
00000080: de32 993d d564 eabd 98c1 033e 3b9e 8abd
00000090: 0a69 4d3d a205 433d 76d5 6b3e 8c3a 173c
000000a0: 4d25 353e 8999 d63d a674 833b 0786 993d
000000b0: 5d02 eabd 8a37 e93d 15c2 46bd cd39 c13d
000000c0: 2c74 debd 7692 cc3d 877b ba3d 193e 183e
000000d0: f6d8 043e 02d8 98bd e140 2bbe 4e0c 5f3d
000000e0: 2190 ea3c 1609 25bd 90fd a83c 85fc df3d

fca2.weight f4 [1, 60]
-0.0471518 0.38489193 -0.12416426 0.046031523 0.3780065 -0.92584103 -0.14327115 0.4664343
0.1175509 0.4847507 0.5151253 0.4419252 -0.26585144 0.574076 0.61328393 -0.3467847
-0.10071983 0.54167414 -0.3512313 0.50282145 -0.17466079 0.47734737 -0.2840572 -0.18893498
-0.16401328 -0.054476943 -0.07840439 0.009667925 0.5439063 0.672009 -0.89652514 0.41262376
0.54068077 0.033116262 0.40060946 0.025749521 -0.12075374 -0.09753137 -0.18915239 -0.15559113
0.5899644 -0.108251825 0.44922218 0.44110122 0.024531685 -0.3011487 -0.07717947 0.034972496
0.39711937 -0.094267175 -0.1056625 0.6507602 0.4677609 -0.16376418 0.6057905 -0.1609155
0.7115161 -0.19526254 -0.15462928 0.4756147
00000000: 3f22 41bd 8e10 c53e d549 febd 8d8b 3c3d
00000010: 118a c13e eb03 6dbf acb5 12be 7ad0 ee3e
00000020: 87be f03d 3e31 f83e 40df 033f 0544 e23e
00000030: ae1d 88be a5f6 123f 2d00 1d3f c48d b1be
00000040: 3346 cebd 28ab 0a3f 97d4 b3be e8b8 003f
00000050: 47da 32be e066 f43e f26f 91be 2c78 41be
00000060: 19f3 27be 3723 5fbd 7b92 a0bd 3766 1e3c
00000070: 713d 0b3f c808 2c3f ac82 65bf 6c43 d33e
00000080: 0e6a 0a3f eba4 073d af1c cd3e a9f0 d23c
00000090: bd4d f7bd 87be c7bd 2ab1 41be 4853 1fbe
000000a0: e807 173f 22b3 ddbd 7300 e63e 05d8 e13e
000000b0: acf6 c83c 2a30 9abe 4510 9ebd 523f 0f3d
000000c0: 3b53 cb3e 260f c1bd 9565 d8bd 3898 263f
000000d0: 5b7e ef3e ccb1 27be 1615 1b3f 08c7 24be
000000e0: eb25 363f e7f2 47be 2357 1ebe c583 f33e
