DDPG/models/3600_actor.pt (torch, 2835 bytes, 3 tensors)

fa1.weight f4 [60, 3]
00000000: 7e5d 053e cd0c 8dbe 9ec0 1bbe 1e30 a53e
00000010: 9e55 8abf 9566 48be f441 d53e 1403 85bf
00000020: 63e9 56be d084 6a3f 13c6 b13f 3a2d 8bbf
00000030: 5c13 133f aa9c 873f 2358 533e fa42 7b3e
00000040: 1484 0440 8add 423d dfaf bdbd b33c 24be
00000050: 2f5a bfbb 425b 1b3f 5735 8b3f 973a 5a3e
00000060: 2a03 72bf 5527 97bf 799a 79bc a22b a4be
00000070: 3f64 ac3e 7799 49bf ba8e 8a3e a206 31bf
00000080: 8d05 14be 8807 bfbe 7b25 b2bf f094 5a3f
00000090: 8d33 0cbd 0438 283e 97cd 77bc b437 293f
000000a0: f43d d4bf 0541 b7be 425b 0bbf a27c d2bf
000000b0: 57cd 883f 1b05 68be 3b19 0f3f e6b1 38bf
000000c0: 4111 9fbf 586f b5be 9441 cabe 0a73 763f
000000d0: d672 7dbe f143 1cbf 669a 043e d15b 373f
000000e0: 5f1d 803c 5df7 4abd 37b6 0b3c 3513 5cbd
000000f0: 79be 86bf 00ae e33d ec83 4e3f 4525 933e
00000100: aa9d 21bd e841 45bc 9044 573f 09e2 cbbd
00000110: 3b55 22bf 52d6 083e 067a 6bbe 8204 0bbe
00000120: 8c2d 373f e08e 05bf b48a 383f 9c6f 77bf
00000130: eb84 f73d 3009 353f 4487 283d 4dfa d1bd
00000140: fb90 d03c a704 073f 0b3d 73bf fdad aebe
00000150: d563 d7bd 1b36 123d 975c 36bf a401 d2bf
00000160: 355c 9abf 7a8d 66be 0142 a93e 6dde 84bf
00000170: e77e 52be 26b3 7f3e 607e 093e 1aa8 26bf
00000180: 4821 a23e a3e9 62be a844 363f 571e e93e
00000190: dabd 98bf cc11 623f 5812 393f 0c81 a2bf
000001a0: cb43 bcbe a5d0 adbf c71a 46bf cb02 1ebe
000001b0: 348f 383e a24e 583f 85aa 2a3e 10e2 67be
000001c0: bf6b e13e f22d 31bf d28b a33e 8eab 41be
000001d0: 8070 383f 4d96 a1be 891b 943f 0949 30bf
000001e0: 31bc 1b3f c633 cabd 0ec4 503f 7bcf 95be
000001f0: 556d 923f beec 34bf 09d4 363e e0f1 543f
00000200: 51c7 303e 340c 453f 80ae da3c 266a 663f
00000210: 9272 b7bf 2486 a4bf 4b5b 79be 1ade e63e
00000220: c2d8 893f d4cf 583e 8b29 c3be f0c1 b7bf
00000230: 4c2a 513f d0ea 3e3f 27fe 96bf ec11 b2be
00000240: 4401 bb3e 59a0 803f 484a 853e 8e5e 8dbf
00000250: 317a b63f 8bbf 773d 2bf4 263f 7afc a5bf
00000260: 076b babe 57d3 2d3f 1f30 013e 18ce 33bf
00000270: b5e6 60be bf73 a93f 29c9 06bf 8fa7 01bf
00000280: 75bb d4bf 7a27 7d3f 5efd 343f 9be4 08bf
00000290: 4351 353f bd0f 7bbf f170 dd3d f3b0 3c3f
000002a0: dd76 073f fe82 5ebe a8e9 3c3f 1b15 163e
000002b0: b482 7b3f c050 503e deb9 633f 839e a03f
000002c0: 38d9 823e 9431 7dbf 35cb 2e3e d52d 333f
0.13023946 -0.2754883 -0.15210196 0.32263273 -1.0807378 -0.19570382 0.4165188 -1.0391564
-0.20987467 0.91608906 1.3888572 -1.0873177 0.57451415 1.0594685 0.2063909 0.24537268
2.0705614 0.047574557 -0.092620604 -0.1603878 -0.005839608 0.60686123 1.0875653 0.21311413
-0.9453608 -1.1808878 -0.015234583 -0.3206454 0.33670232 -0.78749794 0.27062017 -0.69150746
-0.14455242 -0.37310433 -1.3917688 0.8538351 -0.03422885 0.16427618 -0.0151247 0.6610062
-1.6581407 -0.35791793 -0.54436123 -1.6444285 1.0687665 -0.22658198 0.55897874 -0.7214645
-1.242714 -0.3543651 -0.39503157 0.96269286 -0.24750838 -0.6104117 0.12949523 0.71624476
0.015639005 -0.04955231 0.00852733 -0.053729255 -1.0526878 0.11117172 0.80670047 0.28739372
-0.039457 -0.012039639 0.84088993 -0.09955222 -0.634113 0.13363007 -0.22995767 -0.13575938
0.71553874 -0.52171135 0.72086644 -0.9665468 0.12085899 0.70717144 0.041144624 -0.10252819
0.025459757 0.52741474 -0.9501502 -0.34117118 -0.10517088 0.03569613 -0.7123503 -1.6406751
-1.2059389 -0.22514907 0.3305817 -1.0380379 -0.20556222 0.24970683 0.13427114 -0.6510025
0.31666017 -0.22159438 0.7119851 0.4553096 -1.1932938 0.88308406 0.72293615 -1.2695632
-0.36770472 -1.3579298 -0.7738461 -0.15430753 0.18023378 0.84494984 0.1666661 -0.2264483
0.44027516 -0.6921073 0.31942612 -0.18913099 0.7204666 -0.31559983 1.1570903 -0.6886144
0.6083403 -0.09873156 0.81549156 -0.29259858 1.1439615 -0.7067374 0.17854322 0.8318157
0.17263533 0.76971745 0.026694536 0.9000572 -1.4331839 -1.2853436 -0.24351232 0.45091325
1.0769274 0.2117303 -0.38117632 -1.435606 0.81705165 0.74577045 -1.1796311 -0.34779298
0.36524403 1.0048934 0.26033235 -1.1044481 1.425604 0.060485404 0.6521632 -1.2967675
-0.3640978 0.67900604 0.12616013 -0.7023635 -0.21963008 1.3238448 -0.52650696 -0.506463
-1.6619707 0.9888836 0.7069911 -0.53473824 0.7082712 -0.9807089 0.108125575 0.73707503
0.52915746 -0.21729657 0.7379403 0.14656489 0.9824631 0.20343304 0.88955486 1.2548374
0.2555635 -0.98903775 0.17069705 0.6999181

fa1.bias f4 [60]
00000000: d51d 503f be5d 213f 4015 503f 8bfe 1abf
00000010: 6e9e 233e 8b34 a8be 3f6e 97be bdf6 1f3e
00000020: 12c7 efbe 8784 c23e 7953 1b3f 62d2 933e
00000030: bf55 91be 4f7f 893e e180 c63e 4821 823e
00000040: a79b 38be 4b01 873b 2761 483e 7b0d 0dbf
00000050: 8bf9 363f 3e02 173f 9c15 20be d975 3d3f
00000060: a3c5 12bf 68a2 223f e370 9fbe be88 173f
00000070: b1e9 013f afd4 e6be 6c05 403f 9ccf 12bf
00000080: 120d 94be f1e0 a0bf c417 ab3e 10f1 c4be
00000090: 8335 853e 74f4 863e d71c 98be a545 743e
000000a0: 4321 afbe 6c05 673e d2bb ea3e 2a15 b6be
000000b0: 4591 fcbe c886 423e 9aca 8e3e eef0 993e
000000c0: 067e 053f 1f9f aebe ab46 9a3e 418c e7be
000000d0: 4bb6 cb3d 2951 b03e 4995 12bf 714d 253f
000000e0: 44d0 e1be 7b4a ac3e 014f 103e 945e 293f
0.8129552 0.63033664 0.81282425 -0.6054465 0.15978405 -0.32852587 -0.295763 0.15621467
-0.46831566 0.37991735 0.60674244 0.28871447 -0.28385732 0.2685494 0.38770202 0.25416017
-0.18028127 0.004120027 0.1956831 -0.55098695 0.7147452 0.58987796 -0.15633243 0.74007946
-0.5733282 0.6352906 -0.31140813 0.59193027 0.5074721 -0.4508414 0.75008273 -0.57348037
-0.28916222 -1.2568647 0.3341657 -0.38465166 0.2601739 0.26358378 -0.29709503 0.23854692
-0.34205064 0.22560662 0.4584642 -0.35563022 -0.49329582 0.18996727 0.27888948 0.30066627
0.5214542 -0.34105775 0.3013204 -0.45224193 0.09946879 0.3443692 -0.5725904 0.6457129
-0.44104207 0.33650574 0.14092638 0.6615994

fa2.weight f4 [1, 60]
00000000: 27de 9c3e 5bbb af3e 3519 3b3e cd2c da3f
00000010: 2f2a 46bf 4b0d 0cc0 dc27 8cbd 7d04 53bf
00000020: 846f 91bf 9d4e afbe 2a88 933e 6bf2 f63e
00000030: b42c 24be 5232 563f a78c b03f f426 04bf
00000040: 1981 52bf 54f4 1d3f 5f2b 84be 2bbf e73d
00000050: 3e3c 423f 2233 3e3e ad66 473f 74c2 b23e
00000060: b6e7 b2bf e52e 533f 8807 923d 2b66 c63e
00000070: 59be e2be fbd9 bdbf 9de6 ce3e 63cc 893f
00000080: f5b7 88bf 010b bbbf d661 643f b450 48bf
00000090: ffde f0be 6db5 d9be b9eb abbf 3821 4bbf
000000a0: 0c46 afbf 9347 82bf 5cfa e6bd f679 9ebf
000000b0: 2e2c afbf 2cb2 12bf ab14 463f db4a 5c3f
000000c0: b8f4 32be a81f f73e 62d1 5b3f b346 663f
000000d0: 7ea9 5bbf 9379 963f 5f86 a2bf b298 423f
000000e0: 4db3 a7bf 94e5 79be 5272 9dbf ea2e 1e3f
0.3063824 0.34322628 0.18271334 1.7044922 -0.7740812 -2.1883113 -0.0684354 -0.82428724
-1.1362157 -0.34239665 0.28814822 0.48231825 -0.16032678 0.8367053 1.3792924 -0.5162194
-0.8222824 0.6170094 -0.2581434 0.11315759 0.7587317 0.18574193 0.77891046 0.3491398
-1.3976963 0.8249343 0.07130343 0.38749823 -0.4428585 -1.4832147 0.4041032 1.0765499
-1.0681139 -1.4612733 0.89211786 -0.78248143 -0.47045133 -0.4252123 -1.3431312 -0.7934756
-1.3693252 -1.0178093 -0.11278221 -1.238097 -1.3685358 -0.5730312 0.77375287 0.8605172
-0.17476165 0.4826634 0.8586637 0.8995163 -0.858055 1.1755852 -1.2697257 0.76014245
-1.3101593 -0.24403983 -1.2300513 0.61790335
