DDPG/models/4000_critic.pt (torch, 18423 bytes, 7 tensors)

fc1.weight f4 [30, 3]
000000 92 f4 78 be 99 5d 14 bf 94 91 b6 bd 69 61 87 be
       -0.24312046 -0.5795532 -0.089144856 -0.26441506
000010 f5 1c 66 bd af 30 f8 bd 47 3f 08 3f d6 43 c6 3e
       -0.05617996 -0.12118661 0.53221554 0.3872363
000020 66 00 65 3e fa 56 a8 be 27 a6 48 bf fd 8c fa bd
       0.22363433 -0.32878858 -0.7837853 -0.12233923
000030 81 61 27 bf 3e 2f 0f bf 09 8d 08 be 12 a2 5f 3c
       -0.65383154 -0.5593146 -0.1333505 0.01364948
000040 27 2c a1 be 9d 99 25 bc 18 50 48 bd 64 10 8e bf
       -0.31478998 -0.010107425 -0.04890451 -1.1098752
000050 de aa 9e be e3 82 5f be 98 c0 b0 3f d7 8b 91 3e
       -0.30989736 -0.21827273 1.3808775 0.28427002
000060 4f 2f 84 be 92 76 30 3f 9d 0e 8c 3d 30 5c 10 3d
       -0.25817344 0.68930924 0.06838725 0.035244167
000070 d0 1e cb 3d f0 f3 7a bc a2 80 69 3d 52 a2 00 3e
       0.099179864 -0.015316948 0.05700744 0.1256192
000080 12 1c 75 bc 3d 7f 2b bf 97 50 56 3e 2c b7 82 3e
       -0.014960306 -0.66991025 0.2092918 0.25530374
000090 88 73 ed 3e 7f 61 03 bf c4 fa 33 be 32 2d c1 be
       0.46377206 -0.5132064 -0.17576128 -0.37729794
0000a0 c2 db 96 be c4 2b c9 bd 3e 40 23 3f 40 e6 fd 3e
       -0.29464537 -0.09822801 0.637699 0.4958973
0000b0 d7 c7 54 3e 71 53 33 be 49 79 43 3d 51 75 3e bd
       0.20779358 -0.17512299 0.04772309 -0.0464986
0000c0 8b d6 93 3e cf 8f 2d bf 1a 81 05 be 24 c7 e8 be
       0.2887462 -0.6779756 -0.1303753 -0.45464432
0000d0 96 05 27 be d7 59 72 be 35 91 26 3e 39 95 44 3f
       -0.16310725 -0.23667084 0.1626633 0.76790196
0000e0 44 9e 29 3e 5d a0 8b 3e af d1 0f 3f 9d ee 30 3e
       0.1656428 0.27270785 0.56179327 0.17278524
0000f0 d8 85 0c be 83 e0 22 bf 47 77 ce 3d 2a 95 48 bc
       -0.13722932 -0.6362383 0.10081344 -0.012242595
000100 97 df d8 bd 71 a1 3d 3a 2f dc d4 bd 43 02 22 3f
       -0.105895214 0.00072338345 -0.10393559 0.632847
000110 52 3c d0 3d 4b e3 c8 bd 5d 7e 62 3f a2 45 3f 3e
       0.10167755 -0.09808978 0.88474065 0.18678907
000120 3a f8 50 bf 20 f7 17 3f b0 92 b7 3e 02 af 1f bf
       -0.81628764 0.5936146 0.358541 -0.62376416
000130 73 59 e6 be 40 a5 a2 bd 64 8a 02 bf 5a f4 7d 3e
       -0.4499012 -0.07941675 -0.5099242 0.24800244
000140 6b 60 f6 3d ac 30 12 bf ab cf 01 3f af a9 04 3e
       0.12030109 -0.5710552 0.507075 0.12955354
000150 3b 64 e4 be 92 0a 82 3e 5b 8b 4c 3e 37 87 eb 3c
       -0.4460772 0.2539869 0.19975035 0.028750999
000160 b9 0d 21 bd 99 26 8a be
       -0.039319728 -0.26982573

fc1.bias f4 [30]
000000 10 20 19 3e ce c4 d8 3e ce 46 53 be 07 65 62 bd
       0.14953637 0.4233765 -0.20632479 -0.05527213
000010 89 a0 c4 3d 51 1a ca be ca b5 a3 be 3a 56 b4 be
       0.09600932 -0.39473203 -0.31974632 -0.35222036
000020 eb 52 8d be 40 41 b0 be b0 2e b7 be 54 1a 08 bf
       -0.27602324 -0.34424782 -0.35777807 -0.53165174
000030 53 55 71 be aa bc e1 3e 69 92 cc be e6 3d a1 3e
       -0.23567705 0.44089252 -0.39955452 0.31492537
000040 1b 2e 0e bd 76 14 9f 3e e4 69 07 3e 59 55 f6 3e
       -0.03471194 0.31070298 0.13223988 0.4811199
000050 85 cb 1c 3f 0c 93 b8 be 00 68 98 3e b1 52 ca bd
       0.61248046 -0.36049688 0.29766846 -0.098790534
000060 3b 8f 0e bc 9a 58 23 3e 47 31 2e 3e fe ba bb 3d
       -0.008701141 0.15951768 0.17010985 0.09166525
000070 9b 95 23 3f 4c a8 c5 bd
       0.63900155 -0.09651241

fa1.weight f4 [30, 1]
000000 5f ef 9d 3d 31 ce 61 bd 07 46 72 ba 19 f5 2a bd
       0.07711672 -0.05512828 -0.0009242002 -0.04173765
000010 c2 fe 65 3d e3 4b e9 3d 7d 1f 1f 3d 7d 0c a4 3d
       0.05615116 0.11391427 0.03884839 0.080101945
000020 f9 65 32 be bb 09 46 be 6a f3 41 bd 7f 30 0b 3d
       -0.17421712 -0.1933965 -0.04735128 0.033981796
000030 05 94 2b 3d 47 a8 b1 3d a1 17 61 bd d6 b1 83 bb
       0.04188921 0.086746745 -0.054954175 -0.0040190024
000040 99 6c 0c 3d 4b c8 00 3d d6 c9 18 3e a7 ef 88 bd
       0.034283254 0.031441014 0.14920744 -0.06686335
000050 87 8e 8e be 8a c9 03 bd 9f c3 82 bd fd 8f bf 3d
       -0.27843115 -0.032174625 -0.06384968 0.093536355
000060 98 9f 79 bd 98 33 9a bd e6 ed b3 bd 8b 23 f2 3d
       -0.060943216 -0.07529372 -0.0878561 0.118231855
000070 40 55 22 3a 91 09 a8 3d
       0.0006192513 0.0820495

fa1.bias f4 [30]
000000 a3 bd 5a 3f 69 15 57 3e a0 02 6e bd 44 a3 43 bf
       0.8544561 0.21004261 -0.058107972 -0.76421
000010 68 c8 4e bf ea f3 53 bf a8 dc cc 3e 58 08 11 bf
       -0.80774546 -0.8279406 0.40012097 -0.56653357
000020 42 79 b3 be a6 12 6a bf e6 79 99 3e c1 52 8c bd
       -0.3505345 -0.91434705 0.29975814 -0.068517216
000030 5a 6f 3b 3d 14 33 5e bf 90 67 f5 3e a2 83 fd 3e
       0.04576049 -0.8679669 0.47930574 0.4951449
000040 72 86 99 3e da 78 56 3f f0 36 03 bf f0 19 6b be
       0.29985386 0.83778155 -0.512557 -0.22959113
000050 3d f6 9e bd 25 03 8a 3e 42 be 19 bf 3a 78 3d 3f
       -0.0776181 0.26955524 -0.60055935 0.74011576
000060 53 db 70 3f 96 9e 05 3e 2a d0 48 bf a6 8e e2 bd
       0.9408466 0.13048777 -0.78442633 -0.11062364
000070 c4 f2 ad be db 65 0c 3f
       -0.33974278 0.5484292

fca1.weight f4 [60, 60]
000000 04 51 29 3e 79 9a 26 3e ec bd ea bd a7 e5 b0 bc
       0.16534811 0.16269864 -0.11462006 -0.021593882
000010 ce d5 c1 bc f9 29 f2 3d b7 c4 b1 3d 32 a3 ae bd
       -0.02366152 0.11824412 0.086800985 -0.08527221
000020 3d 26 65 ba fc 21 cb bd 38 d1 53 bd bd 0c 25 bd
       -0.00087413547 -0.099185914 -0.0517132 -0.04029535
000030 13 6b 92 3e 73 97 d8 3d 53 bb 03 3e fb d9 93 3d
       0.28597316 0.10575762 0.12864427 0.07219311
000040 d7 fb e8 3d 09 38 91 3d 89 a4 cf bc 33 aa 1b bd
       0.1137616 0.07090766 -0.025347011 -0.03800411
000050 67 69 d0 3d ed 32 49 bc 24 cb a6 3d a8 45 9a be
       0.10176354 -0.012280208 0.08144215 -0.30131269
000060 c7 03 5e bd fd b8 27 bd 88 d4 39 3e 83 dc 89 3e
       -0.05420282 -0.040947903 0.1814748 0.2692605
000070 34 a2 c3 3e eb 25 c8 bd 8b b3 33 3d 81 94 0c 3b
       0.3820969 -0.09772857 0.043872397 0.002145082
000080 6a f7 30 3e 4e bc b0 bb e5 95 19 3d a7 0f 32 be
       0.17281881 -0.0053935414 0.037496466 -0.17388783
000090 62 6c 08 3d f0 01 5d bd 6a 20 f0 3d e3 47 fd bd
       0.033306487 -0.053956926 0.117249325 -0.12367227
0000a0 cf a5 8b be e7 e4 db bd 02 c8 7f bd 00 05 e2 3d
       -0.2727494 -0.10737019 -0.0624466 0.1103611
0000b0 27 ec 83 bc 26 31 5e 3d c2 f6 0f 3e 53 30 02 3d
       -0.016103817 0.05424609 0.14058974 0.031784367
0000c0 fc cb 0a bd ce ac 8c 3d d6 49 af 3d 89 54 df 3d
       -0.03388594 0.068688974 0.08559005 0.10904796
0000d0 bc 68 90 bd 3d 66 83 bd ec 72 20 be cf 74 56 be
       -0.070512265 -0.06415985 -0.15668839 -0.20942996
0000e0 ba b9 88 3d d8 8e 99 bd 97 26 92 bd 83 da 68 bd
       0.066760495 -0.074979484 -0.07136267 -0.056849014
0000f0 f7 5f 8c 3e a4 b8 91 3d e1 50 ef bd e9 5b 44 3e
       0.27416965 0.071152955 -0.11685348 0.19175686
000100 29 2b 8d 3e 3f f8 b0 bd b4 cf 9b 3e f5 7b 8e bf
       0.2757199 -0.08641099 0.30431902 -1.1131579
000110 8c 69 21 3e c4 c5 0f be b2 7c 1e 3d 20 90 19 3f
       0.15762919 -0.14040285 0.038693137 0.5998554
000120 d6 21 40 3e d8 4c aa bd 65 45 fa bf 3c ca 63 bd
       0.18762907 -0.08315438 -1.9552428 -0.055612788
000130 19 ac 7a 3e 37 fb 30 3c 65 8e 09 c0 57 1b 1b bf
       0.24479713 0.010802082 -2.149316 -0.6058859
000140 b5 ba 98 3e 95 56 5a be 54 00 57 3d c5 4c 87 be
       0.29829946 -0.21322091 0.052490547 -0.26425758
000150 63 63 a3 bd 2c 6a 16 3e 6f 8d 29 be 53 39 de be
       -0.07977941 0.14688939 -0.16557859 -0.4340311
000160 19 c7 a7 3e 93 9e f2 bd 46 0b 38 be d7 77 2d be
       0.32769087 -0.11846652 -0.1797305 -0.16940247
000170 af 13 10 3d ff 83 0c 3d 88 79 92 3d e5 56 61 bd
       0.03517502 0.03430557 0.071520865 -0.05501451
000180 64 70 21 bb 17 1f 6c 3c 2e a8 16 bb db e4 ab bd
       -0.002463364 0.014411709 -0.0022988426 -0.0839326
000190 2e f8 e6 bd 56 8f 31 3e 2d 7a c5 bb 53 ae a5 3b
       -0.11277805 0.17339835 -0.0060265274 0.0050561815
0001a0 ed 80 0a be 74 9e 91 be ca 63 b0 bd 03 a1 12 be
       -0.13525744 -0.28441203 -0.08612783 -0.14319234
0001b0 ea 7f f4 bc 47 e2 13 3d 4d ec 8a 3e 9a 4a ec bd
       -0.02984615 0.036104467 0.27133408 -0.115376666
0001c0 4b 49 18 bd e7 00 ba bd cb 33 52 3d c1 0a 30 3d
       -0.037179273 -0.09082203 0.051318925 0.042979006
0001d0 36 45 cc bc 76 3e 35 bb 0d d2 f0 3c 8f 8a 45 be
       -0.024935346 -0.0027655638 0.029397035 -0.19291137
0001e0 de bb 28 3d bd e8 92 3e bf 58 a0 3c 32 39 7c 3e
       0.04119479 0.2869319 0.019573567 0.24631193
0001f0 47 2e 1b 3d 55 e3 2b 3e 8b 90 98 3e 45 05 8e 3e
       0.03788593 0.16785939 0.29797778 0.27738395
000200 88 b4 39 3d 55 ca 7f bc 77 6d 09 3e 98 b8 4d 3e
       0.045338184 -0.015612205 0.13420664 0.20089948
000210 51 e0 07 3e 17 6f 88 3e 79 f1 a3 bd ec a4 31 3e
       0.13269164 0.26647255 -0.08005042 0.17348069
000220 73 0e ae 3d a1 22 8f 3c 4e 8c 1a 3d c2 1a 3d bd
       0.0849885 0.017472567 0.03773146 -0.046168096
000230 55 9d 26 3e 66 27 a5 bc 00 0f 65 3e bc 6d b5 3d
       0.16270955 -0.020160388 0.22369003 0.08858821
000240 dd 41 d8 3d 0c f9 82 3e c4 d6 34 3e 43 2d 85 3e
       0.105594374 0.25580633 0.17660052 0.26011094
000250 1d b6 5a 3e d4 dd c7 bc e5 c9 ab 3d 78 f0 94 3d
       0.21358533 -0.024397768 0.08388118 0.07272428
000260 15 4a 70 3d 2b fc 99 bd a5 60 28 3e bf 68 e9 3c
       0.0586644 -0.075188 0.16443117 0.02849233
000270 7a 38 db bc 6d 9e fd bd f4 ed 38 3c 69 0c 8d 3d
       -0.026760329 -0.12383733 0.011287201 0.06887133
000280 d7 f1 a9 bd 8d f4 8e bd 11 ed 18 3e 0b c1 b8 bd
       -0.082980804 -0.06980238 0.14934184 -0.09021195
000290 08 79 b3 3c 99 90 04 3e 48 1d 73 3e ba 1b 76 3e
       0.021908298 0.12945785 0.23741639 0.24034014
0002a0 1d f8 d9 3d 88 c0 2f be aa 13 11 be e0 48 31 3e
       0.10643027 -0.17163289 -0.14167657 0.17312956
0002b0 85 a4 81 bd 32 c2 40 be bb 57 d9 3d f9 05 c1 3d
       -0.06330208 -0.1882408 0.106124364 0.09424967
0002c0 0b 96 4b 3d 3d 87 04 3a d4 bc 0c 3d a2 9c 4b bd
       0.04970364 0.00050555525 0.034359768 -0.049709924
0002d0 cb f9 d8 3d b6 26 14 bc fd 53 2f be 50 09 8b bd
       0.10594519 -0.0090424325 -0.17121883 -0.067888856
0002e0 f3 b9 30 bd a4 5c b4 3c 93 fb 01 bd 60 c4 5e bd
       -0.043146085 0.02201683 -0.03173406 -0.054386497
0002f0 32 c3 5a be cc 71 1f 3d 8c ed 23 bb 90 67 f1 3c
       -0.21363524 0.038926885 -0.0025013415 0.029468328
000300 68 de 90 3d 98 05 97 bd 57 e3 c2 3d 0e 27 93 bd
       0.070736706 -0.07374114 0.09516018 -0.071851835
000310 d2 9f 58 bd c7 5d 0b 3e 42 cb 75 bd ed 6b 23 be
       -0.05288679 0.13609992 -0.060008295 -0.15959139
000320 de 1e 00 be 40 ee 75 bd 43 7a a9 bd b0 1b f8 bd
       -0.12511775 -0.060041666 -0.08275273 -0.12114656
000330 67 d0 54 bc 70 d8 71 bd f3 40 25 bc 6e df 88 bd
       -0.01298914 -0.0590443 -0.010086286 -0.06683241
000340 a0 85 1c 3c 0d ce bd bd 1a 8f fd bd 4b 7d 21 be
       0.009553343 -0.09267817 -0.1238081 -0.15770452
000350 f2 47 60 be cc 06 18 be ff f9 ba bc 13 bc 6b bc
       -0.21902445 -0.14846343 -0.022824286 -0.014388102
000360 c4 9a 0d be 6a cd 69 3c 01 a0 8a 3d c8 cc 5f be
       -0.1382857 0.014270166 0.067687996 -0.21855462
000370 2b 63 8d 3d a1 0a 81 ba 1a ab 4e 3d 96 64 9a bd
       0.069036804 -0.0009845087 0.050456144 -0.075387165
000380 af 43 b0 3d 75 9a fb 3d 8a d5 94 bd fa d3 39 ba
       0.086066596 0.1228532 -0.07267292 -0.0007088777
000390 53 35 3e be 5b 4c 43 bc 42 fa 36 3b a7 14 0f bd
       -0.18575029 -0.01192006 0.0027920161 -0.034931805
0003a0 d7 7f b2 3a 5f 3b 98 3c 49 74 14 bd df c6 55 bc
       0.0013618422 0.018582998 -0.03624371 -0.013047903
0003b0 2a c4 66 be 33 6b aa 3d a4 97 21 3e cf 18 4d 3e
       -0.22535768 0.08321228 0.15780503 0.20028995
0003c0 ef 5f f5 be c9 8c a5 3c 4d 7a a6 be 96 43 32 3e
       -0.47924754 0.020208733 -0.32515183 0.17408594
0003d0 21 ee 05 bf 2d c2 51 be ff d4 86 3d 91 00 20 3e
       -0.5231648 -0.20484228 0.065835945 0.15625216
0003e0 64 ac a0 3e 38 e9 1c bd 17 72 40 be 5d 54 13 bc
       0.31381524 -0.038308352 -0.18793522 -0.008992282
0003f0 40 e8 f0 be 16 58 d9 bd 1d 20 5b be a7 7f 8c be
       -0.47052193 -0.10612504 -0.21398969 -0.2744114

fca1.bias f4 [60]
000000 4e 3a c8 3d 04 b3 c3 bc 27 1f e0 3d 81 25 e7 3b
       0.09776746 -0.023889072 0.10943442 0.0070540314
000010 cf 79 cb bd 59 c4 d8 3d 69 8b ca 3c 81 50 f5 3d
       -0.099353425 0.10584325 0.024724679 0.119782455
000020 50 79 9b bd 1f b1 07 bc 06 aa b6 3d c6 a8 1b 3d
       -0.07591498 -0.008281975 0.08919148 0.03800275
000030 2b 98 9d 3b 9e 55 94 bd 57 9f 2c 3d 84 50 c7 3c
       0.0048093996 -0.07242893 0.042144146 0.024330385
000040 c8 4d 98 3b cb 1a e1 3d 85 f3 2d bd 38 56 03 3d
       0.004647944 0.109914385 -0.042468566 0.032064646
000050 dc 82 d6 3d 8f 9a f5 3d ca 96 bd 3c 77 68 1a 3c
       0.10474178 0.1199237 0.02314319 0.00942432
000060 86 31 23 bd 7e ef 3d 3d 48 e8 ba bd 20 6a 29 bd
       -0.03984215 0.046370976 -0.091263354 -0.041360974
000070 a0 09 79 3d 74 6f 2e 3e 46 53 01 bd 8e 6e c2 bd
       0.060800195 0.17034703 -0.031573556 -0.09493743
000080 cf 66 b9 3d d5 64 ea bd d8 9d 0e 3e 27 90 97 bd
       0.09052812 -0.114450134 0.139274 -0.07400542
000090 48 9c 33 3d 94 b3 22 3d b6 a2 67 3e 03 fc 8b 3b
       0.043850213 0.03972204 0.22620663 0.0042719855
0000a0 3a 41 3d 3e 37 f3 c8 3d e8 59 91 bc e2 9b d7 3d
       0.18481913 0.098120145 -0.017743066 0.10527779
0000b0 f3 00 f7 bd 04 32 e3 3d 68 c4 60 bd b8 58 b6 3d
       -0.12060728 0.11093524 -0.054874808 0.089036405
0000c0 05 a9 3a bd c6 6d bd 3d 48 5d ac 3d 9c 97 0b 3e
       -0.045571346 0.09249453 0.084162295 0.13632053
0000d0 c1 9f fd 3d c5 20 a2 bd 86 e3 20 be 20 ee 4a 3d
       0.12383986 -0.079164065 -0.15711793 0.0495435
0000e0 c9 81 97 3c 54 4d 36 bd 2f d3 7c 3c 6a f9 05 3e
       0.018494504 -0.04450734 0.0154312095 0.13083425

fca2.weight f4 [1, 60]
000000 ce 05 9e bb dc 12 b5 3e 28 f6 fb bd 8d 8b 3c 3d
       -0.0048224693 0.3536595 -0.1230281 0.046031523
000010 b6 af c3 3e fb 5b 62 bf 06 af 13 be 76 8b ed 3e
       0.38219994 -0.884216 -0.14422235 0.46395463
000020 87 be f0 3d 97 95 f6 3e 0f 89 11 3f 7e 0b dc 3e
       0.1175509 0.48161003 0.5684976 0.42977518
000030 c4 de 81 be e4 2b 0c 3f cf 2f f9 3e da d6 8b be
       -0.2536527 0.5475447 0.48669288 -0.27312356
000040 70 30 ce bd 08 29 12 3f 1a 0b b1 be 49 6d f2 3e
       -0.100678325 0.5709386 -0.34578782 0.47349003
000050 f3 37 2b be 0a 14 01 3f 8d 75 90 be b9 5d 40 be
       -0.16720562 0.504212 -0.28214684 -0.18785752
000060 16 30 23 be 37 23 5f bd 7b 92 a0 bd 37 66 1e 3c
       -0.15936312 -0.054476943 -0.07840439 0.009667925
000070 76 bd de 3e f5 3c 22 3f b3 c6 30 bf fb 23 d7 3e
       0.43503922 0.63374263 -0.6905319 0.42019638
000080 c2 5e 13 3f eb a4 07 3d 81 9b d2 3e 36 7e b9 3c
       0.57566464 0.033116262 0.41134265 0.02264319
000090 89 f5 ed bd 5e 8f b1 bd 73 87 45 be 74 3d 1e be
       -0.11619098 -0.08669923 -0.19289951 -0.1545313
0000a0 8c cf 1c 3f a8 28 dd bd d7 d2 8d 3e 94 29 01 3f
       0.6125419 -0.1079877 0.2769992 0.5045407
0000b0 76 44 95 3c 47 27 9a be ea b0 93 bd 55 a7 07 3d
       0.018221121 -0.3010809 -0.07211478 0.033118565
0000c0 58 52 bd 3e 6f a7 c1 bd 3d 00 d4 bd 19 85 25 3f
       0.36976886 -0.094557635 -0.10351608 0.64656216
0000d0 41 ad eb 3e e2 4b 27 be ee 95 14 3f d8 45 1e be
       0.4603062 -0.16337541 0.58041275 -0.15456331
0000e0 ea ef 0f 3f 2e d8 48 be ad b1 14 be 3c dd 04 3f
       0.56225455 -0.19613716 -0.14520903 0.51900077
