DDPG/models/4800_critic.pt (torch, 18423 bytes, 7 tensors)

fc1.weight f4 [30, 3]
-0.22022922 -0.6872879 -0.09930037 -0.37799856 -0.19396493 -0.13308398 0.54627967 0.4205456
0.23829912 -0.2886846 -0.7937475 -0.0901393 -0.8138972 -0.50139046 -0.098469116 0.01364948
-0.31478998 -0.010107425 -0.074761435 -1.2921337 -0.26024115 -0.14472798 1.4074271 0.29494175
-0.40294862 0.6528157 0.065313555 0.035244167 0.099179864 -0.015316948 0.05700744 0.1256192
-0.014960306 -0.6737594 0.31753948 0.28687286 0.49427795 -0.5078413 -0.17987683 -0.42524415
-0.24705972 -0.059213053 0.67680347 0.4324794 0.17713116 -0.3423065 0.012595571 -0.008681396
0.30419266 -0.620471 -0.15864411 -0.49695504 -0.35832864 -0.17713739 0.077447996 0.7730024
0.15462616 0.2837234 0.69698846 0.18305388 -0.046215795 -0.51249075 0.08688458 -0.012242595
-0.105895214 0.00072338345 -0.12388959 0.6185715 0.07245767 -0.18264271 0.97176814 0.20449828
-0.8967981 0.5746234 0.34236136 -0.55050486 -0.49255633 -0.13023649 -0.57460606 0.13766779
0.116212495 -0.5443179 0.5009638 0.14610346 -0.44985798 0.34426984 0.20925878 -0.012652123
-0.053981137 -0.2976786
00000000: c583 61be 1af2 2fbf fe5d cbbd 0789 c1be
00000010: be9e 46be 2b47 08be fcd8 0b3f c151 d73e
00000020: af04 743e 78ce 93be 0933 4bbf f49a b8bd
00000030: 915b 50bf 205b 00bf 2daa c9bd 12a2 5f3c
00000040: 272c a1be 9d99 25bc 861c 99bd a364 a5bf
00000050: 543e 85be 9233 14be 9226 b43f 9b02 973e
00000060: 484f cebe ee1e 273f 1dc3 853d 305c 103d
00000070: d01e cb3d f0f3 7abc a280 693d 52a2 003e
00000080: 121c 75bc 7f7b 2cbf 8994 a23e 00e1 923e
00000090: 0012 fd3e e301 02bf a231 38be 9ab9 d9be
000000a0: 39fd 7cbe 6389 72bd fe42 2d3f f16d dd3e
000000b0: df61 353e cc42 afbe a75d 4e3c 6a3c 0ebc
000000c0: 24bf 9b3e 30d7 1ebf 9a73 22be e470 febe
000000d0: da76 b7be 8163 35be 0e9d 9e3d 7ce3 453f
000000e0: 5256 1e3e 3244 913e d66d 323f 7a72 3b3e
000000f0: c64c 3dbd 9832 03bf 8bf0 b13d 2a95 48bc
00000100: 97df d8bd 71a1 3d3a d3b9 fdbd b45a 1e3f
00000110: b064 943d b106 3bbe ccc5 783f ff67 513e
00000120: 8f94 65bf 851a 133f fd49 af3e e3ed 0cbf
00000130: 5830 fcbe b75c 05be 6219 13bf c9f8 0c3e
00000140: d100 ee3d 6b58 0bbf 2a3f 003f 259c 153e
00000150: c953 e6be 2344 b03e ef47 563e da4a 4fbc
00000160: 531b 5dbd 5469 98be

fc1.bias f4 [30]
0.17542775 0.3187544 -0.16208515 -0.1797922 -0.083858676 -0.39473203 -0.42625454 -0.39792258
-0.29039064 -0.34424782 -0.35777807 -0.4836605 -0.24944916 0.44687843 -0.39170414 0.24468374
-0.036252312 0.3168997 0.114924274 0.4450802 0.618999 -0.36049688 0.350359 -0.1478605
-0.011300655 0.046721566 0.12904103 0.08787337 0.61731523 -0.18038458
00000000: 55a3 333e c733 a33e a6f9 25be 721b 38be
00000010: 19be abbd 511a cabe 093e dabe 82bc cbbe
00000020: 15ae 94be 4041 b0be b02e b7be 59a2 f7be
00000030: 9a6f 7fbe 40cd e43e 728d c8be 608e 7a3e
00000040: 4e7d 14bd ad40 a23e 6b5d eb3d 8de1 e33e
00000050: b876 1e3f 0c93 b8be 4162 b33e be68 17be
00000060: 6226 39bc 1d5f 3f3d 5523 043e f4f6 b33d
00000070: 5f08 1e3f bcb6 38be

fa1.weight f4 [30, 1]
0.062008496 -0.05736249 -0.0009242002 -0.04173765 0.05615116 0.11391427 0.116257995 0.080101945
-0.17421712 -0.1933965 -0.04930739 0.033981796 0.034164645 0.086746745 -0.08351156 -0.06227252
0.0014727771 0.053253435 0.14920744 -0.06686335 -0.206881 -0.054494 -0.06384968 0.106743716
-0.04895071 -0.07538847 -0.0878561 0.19125709 0.0006192513 0.07372866
00000000: 9ffc 7d3d eef4 6abd 0746 72ba 19f5 2abd
00000010: c2fe 653d e34b e93d ac18 ee3d 7d0c a43d
00000020: f965 32be bb09 46be 8cf6 49bd 7f30 0b3d
00000030: 3af0 0b3d 47a8 b13d 1c08 abbd 7811 7fbd
00000040: 330a c13a 4620 5a3d d6c9 183e a7ef 88bd
00000050: 9dd8 53be 1a35 5fbd 9fc3 82bd 739c da3d
00000060: 8a80 48bd 4565 9abd e6ed b3bd e6d8 433e
00000070: 4055 223a 0dff 963d

fa1.bias f4 [30]
0.78105325 0.016410079 -0.058107972 -0.76421 -0.80774546 -0.8279406 0.3410703 -0.56653357
-0.3505345 -0.91434705 0.22069816 -0.068517216 0.060388125 -0.8679669 0.38028723 0.3708336
0.14003983 0.7973412 -0.512557 -0.22959113 -0.09180647 0.21730487 -0.60055935 0.66723686
0.89598554 0.034407545 -0.78442633 -0.07278696 -0.33974278 0.44935986
00000000: 1bf3 473f 6e6e 863c a002 6ebd 44a3 43bf
00000010: 68c8 4ebf eaf3 53bf c4a0 ae3e 5808 11bf
00000020: 4279 b3be a612 6abf b3fe 613e c152 8cbd
00000030: 8a59 773d 1433 5ebf 02b5 c23e e7dd bd3e
00000040: 9a66 0f3e 8e1e 4c3f f036 03bf f019 6bbe
00000050: 0805 bcbd 2b85 5e3e 42be 19bf 09d0 2a3f
00000060: 4f5f 653f edee 0c3d 2ad0 48bf 5411 95bd
00000070: c4f2 adbe 7f12 e63e

fca1.weight f4 [60, 60]
0.081454486 0.27030465 -0.09246146 -0.095001355 0.03443162 0.11824412 0.055241268 -0.3293054
-0.9736434 -0.099185914 -0.0517132 -0.32171738 0.09778417 0.08635965 0.13516746 0.16339685
-0.038431074 0.28811926 -0.5149163 -0.32280344 -0.1619095 -0.012280208 0.2441642 -0.70755976
-0.16708642 -0.019539094 0.1777005 0.3795569 0.26647818 -0.69644743 -0.035870597 -0.039553862
0.17281881 -0.0053935414 0.037496466 -0.17388783 -0.015334963 -0.053956926 0.117249325 -0.12367227
-0.3883087 -0.10737019 -0.08016773 0.1103611 -0.15354335 -0.05230502 0.07547974 -0.055822205
-0.03388594 0.068688974 0.0043906095 0.003527446 -0.070512265 -0.12687396 -0.26748925 -0.3334762
0.066760495 0.047211897 -0.07136267 -0.11504656 0.23913324 0.07161466 -1.234932 0.14476901
0.25425708 -0.08641099 0.27008572 -1.1236926 0.72961956 -0.14040285 0.038693137 0.7887145
0.32399297 -0.10364269 -1.9552428 -0.057794325 0.23171113 0.009697407 -2.059789 -1.1676142
0.2701957 -0.21322091 -0.0022338268 0.47131804 0.17211685 0.11521792 -0.1236535 -0.34277573
0.3678598 -0.15045571 -0.17562695 -0.21032944 0.03517502 0.03430557 0.071520865 -0.05501451
0.016362686 0.014411709 -0.0022988426 -0.0839326 -0.13169682 0.17339835 0.021815708 0.0050561815
-0.17128268 -0.2994146 -0.072425425 -0.14283161 -0.02984615 0.036104467 0.12897772 -0.13791104
-0.037179273 -0.07764906 0.030314557 -0.034661002 -0.024935346 0.05580712 0.029397035 -0.18550183
0.09203192 0.2724513 0.035713688 0.24232435 0.049339745 0.16785939 0.3697577 0.27549896
0.012993339 -0.015612205 0.13420664 0.23640306 0.10293644 0.26478958 -0.11579173 0.19268152
0.053626336 0.041111127 0.039330848 -0.024701044 0.124379784 -0.020160388 0.24783859 0.103818506
0.11406781 0.28288758 0.15846302 0.2574191 0.2134128 0.018033007 0.07823932 0.05994683
0.0586644 -0.075188 0.16443117 0.02849233 -0.0334064 -0.12383733 0.011287201 0.06887133
-0.08961216 -0.06980238 0.119884625 -0.09021195 0.018540302 0.12283634 0.22559637 0.2348536
0.10643027 -0.17163289 -0.10595057 0.17525455 -0.06330208 -0.19540673 0.10163839 0.099828236
0.04970364 -0.007751534 0.034359768 -0.052051067 0.10594519 -0.0090424325 -0.17121883 -0.067888856
-0.043146085 0.02201683 -0.03173406 -0.054386497 -0.21363524 0.038926885 -0.0025013415 0.029468328
0.070736706 -0.07374114 0.09516018 -0.071851835 -0.05288679 0.13609992 -0.060008295 -0.15959139
-0.12511775 -0.060041666 -0.08275273 -0.12114656 -0.01298914 -0.0590443 -0.010086286 -0.06683241
0.009553343 -0.09267817 -0.1238081 -0.15770452 -0.21902445 -0.14846343 -0.022824286 -0.014388102
-0.1382857 0.014270166 0.067687996 -0.21855462 0.069036804 -0.0009845087 0.050456144 -0.075387165
0.086066596 0.1228532 -0.07267292 -0.0007088777 -0.18575029 -0.01192006 0.0027920161 -0.034931805
0.0013618422 0.018582998 -0.03624371 -0.013047903 -0.22535768 0.08321228 0.15780503 0.20028995
-0.9666146 0.15385465 -0.19229221 -0.060034487 -0.77985555 -0.20484228 0.065835945 0.16705592
0.30606887 -0.038308352 -0.18793522 -0.07390959 -0.47052193 -0.06508321 -0.037786685 -0.29767057
00000000: 9cd1 a63d 5f65 8a3e 6f5c bdbd 1290 c2bd
00000010: 2c08 0d3d f929 f23d ab44 623d b89a a8be
00000020: b240 79bf fc21 cbbd 38d1 53bd 24b8 a4be
00000030: 1143 c83d 54dd b03d 5769 0a3e 8151 273e
00000040: e769 1dbd 5e84 933e 8ed1 03bf 7e46 a5be
00000050: 9bcb 25be ed32 49bc 2e06 7a3e a322 35bf
00000060: b418 2bbe 7310 a0bc 1ff7 353e 4855 c23e
00000070: d46f 883e 614a 32bf 0ced 12bd 3b03 22bd
00000080: 6af7 303e 4ebc b0bb e595 193d a70f 32be
00000090: 7f3f 7bbc f001 5dbd 6a20 f03d e347 fdbd
000000a0: 66d0 c6be e7e4 dbbd fb2e a4bd 0005 e23d
000000b0: 783a 1dbe ca3d 56bd 1f95 9a3d d3a5 64bd
000000c0: fccb 0abd ceac 8c3d 1adf 8f3b b92c 673b
000000d0: bc68 90bd 3feb 01be 5af4 88be 64bd aabe
000000e0: bab9 883d 4361 413d 9726 92bd 889d ebbd
000000f0: 58df 743e b5aa 923d 4012 9ebf 543e 143e
00000100: fc2d 823e 3ff8 b0bd ad48 8a3e 29d5 8fbf
00000110: 59c8 3a3f c4c5 0fbe b27c 1e3d 32e9 493f
00000120: 68e2 a53e 9e42 d4bd 6545 fabf beb9 6cbd
00000130: af45 6d3e dfe1 1e3c 95d3 03c0 6274 95bf
00000140: 1757 8a3e 9556 5abe 6565 12bb 9950 f13e
00000150: 663f 303e 5ff7 eb3d 0c3e fdbd 4d80 afbe
00000160: 1f58 bc3e 1011 1abe 8dd7 33be 9a60 57be
00000170: af13 103d ff83 0c3d 8879 923d e556 61bd
00000180: 0a0b 863c 171f 6c3c 2ea8 16bb dbe4 abbd
00000190: 88db 06be 568f 313e dbb6 b23c 53ae a53b
000001a0: ba64 2fbe df4c 99be c853 94bd 7342 12be
000001b0: ea7f f4bc 47e2 133d bc12 043e 8d38 0dbe
000001c0: 4b49 18bd 7806 9fbd 3c56 f83c b2f8 0dbd
000001d0: 3645 ccbc 0296 643d 0dd2 f03c 31f4 3dbe
000001e0: 3b7b bc3d bd7e 8b3e 8448 123d e023 783e
000001f0: 7918 4a3d 55e3 2b3e e250 bd3e 330e 8d3e
00000200: 04e2 543c 55ca 7fbc 776d 093e a513 723e
00000210: 57d0 d23d 8092 873e 3724 edbd 4e4e 453e
00000220: 4aa7 5b3d 2464 283d 6219 213d d859 cabc
00000230: d4ba fe3d 6627 a5bc 66c9 7d3e cc9e d43d
00000240: 629c e93d a4d6 903e 2144 223e 70cc 833e
00000250: e388 5a3e f5b9 933c f03b a03d cf8a 753d
00000260: 154a 703d 2bfc 99bd a560 283e bf68 e93c
00000270: 26d5 08bd 6d9e fdbd f4ed 383c 690c 8d3d
00000280: 9586 b7bd 8df4 8ebd 1286 f53d 0bc1 b8bd
00000290: d5e1 973c 9e91 fb3d bc02 673e 767d 703e
000002a0: 1df8 d93d 88c0 2fbe 9dfc d8bd ee75 333e
000002b0: 85a4 81bd b418 48be ca27 d03d bf72 cc3d
000002c0: 0b96 4b3d 9500 febb d4bc 0c3d 8033 55bd
000002d0: cbf9 d83d b626 14bc fd53 2fbe 5009 8bbd
000002e0: f3b9 30bd a45c b43c 93fb 01bd 60c4 5ebd
000002f0: 32c3 5abe cc71 1f3d 8ced 23bb 9067 f13c
00000300: 68de 903d 9805 97bd 57e3 c23d 0e27 93bd
00000310: d29f 58bd c75d 0b3e 42cb 75bd ed6b 23be
00000320: de1e 00be 40ee 75bd 437a a9bd b01b f8bd
00000330: 67d0 54bc 70d8 71bd f340 25bc 6edf 88bd
00000340: a085 1c3c 0dce bdbd 1a8f fdbd 4b7d 21be
00000350: f247 60be cc06 18be fff9 babc 13bc 6bbc
00000360: c49a 0dbe 6acd 693c 01a0 8a3d c8cc 5fbe
00000370: 2b63 8d3d a10a 81ba 1aab 4e3d 9664 9abd
00000380: af43 b03d 759a fb3d 8ad5 94bd fad3 39ba
00000390: 5335 3ebe 5b4c 43bc 42fa 363b a714 0fbd
000003a0: d77f b23a 5f3b 983c 4974 14bd dfc6 55bc
000003b0: 2ac4 66be 336b aa3d a497 213e cf18 4d3e
000003c0: 0e74 77bf 138c 1d3e 40e8 44be b9e6 75bd
000003d0: 9da4 47bf 2dc2 51be ffd4 863d b510 2b3e
000003e0: 0fb5 9c3e 38e9 1cbd 1772 40be e95d 97bd
000003f0: 40e8 f0be 594a 85bd 36c6 1abd 4768 98be

fca1.bias f4 [60]
0.006040476 -0.034901354 0.10224822 0.0070540314 -0.12433354 0.12011315 0.018813755 0.120673575
-0.08226675 0.0019239155 0.0008362349 0.037328135 0.0011049593 -0.057398804 0.02733106 0.0425324
-0.0034288608 0.11081049 -0.045174014 0.027487084 0.09937832 0.11764579 0.019744007 0.0045730644
-0.045916706 0.046370976 -0.091263354 -0.041360974 0.06463354 0.16425328 0.00775513 -0.11418009
0.10203641 -0.114450134 0.14103693 -0.07400542 0.036146037 0.02884758 0.2217053 -0.0014855152
0.18844685 0.09031685 0.019283637 0.08701836 -0.12060728 0.10787678 -0.054874808 0.13137242
-0.06579358 0.08362303 0.07555924 0.12746663 0.08152247 -0.0843116 -0.17014581 0.04355389
0.009058618 -0.049154732 0.009046089 0.14159434
00000000: 2fef c53b b9f4 0ebd 8467 d13d 8125 e73b
00000010: 95a2 febd e2fd f53d 4e1f 9a3c b523 f73d
00000020: 787b a8bd e42b fc3a c636 5b3a 63e5 183d
00000030: 48d4 903a 021b 6bbd 63e5 df3c 7436 2e3d
00000040: bdb6 60bb 9cf0 e23d 6308 39bd 982c e13c
00000050: dc86 cb3d 47f0 f03d 2fbe a13c a5d9 953b
00000060: 2813 3cbd 7eef 3d3d 48e8 babd 206a 29bd
00000070: 975e 843d 0332 283e bf1e fe3b 40d7 e9bd
00000080: 77f8 d03d d564 eabd fc6b 103e 2790 97bd
00000090: de0d 143d c351 ec3c b706 633e 9eb5 c2ba
000000a0: 36f8 403e 0af8 b83d b8f8 9d3c af36 b23d
000000b0: f300 f7bd 80ee dc3d 68c4 60bd 7e86 063e
000000c0: c9be 86bd 8d42 ab3d cebe 9a3d 9d86 023e
000000d0: 41f5 a63d 8fab acbd b43a 2ebe 9065 323d
000000e0: 996a 143c 7956 49bd 0c36 143c 1bfe 103e

fca2.weight f4 [1, 60]
-1.1135602 0.35221583 -0.12181988 0.046031523 0.4139869 -0.9203987 -0.14551444 0.5086069
0.112771414 0.45761636 0.5879025 0.39532906 -0.2442834 0.5645591 0.4684096 -0.27904367
-0.10771243 0.56982523 -0.3411163 0.44706127 -0.16153237 0.4701641 -0.2799905 -0.18800591
-0.14821489 -0.054476943 -0.07840439 0.009667925 0.59384966 0.6000804 -0.6692684 0.41034305
0.60820365 0.033116262 0.4808381 0.02264319 -0.106941074 -0.07702463 -0.19118576 -0.15045352
0.58896756 -0.10149012 0.34019136 0.5030468 0.018221121 -0.29601452 -0.07211478 0.20163295
0.34379682 -0.09213345 -0.0965505 0.60460234 0.4553439 -0.15890487 0.5076191 -0.14315002
0.63041097 -0.19434741 -0.13516217 0.5579051
00000000: 2489 8ebf a255 b43e b47c f9bd 8d8b 3c3d
00000010: 17f6 d33e 409f 6bbf bd01 15be 1034 023f
00000020: b3f4 e63d b14c ea3e c780 163f 9268 ca3e
00000030: 6d25 7abe f286 103f 62d3 ef3e d0de 8ebe
00000040: 5698 dcbd 11e0 113f cca6 aebe 37e5 e43e
00000050: be68 25be 59b9 f03e ea5a 8fbe 9f84 40be
00000060: a5c5 17be 3723 5fbd 7b92 a0bd 3766 1e3c
00000070: 8806 183f de9e 193f 2d55 2bbf 7c18 d23e
00000080: 3cb3 1b3f eba4 073d 6930 f63e 367e b93c
00000090: ec03 dbbd 17bf 9dbd 33c6 43be 7d10 1abe
000000a0: 94c6 163f 0dda cfbd 902d ae3e adc7 003f
000000b0: 7644 953c 378f 97be eab0 93bd de78 4e3e
000000c0: 2306 b03e 76b0 bcbd 45bc c5bd 38c7 1a3f
000000d0: d622 e93e f5b7 22be 53f3 013f eb95 12be
000000e0: 9d62 213f 0203 47be f467 0abe ded2 0e3f
