DDPG/models/4900_actor.pt (torch, 2835 bytes, 3 tensors)

fa1.weight f4 [60, 3]
0.30213064 -0.5685227 -0.17615238 0.57129306 -1.3730917 -0.21932131 0.720156 -1.3302525
-0.214626 0.6931489 1.2231731 -1.2714092 0.7580583 0.6832261 0.21307634 0.20479809
1.8926495 0.041626595 -0.092620604 -0.1603878 -0.005839608 0.78460383 0.73745036 0.19898434
-0.9795452 -1.1027837 0.10007812 -0.08973517 0.19896618 -0.7578654 0.51598865 -1.0106993
-0.16529146 -0.3526097 -0.99086255 1.0510402 -0.03422885 0.16427618 -0.0151247 0.9013686
-1.8778261 -0.34174946 -0.45190123 -1.210983 1.2590874 0.01331988 0.422602 -0.68361294
-1.1496663 0.23521954 -0.8452289 0.9510233 -0.61185306 -0.70317304 0.3251705 0.7123728
-0.18120392 -0.04955231 0.00852733 -0.053729255 -1.0522702 -0.2111091 0.8443324 0.28325248
-0.030234408 -0.0070008445 0.7430229 -0.4015051 -0.719703 0.06481983 0.004838993 -0.47333682
0.75514 -0.104758345 0.60382223 -0.9324242 -0.21303706 0.75132877 0.041144624 -0.10252819
0.025459757 0.6814739 -0.95857614 -0.62131876 0.0139655415 -0.05388747 -0.66539884 -1.6448281
-0.98586565 -0.3549209 0.6223285 -1.3202423 -0.21314153 0.25932804 0.42393127 -0.8260474
-0.25063562 0.31457502 0.6991822 0.5402876 -0.83623445 0.75685257 0.76971626 -1.3257353
-0.71805006 -1.0058892 -0.09407741 -0.79074895 0.41358885 0.5533232 0.09322179 0.014421876
0.30786034 -0.6569989 -0.30762902 0.45730743 0.75895476 -0.21085963 0.95666754 -0.6204934
1.1965251 -0.35817844 0.86354035 -0.06966369 0.97484607 -0.63978875 0.41690454 0.57836866
0.091227785 1.3196238 -0.24908699 0.97748125 -1.4596342 -1.0850343 -0.311713 0.65778095
0.80443203 0.13216682 -0.36326703 -1.0495331 0.9990376 0.7542384 -1.2511606 -0.73674357
0.6031213 0.7838745 0.15762363 -1.5286599 1.9698278 0.3392487 0.6870697 -1.2971925
-0.7328685 0.4010349 0.0922282 -0.9011688 0.08014132 1.285736 -0.38115242 -0.42639697
-1.241233 1.1692457 0.8344629 -0.09376101 0.5593167 -0.94800395 -0.21913972 0.77967495
1.1920946 -0.4546044 0.7698404 0.37877157 0.70677966 0.13529748 1.0211903 0.90089923
0.30290523 -0.95583004 -0.16610532 0.746478
00000000: deb0 9a3e b48a 11bf 4a61 34be 4340 123f
00000010: 78c1 afbf c495 60be 255c 383f b745 aabf
00000020: ebc6 5bbe 3572 313f f090 9c3f 89bd a2bf
00000030: 1c10 423f e8e7 2e3f af30 5a3e 97b6 513e
00000040: 5742 f23f a680 2a3d dfaf bdbd b33c 24be
00000050: 2f5a bfbb ccdb 483f 8cc9 3c3f 8dc2 4b3e
00000060: 79c3 7abf 0428 8dbf c2f5 cc3d 13c7 b7bd
00000070: cabd 4b3e 7803 42bf d517 043f 985e 81bf
00000080: 2a42 29be 4289 b4be 2ba9 7dbf 7c88 863f
00000090: 8d33 0cbd 0438 283e 97cd 77bc 18c0 663f
000000a0: 9b5c f0bf c9f9 aebe 995f e7be 7e01 9bbf
000000b0: c729 a13f a03b 5a3c 4a5f d83e 4201 2fbf
000000c0: 4428 93bf 64dd 703e ec60 58bf 4376 733f
000000d0: 67a2 1cbf 2603 34bf bf7c a63e 105e 363f
000000e0: 858d 39be 5df7 4abd 37b6 0b3c 3513 5cbd
000000f0: cab0 86bf fc2c 58be 2b26 583f 7806 913e
00000100: 26ae f7bc 5767 e5bb c036 3e3f 1492 cdbe
00000110: 753e 38bf 42c0 843d 6a90 9e3b 3459 f2be
00000120: db50 413f 8b8b d6bd 1894 1a3f 5ab3 6ebf
00000130: 6326 5abe 1557 403f 4487 283d 4dfa d1bd
00000140: fb90 d03c 1375 2e3f 3f65 75bf bf0e 1fbf
00000150: bacf 643c 1cb9 5cbd 9457 2abf ba89 d2bf
00000160: b161 7cbf 31b8 b5be ec50 1f3f b3fd a8bf
00000170: c641 5abe a5c6 843e 850d d93e d877 53bf
00000180: 5053 80be fa0f a13e 9bfd 323f 4a50 0a3f
00000190: 7613 56bf 17c1 413f 200c 453f b2b1 a9bf
000001a0: 21d2 37bf fac0 80bf a8ab c0bd 866e 4abf
000001b0: ebc1 d33e 97a6 0d3f 11eb be3d bb49 6c3c
000001c0: df9f 9d3e 1431 28bf 8d81 9dbe 3324 ea3e
000001d0: dc4a 423f 96eb 57be 2ae8 743f a8d8 1ebf
000001e0: bc27 993f 2a63 b7be fb10 5d3f d6ab 8ebd
000001f0: 838f 793f 32c9 23bf 8374 d53e f80f 143f
00000200: a2d5 ba3d 6fe9 a83f a910 7fbe 363c 7a3f
00000210: 4bd5 babf 67e2 8abf d998 9fbe 5564 283f
00000220: 42ef 4d3f bd56 073e 23fe b9be 1a57 86bf
00000230: eec0 7f3f c515 413f 0826 a0bf 3a9b 3cbf
00000240: 2866 1a3f 00ac 483f 1768 213e 21ab c3bf
00000250: 5123 fc3f 01b2 ad3e cde3 2f3f 670a a6bf
00000260: 459d 3bbf 7254 cd3e 23e2 bc3d 00b3 66bf
00000270: 2221 a43d ff92 a43f 6926 c3be b450 dabe
00000280: b9e0 9ebf d8a9 953f 5c9f 553f c605 c0bd
00000290: 612f 0f3f 63b0 72bf 2a66 60be c798 473f
000002a0: 8e96 983f e8c1 e8be 4314 453f 59ee c13e
000002b0: 83ef 343f 6c8b 0a3e 5db6 823f 55a1 663f
000002c0: 6516 9b3e 47b1 74bf 8317 2abe 2f19 3f3f

fa1.bias f4 [60]
0.8289361 0.5814453 0.73311317 -1.0460244 0.09804202 -0.5932201 -0.295763 0.107564665
-0.67592734 0.696761 0.55548877 0.60087633 -0.28385732 0.3520712 0.75056154 0.5802457
0.1610428 -0.04291815 0.394899 -0.55098695 0.8287091 0.65171075 -0.28853902 0.45822382
-0.6637261 0.7845437 -0.31140813 0.28425044 0.72081536 -0.628129 0.6705057 -0.5619636
-0.73739904 -1.5652232 0.10744096 0.07674911 0.18946388 0.589081 -0.68891674 0.47773975
-0.030578637 0.59709084 0.386854 -0.07465055 -0.66097766 0.16075781 0.6088359 0.09380535
0.4398532 -0.74250555 0.028367056 -0.72429216 0.45530763 0.713078 -0.5782785 0.78778136
-0.068514556 0.2688222 0.10842742 0.81690544
00000000: 2835 543f 99d9 143f 4ead 3b3f 21e4 85bf
00000010: 41ca c83d 46dd 17bf 3f6e 97be dd4a dc3d
00000020: 9309 2dbf ee5e 323f 8334 0e3f 08d3 193f
00000030: bf55 91be ad42 b43e cd24 403f fb8a 143f
00000040: 67e8 243e f1ca 2fbd 3430 ca3e 7b0d 0dbf
00000050: 4826 543f 84d6 263f 63bb 93be 509c ea3e
00000060: f4e9 29bf dbd7 483f e370 9fbe 4689 913e
00000070: 5b87 383f 10cd 20bf 43a6 2b3f d9dc 0fbf
00000080: 2fc6 3cbf 3c59 c8bf 020a dc3d a32e 9d3d
00000090: d202 423e 03ce 163f d95c 30bf 4e9a f43e
000000a0: 0d80 fabc f2da 183f ba11 c63e 63e2 98bd
000000b0: d535 29bf b29d 243e abdc 1b3f 051d c03d
000000c0: 7034 e13e d814 3ebf 0762 e83c 366b 39bf
000000d0: 151e e93e 488c 363f 0f0a 14bf 0aac 493f
000000e0: 5c51 8cbd 10a3 893e 320f de3d b720 513f

fa2.weight f4 [1, 60]
0.42061576 0.6623078 0.4513384 1.7854049 -0.9360169 -2.1210275 -0.0684354 -0.9878559
-1.2911348 -0.35253268 0.53845924 0.46750098 -0.16032678 1.3621061 1.3678888 -0.51364523
-1.2279679 0.7046668 -0.4126076 0.11315759 0.8065807 0.20442659 0.8596979 0.32579693
-1.2106369 0.87954295 0.07130343 0.484817 -0.4970083 -1.592764 0.6853987 1.2983007
-1.1856707 -1.3718559 1.1237342 -1.0069981 -0.5301065 -0.43372348 -1.5647974 -0.7317406
-1.6253028 -0.98596764 -0.09986435 -1.4965843 -1.4765241 -0.7005618 0.7455778 1.1031518
-0.20739086 0.92207247 1.1118852 1.0965687 -0.8584723 1.1482947 -1.1036544 0.81354433
-1.5836675 -0.2644022 -1.4150286 0.6694697
00000000: f35a d73e 018d 293f d415 e73e 2688 e43f
00000010: ce9e 6fbf eabe 07c0 dc27 8cbd 20e4 7cbf
00000020: e843 a5bf 2a7f b4be 77d8 093f 4a5c ef3e
00000030: b42c 24be 7e59 ae3f fb16 af3f 417e 03bf
00000040: 0d2e 9dbf 0b65 343f 4e41 d3be 2bbf e73d
00000050: 137c 4e3f 3455 513e 2915 5c3f dbce a63e
00000060: 26f6 9abf ba29 613f 8807 923d ef39 f83e
00000070: df77 febe b1df cbbf 4a76 2f3f b82e a63f
00000080: 0fc4 97bf f998 afbf 86d6 8f3f 50e5 80bf
00000090: 0fb5 07bf 0111 debe 484b c8bf 5a53 3bbf
000000a0: ec09 d0bf 6068 7cbf ae85 ccbd 1390 bfbf
000000b0: befe bcbf 0558 33bf 30de 3e3f 1434 8d3f
000000c0: 455e 54be f10c 6c3f 4152 8e3f 5d5c 8c3f
000000d0: d7c4 5bbf 52fb 923f 8c44 8dbf 7144 503f
000000e0: 9eb5 cabf ba5f 87be a81f b5bf 5e62 2b3f
