DDPG/models/5100_actor.pt (torch, 2835 bytes, 3 tensors)

fa1.weight f4 [60, 3]
00000000: b068 bd3e 99f8 ebbe 78ef 6fbd c893 203f
00000010: 0d66 98bf 5c9b 02be 7eac 463f ae10 96bf
00000020: d8f8 c7bd 7d20 203f e543 a13f 06b5 98bf
00000030: eb0e 333f ad5c 223f ead2 243e a791 32be
00000040: 48fd f63f 6b25 183e dfaf bdbd b33c 24be
00000050: 2f5a bfbb d882 393f 6a8c 2e3f 28fe 263e
00000060: 2d35 88bf 5e3d 85bf f2ae 0bbd c24b 09be
00000070: 1378 e93c a6b7 4dbf 6b9b 123f 00ff 57bf
00000080: 5033 7bbd b367 7abe 8633 73bf 933f 813f
00000090: 8d33 0cbd 0438 283e 97cd 77bc 3476 763f
000000a0: 3c7b d3bf 462c 8ebe a128 b1be a972 96bf
000000b0: 9abd 9b3f 0ab4 05bd b286 833e 47bf 3abf
000000c0: d5c3 c1bf a82c 5d3e 5393 5cbf 292f 7a3f
000000d0: 42b1 d5be cd75 28bf cb3c 8a3e 57ce 173f
000000e0: e553 41be 5df7 4abd 37b6 0b3c 3513 5cbd
000000f0: 3a89 5cbf f6ca 1fbf e7a1 513f 7032 ba3e
00000100: b173 2f3c 5d59 1f3d 7fb6 443f 5f7a 59be
00000110: 23c5 2cbf 1124 dd3d c47b 343e ebb9 dabe
00000120: a874 393f 8e83 90be a7de 183f 885f 48bf
00000130: 8150 1dbf ef84 393f 4487 283d 4dfa d1bd
00000140: fb90 d03c 99a5 383f 686a 3fbf d0ab 11bf
00000150: a2b4 f1bc f940 6fbe 6532 36bf c2d3 e6bf
00000160: 5f29 72bf 9527 b9be f7ee 2d3f 39ff 93bf
00000170: 8a26 d3bd 0078 433e e066 e73e c2f6 40bf
00000180: d556 2ebf 14a0 4c3f cc69 353f 0a03 8b3e
00000190: f980 04bf 858f 323f 4112 4d3f e454 8fbf
000001a0: cb02 2cbf 2cad a8bf 6439 a6bd 9867 54bf
000001b0: 263f b23e 2e71 f93e ede1 cd3d d6e3 f8bc
000001c0: f10c 0e3e 1ee7 33bf 4748 37bf 68c5 703f
000001d0: e755 443f d256 84be 1a38 513f 8401 28bf
000001e0: 8208 9d3f 82fa bebe 331c 4c3f 4b93 fdbd
000001f0: d4c4 553f 95ef 2dbf 0027 ae3e 0f63 0a3f
00000200: 3739 8c3d 20c6 ac3f e975 84be a3a5 693f
00000210: 9ee8 cbbf e9c6 86bf 8561 a7be 4109 183f
00000220: d5cb 3c3f 13ff 0a3e efd7 7dbe e309 84bf
00000230: 1cdf 713f 34d2 483f 8fbc 85bf 8b2a 31bf
00000240: 487a 083f 0365 3b3f bd2f 1a3e 3884 a0bf
00000250: 7700 b13f 2386 e73d ad05 373f 7e5a 8bbf
00000260: 6f0b 31bf dc9f a93e c400 e63d ca62 55bf
00000270: 1bba 173c ad6a 933f baf8 ccbe 2ae0 a1be
00000280: 1f4e 9cbf 7319 8f3f 4eed 453f afe1 77be
00000290: b51c 0d3f 25ba 4abf 2131 1fbf 2dde 403f
000002a0: 435d 9c3f 5ecd f6be ee96 333f cfb4 9e3e
000002b0: 6301 263f 79de 0b3e 6bbb 763f 9681 5b3f
000002c0: 6efc 713e d458 4ebf 9657 10bf 98a8 383f
0.36993933 -0.46088102 -0.058577985 0.62725496 -1.1906143 -0.12754577 0.7760695 -1.172384
-0.0976426 0.62549573 1.2598845 -1.1930244 0.6994464 0.6342266 0.16096082 -0.17438374
1.9296045 0.14858024 -0.092620604 -0.1603878 -0.005839608 0.72465277 0.68183005 0.1630789
-1.0641228 -1.0409353 -0.034102388 -0.13407806 0.028499639 -0.8035835 0.572684 -0.84373474
-0.061328232 -0.2445362 -0.95000494 1.0097526 -0.03422885 0.16427618 -0.0151247 0.96274114
-1.6521983 -0.27768153 -0.3460131 -1.1753742 1.2167237 -0.0326424 0.25688702 -0.72948116
-1.5137888 0.21599066 -0.861623 0.9772821 -0.417368 -0.6580475 0.26999506 0.59299225
-0.1887966 -0.04955231 0.00852733 -0.053729255 -0.8614689 -0.6241907 0.8188767 0.36366606
0.010708735 0.038903583 0.76840967 -0.21238087 -0.67488307 0.10797895 0.17625338 -0.4271997
0.7244363 -0.28225368 0.5971474 -0.7827077 -0.61450964 0.72468466 0.041144624 -0.10252819
0.025459757 0.7212768 -0.7477174 -0.5690279 -0.029505078 -0.23364629 -0.71170646 -1.8033373
-0.9459438 -0.3616301 0.67942756 -1.1562263 -0.10310085 0.19088745 0.45195675 -0.7537652
-0.68101245 0.7993176 0.7086456 0.27150756 -0.51759297 0.69750243 0.8010598 -1.1197782
-0.6719176 -1.3177848 -0.08116415 -0.8297057 0.34813803 0.48719162 0.100528575 -0.030382078
0.13872124 -0.7027453 -0.7159466 0.9405122 0.76693577 -0.2584749 0.8172623 -0.6562731
1.2268221 -0.37300497 0.7973053 -0.123816095 0.8350346 -0.679437 0.3401413 0.540574
0.0684685 1.3497963 -0.25871208 0.91268367 -1.5930364 -1.0529453 -0.3269159 0.5938912
0.73748523 0.13573866 -0.24789403 -1.0315517 0.9448106 0.78445745 -1.0448169 -0.6920554
0.53311586 0.73201007 0.15057273 -1.254035 1.3828267 0.113048814 0.71493036 -1.0886991
-0.6915807 0.33129776 0.11230615 -0.83353865 0.00926068 1.151693 -0.40033513 -0.31616336
-1.2211341 1.1179641 0.77315223 -0.24207185 0.5512193 -0.79190284 -0.6218434 0.75339013
1.2215961 -0.48203558 0.70152175 0.3099732 0.64845866 0.13659085 0.9637973 0.8574461
0.2363145 -0.8060429 -0.56383646 0.72132254

fa1.bias f4 [60]
00000000: 7575 523f 029b 1a3f 4127 3f3f c0ec 98bf
00000010: 101e e83d cc31 2fbf 3f6e 97be d650 f73d
00000020: 395a 2bbf 465a 393f d735 123f 2cd0 203f
00000030: bf55 91be a1ca c23e 48f6 463f 0d52 1b3f
00000040: 8360 813d 7f20 50bd 5cb2 de3e 7b0d 0dbf
00000050: 2e2d 3b3f 7cb7 1e3f 157a 98be 988c dc3e
00000060: a7f4 24bf 427e 283f e370 9fbe 9af6 873e
00000070: af34 3f3f b1a6 14bf 1f8f 2f3f b972 32bf
00000080: 3268 22bf 991b cfbf ac6d bd3d bf8e c13c
00000090: 1f39 4c3e b1bb 1d3f 7a86 18bf 519b 023f
000000a0: 5b17 553d ff9f 1f3f be13 ce3e 310f 153c
000000b0: ec37 1fbf 4d4c 2e3e af22 263f a4c9 9f3d
000000c0: 9e20 e83e c57a 93bf cde6 193c 3f7f 59bf
000000d0: ff11 003f e277 3f3f 852b 17bf 3f8e 2a3f
000000e0: 6df1 2f3c a40d 903e 2ed4 003e 2768 303f
0.82210475 0.60392773 0.7466927 -1.194725 0.11333859 -0.6843536 -0.295763 0.12075965
-0.66934544 0.7240337 0.57113403 0.62817645 -0.28385732 0.3804522 0.77719545 0.60672075
0.06317236 -0.05081224 0.43495452 -0.55098695 0.73115814 0.61998725 -0.2978064 0.43076015
-0.6443581 0.65817654 -0.31140813 0.2655533 0.74689764 -0.5806685 0.6857776 -0.697063
-0.6344024 -1.6180297 0.09249434 0.023627637 0.19943665 0.6161452 -0.59580195 0.51018244
0.052024227 0.6235351 0.40249437 0.00909786 -0.62194705 0.17021294 0.6489667 0.07802132
0.45337385 -1.1521841 0.009393406 -0.8495979 0.5002746 0.747923 -0.5905078 0.666233
0.010738713 0.28135407 0.1258094 0.68908924

fa2.weight f4 [1, 60]
00000000: b1ad ce3e 384c 1f3f 83fe da3e 1f21 e03f
00000010: 7f85 5bbf 2370 18c0 dc27 8cbd 2404 69bf
00000020: 676e a9bf 86bd cbbe 74d4 033f 5368 d33e
00000030: b42c 24be 04c1 a63f 01b4 a73f 3a47 0bbf
00000040: dece aebf d4c6 293f e894 c6be 2bbf e73d
00000050: e2c5 3a3f 76ad 583e ba1e 503f aab5 943e
00000060: e9f7 8dbf 675f 4e3f 8807 923d df15 d83e
00000070: f097 0cbf cac1 d2bf fab3 273f ab1f a13f
00000080: b193 aabf c23a 9bbf d6da 843f af65 92bf
00000090: c2e1 efbe d627 f0be 7d12 ddbf a0bc 3ebf
000000a0: 5531 cfbf f314 7fbf f51e 79bd 463c bebf
000000b0: 62d9 c2bf cfac 20bf c0b3 303f c285 823f
000000c0: f07c 23be 0c3d eb3e d010 823f 56ce 863f
000000d0: bb33 56bf 6ab5 8b3f b4ae 7fbf 1cb6 3d3f
000000e0: 94ff c9bf 953d 55be 4eba aabf 85ba 163f
0.4036689 0.62225676 0.42772302 1.7510108 -0.85750574 -2.3818443 -0.0684354 -0.91021943
-1.3236817 -0.39793032 0.5149605 0.4129053 -0.16032678 1.3027654 1.3101808 -0.5440556
-1.3656881 0.6631901 -0.3878548 0.11315759 0.72958195 0.2115992 0.81296885 0.2904485
-1.1091281 0.8061432 0.07130343 0.42204186 -0.5491934 -1.646539 0.65509 1.2587789
-1.3326322 -1.2127306 1.0379283 -1.1437281 -0.46851927 -0.46905392 -1.7271267 -0.7450657
-1.618693 -0.9964134 -0.06082054 -1.4862144 -1.522259 -0.62763685 0.69024277 1.019707
-0.15965629 0.45945013 1.0161381 1.0531719 -0.83672684 1.0914738 -0.9987595 0.74106
-1.5781121 -0.20824273 -1.3338106 0.58878356
