DDPG/models/5200_critic.pt (torch, 18423 bytes, 7 tensors)

fc1.weight f4 [30, 3]
0	0xbe654c92	-0.2239249
1	0xbf26561d	-0.6497515
2	0xbdbcc61e	-0.09217475
3	0xbee03e3e	-0.43797487
4	0xbe313b13	-0.17307691
5	0xbe07df1c	-0.13268703
6	0x3f0e8011	0.55664164
7	0x3edfe4e3	0.43729314
8	0x3e745a69	0.23862614
9	0xbeb70c86	-0.35751742
10	0xbf4a2900	-0.7896881
11	0xbdac2020	-0.08404565
12	0xbf51c7fb	-0.8194577
13	0xbeedae49	-0.46422032
14	0xbd8ea9b7	-0.06965964
15	0x3c5fa212	0.01364948
16	0xbea12c27	-0.31478998
17	0xbc25999d	-0.010107425
18	0xbd63da67	-0.055628207
19	0xbfa7b455	-1.3101908
20	0xbe7c98e7	-0.24667703
21	0xbdc9c8c7	-0.09852748
22	0x3fb51a50	1.4148655
23	0x3e902365	0.28152004
24	0xbedc6c99	-0.43051603
25	0x3f2411e6	0.6408981
26	0x3d6ac7ba	0.05731938
27	0x3d105c30	0.035244167
28	0x3dcb1ed0	0.099179864
29	0xbc7af3f0	-0.015316948
30	0x3d6980a2	0.05700744
31	0x3e00a252	0.1256192
32	0xbc751c12	-0.014960306
33	0xbf349e77	-0.705543
34	0x3e951253	0.29115543
35	0x3e92dfce	0.28686374
36	0x3efe42b4	0.49660265
37	0xbefe3858	-0.49652362
38	0xbe353218	-0.1769489
39	0xbedae1f6	-0.4275052
40	0xbe825fd8	-0.25463748
41	0xbd3f440a	-0.046695746
42	0x3f2c5a68	0.6732545
43	0x3ef738ab	0.48285422
44	0x3e3f3281	0.1867161
45	0xbeba9a26	-0.3644573
46	0x3c891aad	0.016736353
47	0xbb9d7300	-0.004804969
48	0x3ea09354	0.31362402
49	0xbf17da36	-0.5931734
50	0xbe0d32df	-0.13788937
51	0xbefb7361	-0.49111465
52	0xbec0b3ef	-0.37637278
53	0xbe306adf	-0.17228268
54	0x3dc2d386	0.09513001
55	0x3f407024	0.75171113
56	0x3e148d19	0.1450695
57	0x3e978b50	0.29598475
58	0x3f3b4c5a	0.7316338
59	0x3e392613	0.1808093
60	0xbc9749cb	-0.018467804
61	0xbf022d26	-0.5085014
62	0x3d8032b9	0.062596746
63	0xbc48952a	-0.012242595
64	0xbdd8df97	-0.105895214
65	0x3a3da171	0.00072338345
66	0xbe0d107d	-0.13775821
67	0x3f19b55b	0.6004235
68	0x3d7ed288	0.062212497
69	0xbe48751c	-0.19575924
70	0x3f7b9d8f	0.9828729
71	0x3e490cad	0.19633742
72	0xbf6adecd	-0.91746217
73	0x3f01ceb6	0.5070604
74	0x3eaeec9b	0.3416489
75	0xbf23df7a	-0.64012873
76	0xbebbeafb	-0.36702713
77	0xbe07acf1	-0.13249566
78	0xbf0f3d2b	-0.5595271
79	0x3e1cbd9b	0.15306704
80	0x3df5506c	0.1197823
81	0xbf1626cc	-0.5865295
82	0x3ee7c3f2	0.45266682
83	0x3e143cb0	0.14476275
84	0xbeed3153	-0.46326694
85	0x3ec4cb9e	0.38436598
86	0x3e55e5f0	0.20888495
87	0xbd994c5c	-0.074852675
88	0xbe159f52	-0.14611557
89	0xbea10460	-0.3144865

fc1.bias f4 [30]
0	0x3e352606	0.17690286
1	0x3e93111a	0.28723985
2	0xbe03123c	-0.12799925
3	0xbe5f5b02	-0.2181206
4	0xbe1b8ca4	-0.15190369
5	0xbeca1a51	-0.39473203
6	0xbeef6e23	-0.46763715
7	0xbee7fa60	-0.45308208
8	0xbea987fb	-0.33111557
9	0xbeb04140	-0.34424782
10	0xbeb72eb0	-0.35777807
11	0xbefda092	-0.49536568
12	0xbe7c1f7e	-0.24621388
13	0x3ee637ec	0.4496454
14	0xbeb80613	-0.35942134
15	0x3e55d28d	0.208811
16	0xbcaa34b5	-0.020777086
17	0x3ea6de89	0.32591656
18	0x3dc7bbd1	0.0975262
19	0x3edc8ff9	0.43078592
20	0x3f1651c0	0.5871849
21	0xbeb8930c	-0.36049688
22	0x3ebfb49c	0.37442482
23	0xbe4a5968	-0.19760668
24	0x3d0d6334	0.034518436
25	0x3ca97b50	0.020688683
26	0x3e15196b	0.14560477
27	0x3d95fd37	0.073236875
28	0x3f187d34	0.59566045
29	0xbe8311e9	-0.25599602

fa1.weight f4 [30, 1]
0	0x3d19113e	0.03736996
1	0xbc6da7b3	-0.014505315
2	0xba724607	-0.0009242002
3	0xbd2af519	-0.04173765
4	0x3d65fec2	0.05615116
5	0x3de94be3	0.11391427
6	0x3d6ff9b5	0.05858775
7	0x3da40c7d	0.080101945
8	0xbe3265f9	-0.17421712
9	0xbe4609bb	-0.1933965
10	0xbd52ded8	-0.05148205
11	0x3d0b307f	0.033981796
12	0x3d7654c3	0.06013943
13	0x3db1a847	0.086746745
14	0xbdeb0a15	-0.11476532
15	0xbd9aaeee	-0.075528964
16	0xbc4a8e97	-0.012363098
17	0x3d01c04d	0.031677533
18	0x3e18c9d6	0.14920744
19	0xbd88efa7	-0.06686335
20	0xbe3bb2ff	-0.1833
21	0xbc8359d0	-0.016034037
22	0xbd82c39f	-0.06384968
23	0x3dac3c38	0.08409923
24	0xbd0e284c	-0.0347064
25	0xbd8a8433	-0.06763496
26	0xbdb3ede6	-0.0878561
27	0x3e265f62	0.16247323
28	0x3a225540	0.0006192513
29	0x3daf3f02	0.0855694

fa1.bias f4 [30]
0	0x3f43b726	0.7645134
1	0xbd043ff3	-0.03228755
2	0xbd6e02a0	-0.058107972
3	0xbf43a344	-0.76421
4	0xbf4ec868	-0.80774546
5	0xbf53f3ea	-0.8279406
6	0x3e9fb311	0.31191304
7	0xbf110858	-0.56653357
8	0xbeb37942	-0.3505345
9	0xbf6a12a6	-0.91434705
10	0x3e4b060c	0.19826525
11	0xbd8c52c1	-0.068517216
12	0x3d4c79b8	0.049920768
13	0xbf5e3314	-0.8679669
14	0x3eb44f43	0.35216722
15	0x3ea72dc3	0.326521
16	0x3d59bbe7	0.053157713
17	0x3f490173	0.78517836
18	0xbf0336f0	-0.512557
19	0xbe6b19f0	-0.22959113
20	0xbda2cfd7	-0.079497986
21	0x3e4ff716	0.203091
22	0xbf19be42	-0.60055935
23	0x3f250aa0	0.6446934
24	0x3f614eb9	0.88010746
25	0x3d784afb	0.060618382
26	0xbf48d02a	-0.78442633
27	0xbdd74d52	-0.105127946
28	0xbeadf2c4	-0.33974278
29	0x3ed237af	0.41058108

fca1.weight f4 [60, 60]
0	0x3db54e25	0.088527955
1	0x3e953712	0.29143578
2	0xbdbd5c6f	-0.09246146
3	0xbd814190	-0.06311333
4	0x3d93a087	0.072083525
5	0x3df229f9	0.11824412
6	0x3e11a237	0.14222036
7	0xbea89ab8	-0.3293054
8	0xbf947857	-1.1599225
9	0xbdcb21fc	-0.099185914
10	0xbd53d138	-0.0517132
11	0xbde39a9a	-0.11113472
12	0xbec332f8	-0.38124824
13	0x3dbcb62f	0.09214436
14	0x3e0a6957	0.13516746
15	0x3e31eb5b	0.17374937
16	0x3dfed4ad	0.124429084
17	0x3e9e0f83	0.3087121
18	0xbeccace7	-0.39975664
19	0xbe6a6322	-0.22889379
20	0xbe42bbe0	-0.19016981
21	0xbc4932ed	-0.012280208
22	0x3e54f56e	0.20796749
23	0xbf134f75	-0.57543117
24	0xbe81b8a7	-0.2533619
25	0x3c4921e2	0.012276145
26	0x3e3907dd	0.18069406
27	0x3e9fb20d	0.3119053
28	0x3e78e1f9	0.24304952
29	0xbf38e5ef	-0.7222585
30	0xbd7c5a3e	-0.0616095
31	0xbd12a87d	-0.035805214
32	0x3e30f76a	0.17281881
33	0xbbb0bc4e	-0.0053935414
34	0x3d1995e5	0.037496466
35	0xbe320fa7	-0.17388783
36	0xbd45dad1	-0.048304383
37	0xbd5d01f0	-0.053956926
38	0x3df0206a	0.117249325
39	0xbdfd47e3	-0.12367227
40	0xbec440e6	-0.38330764
41	0xbddbe4e7	-0.10737019
42	0xbe015f26	-0.12633952
43	0x3de20500	0.1103611
44	0xbe1c4bbc	-0.15263265
45	0xbd70f189	-0.058824096
46	0x3d80a7e6	0.06282024
47	0xbda46f09	-0.08028991
48	0xbd0acbfc	-0.03388594
49	0x3d8cacce	0.068688974
50	0x3c32f3b6	0.010922363
51	0xbb6fa37c	-0.003656595
52	0xbd9068bc	-0.070512265
53	0xbe20a5b1	-0.15688206
54	0xbe9265e7	-0.2859337
55	0xbe8f7b82	-0.28023916
56	0x3d88b9ba	0.066760495
57	0x3d2540b5	0.040344913
58	0xbd922697	-0.07136267
59	0xbe1311a1	-0.14362194
60	0x3e5d0047	0.21582137
61	0x3dc1fab2	0.094716445
62	0xc002aefc	-2.0419302
63	0x3debb778	0.11509603
64	0x3e8be9b7	0.27326748
65	0xbdb0f83f	-0.08641099
66	0x3e790519	0.24318351
67	0xbf4c14dc	-0.7971933
68	0x3f205fa7	0.62645954
69	0xbe0fc5c4	-0.14040285
70	0x3d1e7cb2	0.038693137
71	0x3f5b1fd2	0.8559543
72	0x3ea9039a	0.3301056
73	0xbdd1dadc	-0.10246822
74	0xbffa4565	-1.9552428
75	0xbccd9c0f	-0.025098829
76	0x3e53b11b	0.20673029
77	0x3ce41240	0.027840734
78	0xbffb78c8	-1.9646235
79	0xbfa9f699	-1.3278381
80	0x3e52e614	0.2059558
81	0xbe5a5695	-0.21322091
82	0x3dfeccda	0.12441416
83	0x3f020a55	0.50797015
84	0x3e5443ab	0.20728938
85	0x3e0f7e96	0.14013132
86	0xbdfc32b3	-0.123143576
87	0xbe44553a	-0.19173136
88	0x3ea7ec52	0.32797486
89	0xbe0d7e0e	-0.13817617
90	0xbe47c6ec	-0.19509476
91	0xbe66a483	-0.22523694
92	0x3d1013af	0.03517502
93	0x3d0c83ff	0.03430557
94	0x3d927988	0.071520865
95	0xbd6156e5	-0.05501451
96	0xbb99c883	-0.0046930923
97	0x3c6c1f17	0.014411709
98	0xbb16a82e	-0.0022988426
99	0xbdabe4db	-0.0839326
100	0xbe09304d	-0.13397332
101	0x3e318f56	0.17339835
102	0x3ca01368	0.019540504
103	0x3ba5ae53	0.0050561815
104	0xbe325e2f	-0.1741874
105	0xbe9b7185	-0.30360046
106	0xbd976f4c	-0.07394275
107	0xbe25014d	-0.16113777
108	0xbcf47fea	-0.02984615
109	0x3d13e247	0.036104467
110	0x3e4cf256	0.20014319
111	0xbe129d1a	-0.14317742
112	0xbd18494b	-0.037179273
113	0xbdca6800	-0.09883118
114	0x3c57fb02	0.0131824035
115	0xbcb5d2b1	-0.022195192
116	0xbccc4536	-0.024935346
117	0x3d1e03da	0.038577892
118	0x3cf0d20d	0.029397035
119	0xbe56ce3f	-0.20977114
120	0x3d940403	0.07227328
121	0x3e8ba43f	0.27273747
122	0x3d555a88	0.05208829
123	0x3e75b3ae	0.23994324
124	0x3d454f72	0.048171468
125	0x3e2be355	0.16785939
126	0x3ec38657	0.3818843
127	0x3e88ceb6	0.26720208
128	0x3ba0480c	0.004891401
129	0xbc7fca55	-0.015612205
130	0x3e096d77	0.13420664
131	0x3e7dcc5d	0.2478499
132	0x3dd5dcd7	0.104425125
133	0x3e8547b4	0.26031268
134	0xbe2747e0	-0.16336012
135	0x3e43895a	0.19095364
136	0x3d590eb9	0.052992556
137	0x3d5397df	0.051658507
138	0x3d2a071f	0.041510697
139	0xbc97ac83	-0.018514877
140	0x3de5b583	0.11216261
141	0xbca52766	-0.020160388
142	0x3e827085	0.2547647
143	0x3df34e2a	0.11880143
144	0x3de37583	0.11106398
145	0x3e914165	0.28370205
146	0x3e1417c2	0.14462188
147	0x3e841c37	0.25802776
148	0x3e5ad7ef	0.21371435
149	0x3c544bea	0.012957552
150	0x3da2957a	0.07938667
151	0x3d66ddd6	0.056363903
152	0x3d704a15	0.0586644
153	0xbd99fc2b	-0.075188
154	0x3e2860a5	0.16443117
155	0x3ce968bf	0.02849233
156	0xbd1cf786	-0.038321994
157	0xbdfd9e6d	-0.12383733
158	0x3c38edf4	0.011287201
159	0x3d8d0c69	0.06887133
160	0xbda3b3fc	-0.07993314
161	0xbd8ef48d	-0.06980238
162	0x3de19284	0.11014274
163	0xbdb8c10b	-0.09021195
164	0x3cfd18e3	0.030895656
165	0x3e05788e	0.13034269
166	0x3e6cbe20	0.23119402
167	0x3e724709	0.2365991
168	0x3dd9f81d	0.10643027
169	0xbe2fc088	-0.17163289
170	0xbddb5451	-0.107094415
171	0x3e3e9335	0.18610843
172	0xbd81a485	-0.06330208
173	0xbe4a5ef3	-0.19762783
174	0x3dd8d9c5	0.10588411
175	0x3deed951	0.116625436
176	0x3d4b960b	0.04970364
177	0xbceb0a18	-0.028691337
178	0x3d0cbcd4	0.034359768
179	0xbd58ce9d	-0.052931417
180	0x3dd8f9cb	0.10594519
181	0xbc1426b6	-0.0090424325
182	0xbe2f53fd	-0.17121883
183	0xbd8b0950	-0.067888856
184	0xbd30b9f3	-0.043146085
185	0x3cb45ca4	0.02201683
186	0xbd01fb93	-0.03173406
187	0xbd5ec460	-0.054386497
188	0xbe5ac332	-0.21363524
189	0x3d1f71cc	0.038926885
190	0xbb23ed8c	-0.0025013415
191	0x3cf16790	0.029468328
192	0x3d90de68	0.070736706
193	0xbd970598	-0.07374114
194	0x3dc2e357	0.09516018
195	0xbd93270e	-0.071851835
196	0xbd589fd2	-0.05288679
197	0x3e0b5dc7	0.13609992
198	0xbd75cb42	-0.060008295
199	0xbe236bed	-0.15959139
200	0xbe001ede	-0.12511775
201	0xbd75ee40	-0.060041666
202	0xbda97a43	-0.08275273
203	0xbdf81bb0	-0.12114656
204	0xbc54d067	-0.01298914
205	0xbd71d870	-0.0590443
206	0xbc2540f3	-0.010086286
207	0xbd88df6e	-0.06683241
208	0x3c1c85a0	0.009553343
209	0xbdbdce0d	-0.09267817
210	0xbdfd8f1a	-0.1238081
211	0xbe217d4b	-0.15770452
212	0xbe6047f2	-0.21902445
213	0xbe1806cc	-0.14846343
214	0xbcbaf9ff	-0.022824286
215	0xbc6bbc13	-0.014388102
216	0xbe0d9ac4	-0.1382857
217	0x3c69cd6a	0.014270166
218	0x3d8aa001	0.067687996
219	0xbe5fccc8	-0.21855462
220	0x3d8d632b	0.069036804
221	0xba810aa1	-0.0009845087
222	0x3d4eab1a	0.050456144
223	0xbd9a6496	-0.075387165
224	0x3db043af	0.086066596
225	0x3dfb9a75	0.1228532
226	0xbd94d58a	-0.07267292
227	0xba39d3fa	-0.0007088777
228	0xbe3e3553	-0.18575029
229	0xbc434c5b	-0.01192006
230	0x3b36fa42	0.0027920161
231	0xbd0f14a7	-0.034931805
232	0x3ab27fd7	0.0013618422
233	0x3c983b5f	0.018582998
234	0xbd147449	-0.03624371
235	0xbc55c6df	-0.013047903
236	0xbe66c42a	-0.22535768
237	0x3daa6b33	0.08321228
238	0x3e2197a4	0.15780503
239	0x3e4d18cf	0.20028995
240	0xbf4fbd99	-0.8114868
241	0x3e5a341e	0.21308944
242	0xbe632ce2	-0.2218509
243	0x3e1b8a6e	0.15189525
244	0xbf4cfe38	-0.8007541
245	0xbe51c22d	-0.20484228
246	0x3d86d4ff	0.065835945
247	0x3e3345bf	0.17507075
248	0x3ea76c0d	0.32699624
249	0xbd1ce938	-0.038308352
250	0xbe407217	-0.18793522
251	0xbe0c4d44	-0.1370135
252	0xbef0e840	-0.47052193
253	0xbd341e3c	-0.043974146
254	0xbd5dd78a	-0.054160632
255	0xbe939aee	-0.2882914

fca1.bias f4 [60]
0	0xbc7a31c5	-0.015270655
1	0xbd5cfe3b	-0.05395339
2	0x3dd6f4fe	0.10495947
3	0x3be72581	0.0070540314
4	0xbe050ed3	-0.12993936
5	0x3dfe8d9c	0.124293536
6	0x3cb5a0b6	0.02217136
7	0x3e00eea8	0.1259104
8	0xbda87b78	-0.08226675
9	0x3bf76847	0.0075502726
10	0xbc584905	-0.013201003
11	0x3d104c82	0.035229214
12	0x3bb2151e	0.0054346463
13	0xbd82beeb	-0.06384071
14	0x3c3aad2f	0.011393829
15	0x3d70dab2	0.058802314
16	0xba729b90	-0.0009254748
17	0x3de97498	0.113991916
18	0xbd2538d5	-0.040337402
19	0x3cf4ddd1	0.029890927
20	0x3dd2aa19	0.1028635
21	0x3df5a073	0.11993494
22	0x3cc6ecda	0.024282862
23	0x3c09acc9	0.008403012
24	0xbd2fca9f	-0.042917844
25	0x3d3def7e	0.046370976
26	0xbdbae848	-0.091263354
27	0xbd296a20	-0.041360974
28	0x3d34ad15	0.044110376
29	0x3e1dea4f	0.15421413
30	0x3ca0d043	0.019630557
31	0xbde446fd	-0.111463524
32	0x3dd95bb2	0.106131926
33	0xbdea64d5	-0.114450134
34	0x3e19ff24	0.15038735
35	0xbd979027	-0.07400542
36	0x3d1d443f	0.038395163
37	0x3cf015df	0.029307304
38	0x3e671dc3	0.22569947
39	0x3af1e3c1	0.0018454717
40	0x3e4584b6	0.19288906
41	0x3dbdad5b	0.092615806
42	0x3cf01cd2	0.029310618
43	0x3dc38d74	0.095484644
44	0xbdf700f3	-0.12060728
45	0x3de686bb	0.112561665
46	0xbd60c468	-0.054874808
47	0x3e1b6d66	0.15178451
48	0xbda171c6	-0.07883029
49	0x3daf2e96	0.085538074
50	0x3d9ea16d	0.07745633
51	0x3dfb9917	0.12285059
52	0x3d97eed0	0.07418597
53	0xbda52c81	-0.08065129
54	0xbe32941d	-0.17439313
55	0x3d3eef60	0.046615005
56	0x3b85d0d9	0.0040837345
57	0xbd39231b	-0.045199495
58	0x3c44dbf7	0.012015334
59	0x3e16a38c	0.14710826

fca2.weight f4 [1, 60]
0	0xbf976c53	-1.1829933
1	0x3ebc5c28	0.3678906
2	0xbdf8bd0d	-0.121454336
3	0x3d3c8b8d	0.046031523
4	0x3eed57fb	0.46356186
5	0xbf67566f	-0.9036626
6	0xbe0ff277	-0.14057337
7	0x3ef33fb7	0.47509548
8	0x3de6f4b3	0.112771414
9	0x3edb989a	0.42889863
10	0x3f29bc98	0.66303396
11	0x3ec4463d	0.38334838
12	0xbe759e8f	-0.23986267
13	0x3f12f5df	0.5740642
14	0x3ec1162c	0.37712228
15	0xbe8ad4e7	-0.27115557
16	0xbdda8cdf	-0.106714
17	0x3f0ec950	0.5577593
18	0xbeac58d9	-0.33661535
19	0x3ed99ec1	0.42503932
20	0xbe21d914	-0.15805465
21	0x3ee1876d	0.44048634
22	0xbe8e3884	-0.27777493
23	0xbe413f2b	-0.18871753
24	0xbe10ac79	-0.14128293
25	0xbd5f2337	-0.054476943
26	0xbda0927b	-0.07840439
27	0x3c1e6637	0.009667925
28	0x3f1cc8b0	0.61243725
29	0x3f20ffa4	0.62890077
30	0xbf2cab88	-0.67449236
31	0x3ed19b8b	0.40938982
32	0x3f0da0c7	0.5532345
33	0x3d07a4eb	0.033116262
34	0x3eed4a76	0.46345872
35	0x3cb97e36	0.02264319
36	0xbdced2dd	-0.10098813
37	0xbd9666c3	-0.07343819
38	0xbe424f55	-0.18975575
39	0xbe162f8a	-0.14666572
40	0x3f13a755	0.57677203
41	0xbdc9cf64	-0.0985401
42	0x3ea70ade	0.32625479
43	0x3f00b3e4	0.5027449
44	0x3c954476	0.018221121
45	0xbe96da9a	-0.29463655
46	0xbd93b0ea	-0.07211478
47	0x3e8f9f8c	0.28051412
48	0x3ea35388	0.31899667
49	0xbdb906ad	-0.090344764
50	0xbdbdc75e	-0.09266542
51	0x3f199f0e	0.60008323
52	0x3ee51c75	0.44748273
53	0xbe1fcf89	-0.15606512
54	0x3ef87d76	0.4853322
55	0xbe0e0f87	-0.1387311
56	0x3f16d51e	0.5891894
57	0xbe45a4da	-0.19301167
58	0xbe058d53	-0.13042192
59	0x3f0958b4	0.53650975
