DDPG/models/6500_actor.pt (torch, 2835 bytes, 3 tensors)

fa1.weight f4 [60, 3]
0.37236017 -0.54761624 -0.1267413 0.6600909 -1.0158695 -0.65152645 0.871638 -1.4171716
-0.2328433 0.5535269 1.0723624 -1.2028233 0.76225185 0.8986256 0.17908432 0.32777837
2.0489874 0.053975802 -0.092620604 -0.1603878 -0.005839608 0.7896575 0.93599206 0.1867711
-1.285769 -0.783583 -0.44919872 -0.2982516 0.23096846 -0.89857733 0.6370528 -0.69654274
-0.57528096 -0.19191772 -0.73278594 0.9284549 -0.03422885 0.16427618 -0.0151247 0.9850818
-1.4663043 -0.75703424 -0.39539003 -0.94364065 1.2082318 -0.19279826 0.45111737 -0.8282807
-1.4525855 0.1380846 -0.96884423 1.1095502 -0.8833795 -0.7030368 0.2749522 0.90910834
-0.11844795 -0.04955231 0.00852733 -0.053729255 -0.67814994 -0.9970706 0.8817435 0.33697325
-0.06336072 0.017216217 0.9632145 -0.7466692 -0.64369786 0.25385454 -0.06907501 -0.38321993
0.9355501 -0.42094854 0.749307 -0.588262 -0.96262556 0.7964663 0.041144624 -0.10252819
0.025459757 0.8325343 -1.0318674 -0.7105427 -0.12575409 -0.040590752 -0.75839484 -1.7931745
-1.2906685 -0.34085009 0.7516755 -1.2083758 -0.3982754 0.6908291 0.056881923 -0.7012368
0.10493629 0.6742507 0.65880847 0.9400332 -0.61576104 0.84791005 0.89839405 -1.4502717
-0.8017819 -1.261297 -0.11909118 -0.93505824 0.47767735 0.5081948 0.26926473 -0.17091645
0.33317423 -0.7888983 0.18139997 0.6559116 0.7987095 -0.46780658 0.9966625 -0.79301435
1.2644951 -0.19318366 1.0390747 -0.31144136 1.0133183 -0.8000547 0.50577825 0.6751165
0.17611395 1.3900981 -0.07611429 1.153723 -1.676478 -1.2860669 -0.33208415 0.70070565
0.8906794 0.17885627 -0.20420653 -0.83575845 0.85824424 0.88967603 -1.4142752 -0.79690945
0.682367 0.83367646 0.20189883 -2.0031383 1.487286 0.116846964 0.83030623 -1.4778818
-0.77635425 0.838211 -0.2825569 -0.7783512 -0.15225105 1.4023055 -0.3462165 -0.26417732
-1.0236058 1.0259254 0.9281396 0.04756068 0.6782249 -0.602321 -0.9812638 0.8186226
1.2536905 -0.28448728 0.9508758 0.45299226 0.75137687 0.18725552 1.018814 1.1358896
0.22016744 -0.61364317 -0.9096457 0.7965327
00000000: fea5 be3e 9430 0cbf 79c8 01be b8fb 283f
00000010: 0308 82bf 70ca 26bf ab23 5f3f e165 b5bf
00000020: 796e 6ebe f0b3 0d3f 2c43 893f 1df6 99bf
00000030: f022 433f 540c 663f e161 373e 91d2 a73e
00000040: 9c22 0340 bb15 5d3d dfaf bdbd b33c 24be
00000050: 2f5a bfbb fe26 4a3f 2d9d 6f3f ec40 3f3e
00000060: 1494 a4bf e598 48bf 60fd e5be 6fb4 98be
00000070: ff82 6c3e 2a09 66bf e415 233f a050 32bf
00000080: 9d45 13bf 1486 44be dc97 3bbf 38af 6d3f
00000090: 8d33 0cbd 0438 283e 97cd 77bc 522e 7c3f
000000a0: dcaf bbbf ffcc 41bf 9070 cabe 6f92 71bf
000000b0: 57a7 9a3f e86c 45be dbf8 e63e 340a 54bf
000000c0: 52ee b9bf 0d66 0d3e 2d06 78bf be05 8e3f
000000d0: 2925 62bf 38fa 33bf 89c6 8c3e 53bb 683f
000000e0: d794 f2bd 5df7 4abd 37b6 0b3c 3513 5cbd
000000f0: 3c9b 2dbf 0540 7fbf f1b9 613f c287 ac3e
00000100: 44c3 81bd 0609 8d3c 3a95 763f b625 3fbf
00000110: 62c9 24bf 39f9 813e 3377 8dbd 6735 c4be
00000120: 3680 6f3f 9186 d7be 95d2 3f3f 5798 16bf
00000130: a16e 76bf 37e5 4b3f 4487 283d 4dfa d1bd
00000140: fb90 d03c f820 553f 3b14 84bf 20e6 35bf
00000150: aec5 00be 7d42 26bd 2a26 42bf be86 e5bf
00000160: a034 a5bf e783 aebe ce6d 403f 0fac 9abf
00000170: c1ea cbbe 2dda 303f 05fd 683d 4184 33bf
00000180: d6e8 d63d b29b 2c3f aca7 283f 04a6 703f
00000190: 84a2 1dbf a210 593f 27fd 653f 81a2 b9bf
000001a0: 9441 4dbf 2e72 a1bf 14e6 f3bd fa5f 6fbf
000001b0: 2092 f43e 0e19 023f 11dd 893e b904 2fbe
000001c0: d095 aa3e 3df5 49bf eac0 393e d3e9 273f
000001d0: 3a78 4c3f 5884 efbe 4625 7f3f fd02 4bbf
000001e0: fada a13f f0d1 45be 6600 853f 3e75 9fbe
000001f0: 6ab4 813f 63d0 4cbf af7a 013f 6fd4 2c3f
00000200: 3757 343e bcee b13f cfe1 9bbd 32ad 933f
00000210: d596 d6bf d79d a4bf ef06 aabe 7261 333f
00000220: 9103 643f 1926 373e 841b 51be 44f4 55bf
00000230: e5b5 5b3f cfc1 633f f806 b5bf 4202 4cbf
00000240: 9baf 2e3f d26b 553f 91be 4e3e 6b33 00c0
00000250: 635f be3f 764d ef3d f38e 543f 3b2b bdbf
00000260: 27bf 46bf ff94 563f 4cab 90be 0642 47bf
00000270: b3e7 1bbe bf7e b33f 4a43 b1be 4042 87be
00000280: 8405 83bf 8651 833f 8f9a 6d3f fdce 423d
00000290: 26a0 2d3f b631 1abf 1b34 7bbf 4091 513f
000002a0: ee78 a03f 51a8 91be 996c 733f 9aee e73e
000002b0: 3c5a 403f e9bf 3f3e 7f68 823f d564 913f
000002c0: 9373 613e b817 1dbf 8ade 68bf 91e9 4b3f

fa1.bias f4 [60]
0.8165095 0.35301703 0.65292245 -1.4021367 0.14806995 -0.7782212 -0.295763 0.1539858
-0.43410113 0.58152455 0.32801822 0.82032746 -0.28385732 0.14941649 0.87199086 0.45973033
0.09620722 -0.01935797 0.33097544 -0.55098695 1.0481085 0.6490694 -0.21071844 0.49886048
-0.5212837 0.96713006 -0.31140813 0.20149004 0.67870635 -0.58177936 0.5190816 -0.36527535
-0.7379243 -1.0975399 0.052710276 0.103779845 0.09741755 0.49254265 -0.63949424 0.3028853
-0.0034293092 0.4301416 0.3198531 -0.044633128 -0.55780786 0.1516807 0.83195126 0.059392944
0.36936632 -0.73622 -0.0005399563 -0.53772604 0.43799752 0.93818927 -0.49626884 0.9793761
-0.039113604 0.20205016 0.17970182 0.9933679
00000000: c406 513f a6be b43e ed25 273f 3779 b3bf
00000010: a69f 173e 8139 47bf 3f6e 97be 74ae 1d3e
00000020: 8142 debe cbde 143f 01f2 a73e fb00 523f
00000030: bf55 91be a300 193e cb3a 5f3f c661 eb3e
00000040: 4a08 c53d 9b94 9ebc 9d75 a93e 7b0d 0dbf
00000050: 6b28 863f 6a29 263f 93c6 57be a46a ff3e
00000060: d972 05bf d695 773f e370 9fbe 6853 4e3e
00000070: b3bf 2d3f 7eef 14bf 88e2 043f 5f05 bbbe
00000080: 9be8 3cbf 307c 8cbf bbe6 573d 878a d43d
00000090: da82 c73d 8d2e fc3e e5b5 23bf c813 9b3e
000000a0: 43be 60bb 853b dc3e c9c3 a33e 3ad1 36bd
000000b0: 7fcc 0ebf 2f52 1b3e c2fa 543f 0446 733d
000000c0: 951d bd3e ea78 3cbf db8b 0dba 6aa8 09bf
000000d0: 3641 e03e 2c2d 703f f316 febe 64b8 7a3f
000000e0: 9635 20bd 3de6 4e3e c103 383e 5c4d 7e3f

fa2.weight f4 [1, 60]
0.4172448 0.7031771 0.51939845 1.7523217 -0.9921673 -2.8922687 -0.0684354 -1.04619
-1.886092 -0.416936 0.60153204 0.4133845 -0.16032678 1.4380797 1.2997313 -0.57417023
-1.4458183 0.8393085 -0.4248878 0.11315759 0.9278454 0.20257644 0.9806702 0.3073044
-1.4024415 1.0206606 0.07130343 0.61174744 -0.5384412 -1.8237722 0.6910686 1.2097197
-1.2397017 -1.2036366 1.2914585 -1.2310165 -0.5891531 -0.48818916 -1.6618749 -0.8685601
-1.6629096 -1.062005 -0.12917487 -1.5393412 -1.7022744 -0.7624297 0.6997921 1.2651632
-0.22996217 0.88355005 1.284227 1.047277 -0.9056756 1.0926275 -1.2145287 0.9521594
-1.6157488 -0.28979287 -1.465419 0.7956762
00000000: 1ca1 d53e 6a03 343f 4cf7 043f 144c e03f
00000010: adfe 7dbf ee1a 39c0 dc27 8cbd 8ee9 85bf
00000020: 766b f1bf a378 d5be 01fe 193f 22a7 d33e
00000030: b42c 24be ff12 b83f 985d a63f d2fc 12bf
00000040: 9310 b9bf ecdc 563f e58a d9be 2bbf e73d
00000050: 4787 6d3f 3370 4f3e 340d 7b3f 0157 9d3e
00000060: 3483 b3bf 02a5 823f 8807 923d 7b9b 1c3f
00000070: 48d7 09bf 5e71 e9bf dfe9 303f 18d8 9a3f
00000080: 8cae 9ebf c410 9abf 834e a53f f391 9dbf
00000090: bdd2 16bf eef3 f9be 51b8 d4bf f459 5ebf
000000a0: 39da d4bf c8ef 87bf 6b46 04be 2209 c5bf
000000b0: 21e4 d9bf 982e 43bf 9325 333f def0 a13f
000000c0: 347b 6bbe 5630 623f 8d61 a43f 2c0d 863f
000000d0: 5bda 67bf 38db 8b3f ad75 9bbf b8c0 733f
000000e0: dbd0 cebf bb5f 94be da92 bbbf 6fb1 4b3f
