DDPG/models/6700_critic.pt (torch, 18423 bytes, 7 tensors)

fc1.weight f4 [30, 3]
000000 47 e8 b9 be 15 94 2e bf b8 d8 a9 bd c9 22 00 bf
       -0.36310026 -0.68194705 -0.08293289 -0.5005308
000010 00 a8 84 be bc 3f 04 be 7d f0 0d 3f c0 8e fb 3e
       -0.25909424 -0.12914938 0.5544508 0.49132347
000020 57 fd 3e 3e 33 2a d7 be d9 0d 4a bf 19 a8 fd bd
       0.18651329 -0.42024383 -0.7892738 -0.12385578
000030 7d 65 66 bf ad 38 d2 be 6e 43 7d bd 12 a2 5f 3c
       -0.8999861 -0.41058865 -0.061831884 0.01364948
000040 27 2c a1 be 9d 99 25 bc b8 64 e4 3d 88 45 b0 bf
       -0.31478998 -0.010107425 0.11152023 -1.3771219
000050 16 4c 95 be 9d b8 4f be 99 fa b9 3f c5 e7 96 3e
       -0.2915961 -0.20285268 1.4529601 0.294737
000060 73 88 e2 be 92 e4 29 3f f7 f1 71 3d 30 5c 10 3d
       -0.44244727 0.66364396 0.059068646 0.035244167
000070 d0 1e cb 3d f0 f3 7a bc a2 80 69 3d 52 a2 00 3e
       0.099179864 -0.015316948 0.05700744 0.1256192
000080 12 1c 75 bc d3 12 46 bf 79 b2 c0 3e c4 26 8b 3e
       -0.014960306 -0.77372473 0.37636164 0.27178013
000090 fa b3 13 3f 9f a7 db be 5c 10 27 be 98 18 ee be
       0.576965 -0.42901322 -0.16314834 -0.4650314
0000a0 d0 3e 8b be 03 d4 d5 ba d8 cc 32 3f 98 d6 00 3f
       -0.2719636 -0.0016313795 0.69843817 0.50327444
0000b0 35 79 4a 3e 8e 62 90 be d1 25 d6 bd 83 75 d7 3d
       0.197728 -0.2820019 -0.10456432 0.105204605
0000c0 3e d2 bd 3e ef 47 23 bf 3f 7c ff bd 96 6e d9 be
       0.37074465 -0.63781637 -0.1247487 -0.42467183
0000d0 f2 b5 e0 be be 91 1f be e1 0c 12 3d 32 b1 42 3f
       -0.43888813 -0.1558294 0.035656814 0.7605163
0000e0 bb f9 29 3e 27 28 6b 3e 45 a5 3f 3f e0 3b 39 3e
       0.16599171 0.22964536 0.74861556 0.18089247
0000f0 15 74 b1 3d e9 70 99 be 34 89 c9 3d 2a 95 48 bc
       0.08664719 -0.29968956 0.098406225 -0.012242595
000100 97 df d8 bd 71 a1 3d 3a d8 fa 14 be dd f5 11 3f
       -0.105895214 0.00072338345 -0.14548814 0.5701578
000110 cd fe d4 3c 03 67 d1 be c7 f1 83 3f 24 3f 2b 3e
       0.026000405 -0.40898904 1.030816 0.16723305
000120 e3 6a 6b bf 7f ed ec 3e 72 b4 ad 3e 9b 57 3b bf
       -0.9195997 0.46274945 0.3392673 -0.7318055
000130 c1 3e cd be 5f 4f 86 bd 87 d1 0f bf a3 14 84 3c
       -0.4008694 -0.065581076 -0.5617909 0.016123122
000140 18 1b b9 3d ed 99 48 bf a0 33 32 3e ac 1a 16 3e
       0.09038371 -0.7835987 0.17402506 0.14658612
000150 37 f3 d1 be a1 9b 0c 3f fb 49 3a 3e 3d 15 f4 bd
       -0.4100587 0.5492497 0.18192284 -0.119181134
000160 bf 97 a8 be 29 68 a3 be
       -0.32928273 -0.31915405

fc1.bias f4 [30]
000000 98 94 81 3d f8 8e b9 3e 5c ea 89 be da 2d 34 be
       0.0632717 0.3624189 -0.26936615 -0.17595616
000010 e0 a4 87 be 51 1a ca be c0 c8 03 bf 20 8b c1 be
       -0.26492977 -0.39473203 -0.51478195 -0.37801456
000020 36 10 c6 be 40 41 b0 be b0 2e b7 be bc cf 0a bf
       -0.38684243 -0.34424782 -0.35777807 -0.5422323
000030 72 01 75 be 50 b4 d5 3e 13 ab ae be b2 c8 86 3e
       -0.23926333 0.4173913 -0.34114894 0.26324993
000040 6f 10 e5 bd 8a 03 01 3f cd 21 ba 3d 05 cf d0 3e
       -0.11184775 0.50396025 0.09088478 0.40782943
000050 75 5c 01 3f 0c 93 b8 be 9f 5f d8 3e ba 69 9f be
       0.50531703 -0.36049688 0.42260453 -0.3113535
000060 9c 04 9d 3c 41 aa ca 3c 79 1c 23 3e 02 00 e4 3d
       0.019167237 0.024739387 0.1592883 0.11132814
000070 1e b4 17 3f 48 94 52 be
       0.5925921 -0.20564377

fa1.weight f4 [30, 1]
000000 3c 9d 98 3c b3 a7 6d bc 07 46 72 ba 19 f5 2a bd
       0.018629663 -0.014505315 -0.0009242002 -0.04173765
000010 c2 fe 65 3d e3 4b e9 3d b9 f9 c7 3d 7d 0c a4 3d
       0.05615116 0.11391427 0.09764428 0.080101945
000020 f9 65 32 be bb 09 46 be c6 5a 06 be 7f 30 0b 3d
       -0.17421712 -0.1933965 -0.13120565 0.033981796
000030 bd 4a bc 3d 47 a8 b1 3d 87 14 1f be 06 8b 88 bd
       0.09193943 0.086746745 -0.15535174 -0.066671416
000040 f0 f7 ed 3d c0 2b a7 3c d6 c9 18 3e a7 ef 88 bd
       0.11619556 0.020406604 0.14920744 -0.06686335
000050 82 6c 1a be 7f c9 f2 bd 9f c3 82 bd 37 e1 7f 3d
       -0.15080455 -0.118548386 -0.06384968 0.06247064
000060 9b a5 40 bd 63 7c 77 bd e6 ed b3 bd d5 5d 4c 3e
       -0.047032934 -0.06042136 -0.0878561 0.19957669
000070 40 55 22 3a 8c 1b 64 bd
       0.0006192513 -0.055690333

fa1.bias f4 [30]
000000 08 75 38 3f f3 3f 04 bd a0 02 6e bd 44 a3 43 bf
       0.72053576 -0.03228755 -0.058107972 -0.76421
000010 68 c8 4e bf ea f3 53 bf 9b bd 47 3e 58 08 11 bf
       -0.80774546 -0.8279406 0.19505922 -0.56653357
000020 42 79 b3 be a6 12 6a bf f5 b3 f9 3d c1 52 8c bd
       -0.3505345 -0.91434705 0.12192527 -0.068517216
000030 e3 67 e6 3b 14 33 5e bf 93 f6 3e 3e 6f 8b 3f 3e
       0.007031427 -0.8679669 0.18648748 0.18705533
000040 94 0f c0 3d b4 fb 3e 3f f0 36 03 bf f0 19 6b be
       0.09377971 0.7460282 -0.512557 -0.22959113
000050 60 39 3c be 5d f2 17 3e 42 be 19 bf ce 22 11 3f
       -0.18381262 0.14838548 -0.60055935 0.5669373
000060 31 e3 54 3f ef c9 ca 3d 2a d0 48 bf b3 a2 ff 3b
       0.83159167 0.09901797 -0.78442633 0.0078013777
000070 c4 f2 ad be 8b 74 81 3e
       -0.33974278 0.25284228

fca1.weight f4 [60, 60]
000000 3a 78 bd 3d 09 d2 a4 3e 6f 5c bd bd 46 6f 85 bd
       0.09251447 0.32191494 -0.09246146 -0.06515364
000010 2e 69 b9 3d f9 29 f2 3d 23 bc 33 3e 84 ae 21 be
       0.090532646 0.11824412 0.17552237 -0.15789229
000020 11 2b e4 bf fc 21 cb bd 38 d1 53 bd 79 34 8a be
       -1.7825643 -0.099185914 -0.0517132 -0.26993158
000030 31 b7 3f be 86 88 b2 3d 57 69 0a 3e 00 9d 1f 3e
       -0.18722226 0.08717446 0.13516746 0.15587234
000040 85 a8 d7 3e 5b 3e ac 3e 2f e2 e6 3c b4 81 84 be
       0.42120758 0.33641323 0.028184025 -0.25880206
000050 73 55 4c be ed 32 49 bc 5c 72 ad 3e 96 7d 9b 3c
       -0.19954471 -0.012280208 0.33876312 0.018980782
000060 ea 75 c2 be 81 d4 ac 3c cd 2f d2 3d 5f 16 ae 3e
       -0.37980586 0.021097424 0.102630235 0.34001443
000070 77 80 ec 3d 97 d8 1f bf ed 58 3f bd 7d a8 12 bd
       0.1154794 -0.62439865 -0.046715666 -0.035805214
000080 6a f7 30 3e 4e bc b0 bb e5 95 19 3d a7 0f 32 be
       0.17281881 -0.0053935414 0.037496466 -0.17388783
000090 77 b5 5e bd f0 01 5d bd 6a 20 f0 3d e3 47 fd bd
       -0.054372277 -0.053956926 0.117249325 -0.12367227
0000a0 12 fe a9 be e7 e4 db bd f3 61 bd bd 00 05 e2 3d
       -0.33201653 -0.10737019 -0.09247198 0.1103611
0000b0 e3 3a f4 bd e5 78 2e bd 40 ef 9f 3d d8 83 94 bd
       -0.11925294 -0.042595763 0.07809305 -0.0725171
0000c0 fc cb 0a bd ce ac 8c 3d 19 71 bd 3d 68 68 d2 bb
       -0.03388594 0.068688974 0.09250087 -0.0064211376
0000d0 bc 68 90 bd 3c 2d 1a be 58 67 85 be 68 0b 8a be
       -0.070512265 -0.15056318 -0.26055408 -0.26961827
0000e0 ba b9 88 3d 01 99 45 3d 97 26 92 bd fe ae 04 be
       0.066760495 0.04824162 -0.07136267 -0.12957379
0000f0 e0 66 84 3e 0e 2b c6 3d 17 d5 0d c0 94 40 3c 3e
       0.25859737 0.09676181 -2.216131 0.1838401
000100 06 a8 8f 3e 3f f8 b0 bd 50 da 8a 3e a8 df c9 3e
       0.2805788 -0.08641099 0.27119684 0.3942845
000110 46 64 e3 3c c4 c5 0f be b2 7c 1e 3d 03 6d 7c 3f
       0.027757775 -0.14040285 0.038693137 0.9860384
000120 78 b8 8c 3e f7 14 bd bd df 52 f6 bf fb c2 66 bd
       0.27484488 -0.09232514 -1.924404 -0.05633829
000130 31 2d 4e 3e 99 37 11 3d 87 9f c7 bf 59 bd b7 bf
       0.20134427 0.035453413 -1.5595559 -1.4354659
000140 56 74 68 3e 95 56 5a be b9 a0 c0 3c 94 a8 58 3f
       0.22700629 -0.21322091 0.023514139 0.8463223
000150 12 20 53 3e 8e 9f 42 3e e6 05 2b be 9e 5c 87 be
       0.20617703 0.19006178 -0.16701469 -0.2643785
000160 95 45 a6 3e d6 ef 23 be 7b 04 6d be 83 a4 66 be
       0.32474962 -0.16009459 -0.2314624 -0.22523694
000170 af 13 10 3d ff 83 0c 3d 88 79 92 3d e5 56 61 bd
       0.03517502 0.03430557 0.071520865 -0.05501451
000180 f7 1c 09 bd 17 1f 6c 3c 2e a8 16 bb db e4 ab bd
       -0.03347489 0.014411709 -0.0022988426 -0.0839326
000190 d8 d6 c2 bd 56 8f 31 3e b1 77 00 bd 53 ae a5 3b
       -0.095136344 0.17339835 -0.031364147 0.0050561815
0001a0 a9 5b 29 be 63 91 92 be 01 47 5e bc a0 52 38 be
       -0.16538872 -0.28626546 -0.013566733 -0.18000269
0001b0 ea 7f f4 bc 47 e2 13 3d 2a bb 87 3e 8b b1 23 be
       -0.02984615 0.036104467 0.26509982 -0.15985696
0001c0 4b 49 18 bd b3 2e fc bd ae 98 f7 bb 64 20 15 3d
       -0.037179273 -0.12313595 -0.0075560426 0.036407843
0001d0 36 45 cc bc 7c 96 fc 3b 0d d2 f0 3c 73 22 94 be
       -0.024935346 0.007708369 0.029397035 -0.28932533
0001e0 ec 5b cc 3b 44 0d a4 3e c2 35 8a 3d fe 08 22 3e
       0.006236544 0.3204137 0.06748535 0.15823743
0001f0 cf c6 d7 3c 55 e3 2b 3e e3 03 e5 3e a8 cf 87 3e
       0.026339917 0.16785939 0.44729528 0.26525617
000200 ab 23 11 3c 55 ca 7f bc 77 6d 09 3e c5 ec 85 3e
       0.008858602 -0.015612205 0.13420664 0.26157203
000210 e2 10 00 3e 9d 98 57 3e 99 7f 2f be 9b af 54 3e
       0.1250644 0.21054311 -0.17138518 0.20770113
000220 74 a6 96 3d c5 66 b6 3d 87 13 a2 3d d7 3f bc bc
       0.07355967 0.089063205 0.07913881 -0.02297966
000230 05 27 77 3d 66 27 a5 bc 3d f5 90 3e f2 11 21 3e
       0.060339946 -0.020160388 0.28312102 0.15729502
000240 59 6c e5 3d b0 78 83 3e be ab c9 3d 9d d9 85 3e
       0.11202306 0.25678015 0.0984721 0.26142588
000250 8c 67 6e 3e b9 be 05 3e 96 c5 8f 3d d6 dd 66 3d
       0.23281687 0.13061036 0.070201084 0.056363903
000260 15 4a 70 3d 2b fc 99 bd a5 60 28 3e bf 68 e9 3c
       0.0586644 -0.075188 0.16443117 0.02849233
000270 9e 73 78 bd 6d 9e fd bd f4 ed 38 3c 69 0c 8d 3d
       -0.060657136 -0.12383733 0.011287201 0.06887133
000280 ee 04 80 bd 8d f4 8e bd 2f 71 d0 3d 0b c1 b8 bd
       -0.0625094 -0.06980238 0.10177838 -0.09021195
000290 61 49 1d 3d 31 ee 06 3e 03 b7 4a 3e 6f bc 68 3e
       0.038400058 0.131768 0.19796376 0.22728132
0002a0 1d f8 d9 3d 88 c0 2f be f8 86 d3 bd 3a 15 50 3e
       0.10643027 -0.17163289 -0.103284776 0.20320597
0002b0 85 a4 81 bd 57 90 5a be 64 b6 cd 3d ef 67 16 3e
       -0.06330208 -0.21344124 0.10044554 0.14688085
0002c0 0b 96 4b 3d 67 42 2e bd d4 bc 0c 3d e6 f8 5e bd
       0.04970364 -0.042543795 0.034359768 -0.054436587
0002d0 cb f9 d8 3d 6b 19 7c bc fd 53 2f be 50 09 8b bd
       0.10594519 -0.0153869195 -0.17121883 -0.067888856
0002e0 f3 b9 30 bd a4 5c b4 3c aa c7 1b bd 60 c4 5e bd
       -0.043146085 0.02201683 -0.03803221 -0.054386497
0002f0 32 c3 5a be cc 71 1f 3d 8c ed 23 bb 90 67 f1 3c
       -0.21363524 0.038926885 -0.0025013415 0.029468328
000300 0e e4 83 3d c3 e6 a3 bd 57 e3 c2 3d 0e 27 93 bd
       0.06439982 -0.08002999 0.09516018 -0.071851835
000310 0b 73 72 bd 64 de 04 3e 42 cb 75 bd ed 6b 23 be
       -0.059191745 0.1297546 -0.060008295 -0.15959139
000320 de 1e 00 be 40 ee 75 bd 55 76 b6 bd b0 1b f8 bd
       -0.12511775 -0.060041666 -0.08909289 -0.12114656
000330 67 d0 54 bc 70 d8 71 bd f3 40 25 bc 6e df 88 bd
       -0.01298914 -0.0590443 -0.010086286 -0.06683241
000340 a0 85 1c 3c 17 ce ca bd e8 45 05 be 4b 7d 21 be
       0.009553343 -0.0990259 -0.13014948 -0.15770452
000350 f2 47 60 be cc 06 18 be ff f9 ba bc 13 bc 6b bc
       -0.21902445 -0.14846343 -0.022824286 -0.014388102
000360 d9 09 14 be 6a cd 69 3c 01 a0 8a 3d c8 cc 5f be
       -0.14456882 0.014270166 0.067687996 -0.21855462
000370 dc 6b 80 3d a1 0a 81 ba 1a ab 4e 3d 96 64 9a bd
       0.062705725 -0.0009845087 0.050456144 -0.075387165
000380 75 49 a3 3d d0 a3 ee 3d 8a d5 94 bd bd ff e6 bb
       0.07972995 0.116523385 -0.07267292 -0.0070495293
000390 53 35 3e be 5b 4c 43 bc 53 a2 63 bb fd f5 28 bd
       -0.18575029 -0.01192006 -0.0034734204 -0.041250218
0003a0 d7 7f b2 3a 7c b3 48 3c df 70 2e bd 7c 5f 9e bc
       0.0013618422 0.012249824 -0.04258811 -0.01933264
0003b0 2a c4 66 be 33 6b aa 3d a4 97 21 3e ae 9d 46 3e
       -0.22535768 0.08321228 0.15780503 0.19396088
0003c0 db 9f 56 bf 41 f4 cf 3e 54 79 2f be bb 89 04 be
       -0.8383767 0.40616038 -0.17136127 -0.12943165
0003d0 74 83 3b bf 2d c2 51 be 3f 5e 83 3d 7b bd 72 3e
       -0.73247457 -0.20484228 0.064144604 0.23705094
0003e0 03 ad d6 3e 38 e9 1c bd 17 72 40 be 11 02 18 be
       0.41928872 -0.038308352 -0.18793522 -0.14844538
0003f0 87 50 fd be 23 5d bc bd af 60 f5 3d ae 85 9f be
       -0.494755 -0.09197452 0.119813316 -0.31156677

fca1.bias f4 [60]
000000 94 33 d5 b9 7e 96 ab bd c3 bc be 3d 14 f6 39 3a
       -0.00040664955 -0.083783135 0.09313347 0.00070938584
000010 c6 d5 46 be b4 73 d4 3d e6 39 58 3c 63 64 1b 3e
       -0.19417486 0.10373631 0.013197398 0.15175013
000020 e8 7d b5 bd cb 9d 65 3d bb 3a 66 bd e5 09 a6 bc
       -0.08861905 0.056058686 -0.056208353 -0.02026839
000030 f7 c4 de 39 22 85 e8 39 3f 47 c7 bc 3d 73 ce 3d
       0.0004248989 0.0004434968 -0.024325965 0.10080574
000040 d6 1a 54 bc 32 1e 02 3e c1 0d 31 bd 50 33 8a 3d
       -0.012945851 0.12706831 -0.043226007 0.06748068
000050 f1 10 c1 3d f3 df 0f 3e 83 03 a5 3c 33 67 b9 3a
       0.094270594 0.14050274 0.020143276 0.0014145136
000060 c3 ea 5d bd 7e ef 3d 3d 48 e8 ba bd 3e f5 7f bc
       -0.054178964 0.046370976 -0.091263354 -0.015622435
000070 a2 0a 44 bc 80 12 1a 3e c9 c1 f7 3d 90 f1 35 be
       -0.011965426 0.1504612 0.120975085 -0.1776793
000080 b0 98 11 3e d5 64 ea bd 98 39 3b 3e d5 8f a4 bd
       0.14218402 -0.114450134 0.18283689 -0.08035246
000090 c8 d3 be 3c f7 fa aa 3b cc 97 60 3e e7 e7 ee bb
       0.023294345 0.0052179056 0.21932906 -0.0072908285
0000a0 f0 06 4d 3e c5 6f a0 3d f6 7a 84 3c 12 06 08 3e
       0.20022178 0.07833818 0.016171914 0.13283566
0000b0 5e dd 00 be 78 3a df 3d 68 c4 60 bd f3 44 3e 3e
       -0.12584445 0.10899824 -0.054874808 0.1858099
0000c0 ed c4 26 be 79 1c 90 3d fd 8a 7a 3d 5e bf 26 3e
       -0.16286059 0.07036681 0.061167706 0.16283938
0000d0 2e bc ae 3d 52 90 b5 bd 1f 0e ff bd 7c 12 14 3d
       0.08531986 -0.088654175 -0.12453865 0.03615044
0000e0 47 40 24 bc 27 6c 53 bd 82 fa 0d 3a 74 83 2e 3e
       -0.010025091 -0.051616814 0.0005416052 0.17042333

fca2.weight f4 [1, 60]
000000 6c 40 86 bf 6c c2 bc 3e 9a d2 fc bd 80 9d 24 3d
       -1.048841 0.36867082 -0.123448566 0.040189266
000010 cd 44 26 3f dd c7 55 bf 3c d2 17 be 68 10 f8 3e
       0.6494873 -0.8350809 -0.14826292 0.48450017
000020 5b 1b da 3d 48 e1 80 3e 5c 11 80 3f 3e 57 d0 3e
       0.10649749 0.25171876 1.0005298 0.4069156
000030 2b 12 7e be 60 09 05 3f 9d 53 92 3e 50 ac 43 be
       -0.24811618 0.5196743 0.28579417 -0.19108701
000040 77 63 06 be 4a e2 11 3f 9b 19 a5 be 8a c8 cd 3e
       -0.1312388 0.56985915 -0.32246098 0.40192062
000050 8e ff 27 be e6 81 c2 3e ff 8b 8e be 2e 31 43 be
       -0.1640608 0.3798973 -0.27841184 -0.1906173
000060 2b b5 01 be 37 23 5f bd 7b 92 a0 bd 08 49 97 3e
       -0.12666766 -0.054476943 -0.07840439 0.29547906
000070 85 7c 19 3f ba f1 4e 3f 9c 97 65 bf 68 bb e0 3e
       0.59955627 0.80837595 -0.8968446 0.4389298
000080 55 54 13 3f eb a4 07 3d 62 7f ec 3e e7 9e 86 3c
       0.57550555 0.033116262 0.46190935 0.016433192
000090 65 a1 b2 bd 60 8f 8c bd da cc 42 be 7e 87 1d be
       -0.0872219 -0.06863284 -0.19023457 -0.15383717
0000a0 83 a0 0e 3f 14 f3 b0 bd 3c ce f0 3e 73 9b e7 3e
       0.5571367 -0.086401135 0.47032344 0.45235786
0000b0 c1 a4 60 3c 3b eb 94 be ea b0 93 bd 18 e8 26 3f
       0.013711155 -0.29085717 -0.07211478 0.65197897
0000c0 02 11 81 3e 05 88 b1 bd 54 4a a6 bd 28 70 18 3f
       0.25208288 -0.08668522 -0.08119646 0.59546137
0000d0 ed 01 09 3f a8 9d 23 be ad 7e bb 3e bc 8a 12 be
       0.53518564 -0.1597811 0.36620083 -0.14310735
0000e0 46 3f f6 3e 40 1e 4d be ad 70 f6 bd 78 22 eb 3e
       0.4809515 -0.2003107 -0.1203321 0.45924735
