DDPG/models/7000_actor.pt (torch, 2835 bytes, 3 tensors)

fa1.weight f4 [60, 3]
00000000: ba72 013f a79e 53bf bc7d 76be 84b6 313f
00000010: 0a2e adbf b51e 2abf c87c 793f fa85 d8bf
00000020: 5426 a7be 6748 503f dd1d 983f 0649 a3bf
00000030: 76c4 583f 4898 b23f 5c03 94bc d92f b13e
00000040: a467 fb3f 97e8 11bd dfaf bdbd b33c 24be
00000050: 2f5a bfbb 4528 603f 17d9 b63f 9514 82bc
00000060: 920f d3bf 0ee7 8ebf 9bc1 d7be 0015 82be
00000070: 1516 d63e a93e 55bf 2e8e 383f f678 7abf
00000080: 4f4a 14bf 1971 98be bf26 7abf 1f0b 593f
00000090: 8d33 0cbd 0438 283e 97cd 77bc 8112 853f
000000a0: e4f7 e6bf 8b25 44bf d802 0ebf 6ade 94bf
000000b0: 3f97 923f 686f 18be d3d5 223f b52d 43bf
000000c0: 2947 cfbf e5e8 58bd 2e35 75bf b5a0 823f
000000d0: 9c10 90bf 6879 49bf d561 ec3e e3fd 9b3f
000000e0: 00d5 07be 5df7 4abd 37b6 0b3c 3513 5cbd
000000f0: 7fcd 50bf 1b6d 9abf a4a1 533f 0beb d33e
00000100: 558e 81bd f5a7 0c3d a9da 583f 37bf 78bf
00000110: f569 3fbf c7fa 403e a6a8 80be 8f31 f2be
00000120: 5d62 8b3f bb9b 3ebe ed6d 5e3f ab20 3abf
00000130: d0b1 95bf 731e 3f3f 4487 283d 4dfa d1bd
00000140: fb90 d03c b79f 583f 4924 acbf 47a4 3abf
00000150: cabb 57bd 2bfd 113e 4e1c 30bf dcd1 05c0
00000160: ec6e b8bf eb5c e8be 777d 513f c26c cebf
00000170: bb57 acbe 6ef4 1a3f 704c 17bd 8011 4cbf
00000180: 658e f33d ee83 3f3e 81d8 453f 9b88 723f
00000190: ecb8 6cbf 3444 643f 4764 653f a43a dfbf
000001a0: aa06 54bf 4b7f b6bf 52d6 9fbe e6ad 6cbf
000001b0: 4735 1d3f 12c3 383f 635b ab3e 6396 f8bd
000001c0: 5ad4 043f 27f2 38bf f9a2 b43d 6d54 8b3e
000001d0: 2207 5a3f dfea 42bf 80b0 4d3f e8cb 43bf
000001e0: 414f ad3f 2c35 5a3d e350 933f 4e33 8cbe
000001f0: 6d17 983f 30e1 3cbf 121c 2a3f aceb 3f3f
00000200: 3990 a43e 0a47 bd3f cd07 2e3e 763f a23f
00000210: 7c33 fcbf e3ab b7bf 2e91 e2be f780 4b3f
00000220: 11bc b03f 4a6c ddbc 8d08 9bbe 5aa7 89bf
00000230: 6f49 433f fac3 5f3f d2e2 d7bf 8f8f 56bf
00000240: ebe0 533f fb8f 663f fd30 c03e edae 10c0
00000250: 3ddd f03f 6e7e 763e ff19 4b3f 646b dbbf
00000260: f709 56bf 4d47 483f 8440 0ebf 1ff5 5ebf
00000270: 4ec0 90bd e349 c73f f33b a3be a180 bfbe
00000280: e74a a1bf cc92 6f3f 75d1 863f ccd0 8f3e
00000290: 9efa 4e3f 2206 3ebf 3364 98bf d6ef 433f
000002a0: ba15 ac3f 3e8e 15bd 9672 873f 7bd8 163f
000002b0: baaa 553f 5843 b03e cc09 8d3f 17e3 d13f
000002c0: 51a2 2f3b 38d5 40bf 5119 8fbf 33a5 3f3f
0.50565684 -0.8266396 -0.24071401 0.6941912 -1.3529675 -0.66453105 0.97456026 -1.6915886
-0.3264643 0.8136048 1.1884114 -1.275666 0.84674776 1.3952723 -0.018068008 0.34606817
1.9641004 -0.035622206 -0.092620604 -0.1603878 -0.005839608 0.87561446 1.4285 -0.015878955
-1.6489127 -1.1164262 -0.42139897 -0.25406647 0.41813722 -0.83298737 0.7209195 -0.9784082
-0.57925886 -0.29773787 -0.9771537 0.84782594 -0.03422885 0.16427618 -0.0151247 1.0396272
-1.80444 -0.76619786 -0.5547309 -1.1630375 1.1452407 -0.14886248 0.6360752 -0.7624162
-1.6193591 -0.05295648 -0.9578427 1.0205294 -1.1255069 -0.78700876 0.4616839 1.2186855
-0.13264847 -0.04955231 0.00852733 -0.053729255 -0.8156356 -1.2064546 0.8266852 0.4139026
-0.06325976 0.034339864 0.8470865 -0.9716677 -0.7477105 0.18845664 -0.2512867 -0.47303435
1.0889393 -0.18614094 0.86886483 -0.727061 -1.1694889 0.74655837 0.041144624 -0.10252819
0.025459757 0.84618706 -1.3448573 -0.7290692 -0.052669324 0.14256732 -0.6879319 -2.0909338
-1.4408851 -0.4538339 0.8183207 -1.612694 -0.33660683 0.6052922 -0.03693813 -0.797142
0.11892394 0.18702671 0.77283484 0.94739693 -0.9246967 0.8916657 0.89606136 -1.7439771
-0.8282267 -1.4257597 -0.312182 -0.9245285 0.6140942 0.72172654 0.3346816 -0.12138059
0.5188652 -0.72244495 0.08820147 0.2721285 0.85167134 -0.76139635 0.8034744 -0.7648301
1.3539811 0.053273365 1.150906 -0.27382892 1.1882149 -0.7378111 0.6644908 0.7496898
0.32141283 1.4787304 0.16995163 1.2675617 -1.9703212 -1.4349331 -0.44251388 0.7949366
1.3807393 -0.027029175 -0.3027996 -1.0754197 0.76283926 0.8740841 -1.6866095 -0.83812803
0.8276507 0.90063447 0.37537375 -2.2606766 1.8817517 0.24071667 0.7933654 -1.7142148
-0.83608955 0.78233796 -0.55567193 -0.87092775 -0.07067929 1.5569423 -0.31881675 -0.37402824
-1.2600983 0.9358337 1.0532671 0.28088987 0.8085116 -0.7422811 -1.1905578 0.76537836
1.344413 -0.036512606 1.0581844 0.58924073 0.83463633 0.3442638 1.1018615 1.6397427
0.002679963 -0.75325346 -1.1179601 0.7486145

fa1.bias f4 [60]
00000000: d268 463f 748f 9b3e 8ef3 203f b916 a1bf
00000010: 96c5 2a3c bf49 56bf 3f6e 97be 8257 1a3c
00000020: 33e2 b2be cda9 383f 51af 4f3e 0ae8 493f
00000030: bf55 91be 5934 a53d 8fac 4a3f dcfd 183f
00000040: 22b9 433e 1fd7 18be b35d ac3e 7b0d 0dbf
00000050: 18c4 793f 9538 373f fc76 b2be 2645 a63e
00000060: ba7a 10bf 8a60 643f e370 9fbe cea2 ea3d
00000070: fb8d 573f e1ad a9be 064e 0e3f 0ce9 fabe
00000080: 347f 55bf 0efc a3bf 1b4c 5abd 0a55 4a3e
00000090: ab8f 843d 37c7 223f 9fdc 53bf ce1f 963e
000000a0: a672 bdbd d3fe 0e3f 2eff 913e e3c6 08be
000000b0: b573 9fbe 89c9 9b3c 7f55 4e3f b2e1 7cbd
000000c0: e9ba a03e f180 2dbf c7ab 15be ba10 18bf
000000d0: af92 0d3f aff6 663f efc1 0fbf 2b87 673f
000000e0: b205 02be 7834 0e3e b4e9 803c fbe8 6a3f
0.77503693 0.30382884 0.62871635 -1.258506 0.010423085 -0.8370628 -0.295763 0.009420278
-0.349382 0.72134095 0.20281722 0.7886969 -0.28385732 0.08066625 0.79169554 0.5976236
0.19113591 -0.14925812 0.33665237 -0.55098695 0.9756484 0.7157071 -0.34856403 0.3247463
-0.56437266 0.89209807 -0.31140813 0.11456834 0.8420102 -0.33140472 0.55587804 -0.49005926
-0.8339722 -1.2811296 -0.053295236 0.19759002 0.06472715 0.6358523 -0.82758516 0.2932114
-0.09250383 0.5585758 0.28515 -0.1335712 -0.31142965 0.019016998 0.80599207 -0.061738677
0.313926 -0.67774874 -0.14616309 -0.5940052 0.55301946 0.9022016 -0.56155294 0.90440625
-0.12697485 0.13887203 0.015736438 0.9176175

fa2.weight f4 [1, 60]
00000000: dc7b 033f 70df 4f3f 5b9c 2d3f 83e1 ea3f
00000010: 5adf 9abf 4874 32c0 dc27 8cbd 6757 a1bf
00000020: 9380 0ac0 356f ccbe edf1 313f 0b3c fa3e
00000030: b42c 24be b923 cc3f 8fe2 b13f 9d74 0fbf
00000040: 4f9a c0bf df5f 753f b6cd 12bf 2bbf e73d
00000050: 6991 893f baad 5c3e 5d55 923f 6d59 aa3e
00000060: 9883 c0bf 9cac 953f 8807 923d 3e7e 3b3f
00000070: 2664 07bf 25bf 07c0 37a4 573f 013b a73f
00000080: 85ff b1bf 3b74 b4bf 5516 ba3f 9845 a6bf
00000090: 2af9 3fbf 6fb8 f2be e8ba e2bf f193 5abf
000000a0: cba7 dbbf 23fa 88bf ad6d 61be aaea ccbf
000000b0: 19e8 ffbf d2ec 7cbf 2942 493f f745 b63f
000000c0: e3e0 a8be 5ef9 b83f c250 bb3f 3e36 9a3f
000000d0: edb5 78bf 07dc 963f 918e b0bf ffdb 8c3f
000000e0: 2d35 d5bf 22b5 e9be 14cd d5bf 3f43 713f
0.5136087 0.81200314 0.67816705 1.8350071 -1.2099411 -2.7883472 -0.0684354 -1.2604798
-2.1640975 -0.39928594 0.69509774 0.48873934 -0.16032678 1.5948402 1.3897265 -0.5603731
-1.5047091 0.9584941 -0.5734514 0.11315759 1.0747501 0.21550646 1.1432301 0.3327135
-1.5040159 1.1693301 0.07130343 0.73239505 -0.5288719 -2.1210415 0.84234947 1.3064882
-1.3906103 -1.4097971 1.4538065 -1.2989988 -0.7498957 -0.47406337 -1.7713289 -0.8538199
-1.7160581 -1.0701336 -0.22014494 -1.6009114 -1.9992706 -0.9879886 0.7861658 1.4240102
-0.32984075 1.4451101 1.463402 1.2047803 -0.97152597 1.1785897 -1.3793508 1.1004637
-1.6656853 -0.45646006 -1.670321 0.94243234
