DDPG/models/700_critic.pt (torch, 18423 bytes, 7 tensors)

fc1.weight f4 [30, 3]
0	0xbea133e9	-0.31484917
1	0xbeedace9	-0.46420982
2	0xbddd9aab	-0.10820516
3	0xbe3ce39a	-0.18446198
4	0xbd249c8e	-0.040188365
5	0xbdd5e862	-0.10444714
6	0x3ed4a7a6	0.41534156
7	0x3dd97f9b	0.10620042
8	0x3e84120e	0.25795025
9	0xbe2e31a2	-0.17011121
10	0xbf3e71cb	-0.74392384
11	0xbe0c3c17	-0.13694797
12	0xbf1ad607	-0.6048283
13	0xbf156e11	-0.58371073
14	0xbe23cf03	-0.15996937
15	0x3c5fa212	0.01364948
16	0xbea12c27	-0.31478998
17	0xbc25999d	-0.010107425
18	0xbe8c9d1b	-0.27463612
19	0xbf0dadba	-0.5534321
20	0xbe89831c	-0.2685784
21	0xbdc3f092	-0.095673695
22	0x3f54db6d	0.8314732
23	0x3e79a68b	0.24379937
24	0xbd63b175	-0.055589158
25	0x3f17a18e	0.5923089
26	0x3dc91342	0.09818126
27	0x3d105c30	0.035244167
28	0x3dcb1ed0	0.099179864
29	0xbc7af3f0	-0.015316948
30	0x3d6980a2	0.05700744
31	0x3e00a252	0.1256192
32	0xbc751c12	-0.014960306
33	0xbf05bf82	-0.5224534
34	0xbddc49ab	-0.107562385
35	0x3e212bc7	0.15739356
36	0x3ef62f69	0.48083046
37	0xbe81f1ec	-0.25379884
38	0xbe115917	-0.14194141
39	0xbe8449fc	-0.25837696
40	0xbd68275e	-0.05667817
41	0xbe074933	-0.13211517
42	0x3f1d7850	0.6151171
43	0x3ea861fe	0.32887262
44	0x3e4a07d0	0.19729543
45	0xba7e99b4	-0.00097122346
46	0xbecc845e	-0.39944738
47	0xbd150780	-0.036384106
48	0x3e9c57c5	0.30535713
49	0xbf2a7a7a	-0.66593134
50	0xbe06f2aa	-0.13178506
51	0xbebfb86e	-0.37445396
52	0x3ec338dc	0.38129318
53	0xbdcd7a6a	-0.10033114
54	0x3e491b57	0.19639336
55	0x3f52b9d8	0.82314825
56	0x3e1d0d7d	0.15337177
57	0x3e63744f	0.22212337
58	0x3f1f0e35	0.62131053
59	0x3d9fe401	0.0780716
60	0xbe82e5b5	-0.25565878
61	0xbefb37b8	-0.49065948
62	0x3ded98b8	0.116013944
63	0xbc48952a	-0.012242595
64	0xbdd8df97	-0.105895214
65	0x3a3da171	0.00072338345
66	0xbe34af0d	-0.17644902
67	0x3eefb224	0.46815598
68	0x3dd96507	0.106149726
69	0xbe5f3ac0	-0.21799755
70	0x3f4205a1	0.7578984
71	0x3e1f686e	0.1556718
72	0xbf2c1549	-0.6721998
73	0x3eac3e04	0.33641064
74	0x3ed01e04	0.406479
75	0xbebb995f	-0.3664045
76	0xbe93e38d	-0.28884545
77	0xbd88eca7	-0.06685763
78	0xbe326c67	-0.17424165
79	0xbcc24618	-0.023715064
80	0x3dcd4345	0.10022596
81	0xbf028972	-0.50990975
82	0x3f007f0a	0.50193846
83	0x3e11eab0	0.14249682
84	0xbf0fa42c	-0.5610988
85	0x3d25146e	0.040302686
86	0x3e08575b	0.13314573
87	0x3b4b7aba	0.0031048493
88	0x3efd8265	0.49513546
89	0xbe0bc6a5	-0.13649996

fc1.bias f4 [30]
0	0x3dbe52cc	0.09293136
1	0x3ec54e9b	0.38536534
2	0xbe323f97	-0.1740707
3	0x3de5861f	0.11207222
4	0x3e9bdd67	0.30442354
5	0xbeca1a51	-0.39473203
6	0xbe79cbdf	-0.24394177
7	0xbe0fca92	-0.14042118
8	0xbcc6deeb	-0.024276217
9	0xbeb04140	-0.34424782
10	0xbeb72eb0	-0.35777807
11	0xbe9ab6da	-0.3021763
12	0xbea6d4cd	-0.3258423
13	0x3ee59040	0.44836617
14	0xbeef1d04	-0.46701825
15	0x3f0efdb6	0.5585588
16	0xbda34d98	-0.07973784
17	0x3e46f154	0.19427997
18	0x3cb1b902	0.021694664
19	0x3f0dc877	0.5538401
20	0x3f1b0aa8	0.60563135
21	0xbeb8930c	-0.36049688
22	0x3e844ede	0.2584142
23	0xbe8a094f	-0.26960227
24	0x3dd7c524	0.105356485
25	0x3ef9f6f0	0.4882121
26	0x3eca5cf3	0.3952404
27	0x3e7e59c9	0.24838938
28	0x3f0f7581	0.5603867
29	0xbc913eee	-0.017730203

fa1.weight f4 [30, 1]
0	0x3e16e17e	0.14734456
1	0xbdaaba1d	-0.083362795
2	0xba724607	-0.0009242002
3	0xbd2af519	-0.04173765
4	0x3d65fec2	0.05615116
5	0x3de94be3	0.11391427
6	0x3d8c2454	0.068428665
7	0x3da40c7d	0.080101945
8	0xbeb16f6d	-0.34655324
9	0xbe4609bb	-0.1933965
10	0x3d83a215	0.06427399
11	0x3d4d24ce	0.050083928
12	0x3e8b31a2	0.27186304
13	0x3db1a847	0.086746745
14	0xbd9c413d	-0.07629631
15	0xbe39a558	-0.1812948
16	0xbdafb17b	-0.085787736
17	0x3d021f27	0.03176799
18	0x3e18c9d6	0.14920744
19	0xbd88efa7	-0.06686335
20	0x3dc1e904	0.09468272
21	0xbe2ca64a	-0.16860309
22	0xbd82c39f	-0.06384968
23	0x3dc88902	0.09791757
24	0x3b7c29d8	0.003847709
25	0x3d1e50e5	0.038651366
26	0xbdb3ede6	-0.0878561
27	0x3d9d1516	0.076700374
28	0x3a225540	0.0006192513
29	0xbc8a8845	-0.016910682

fa1.bias f4 [30]
0	0x3f7ac522	0.9795705
1	0x3ef5acac	0.479833
2	0xbd6e02a0	-0.058107972
3	0xbf43a344	-0.76421
4	0xbf4ec868	-0.80774546
5	0xbf53f3ea	-0.8279406
6	0x3f23f2f7	0.6404261
7	0xbf110858	-0.56653357
8	0x3dd3d19b	0.103427134
9	0xbf6a12a6	-0.91434705
10	0x3ef1ee6e	0.4725222
11	0x3dcec3e6	0.100959584
12	0x3eaaf1ba	0.33387548
13	0xbf5e3314	-0.8679669
14	0x3f496df7	0.7868342
15	0x3f3e43ee	0.743224
16	0x3f16d635	0.58920604
17	0x3f7263ad	0.94683343
18	0xbf0336f0	-0.512557
19	0xbe6b19f0	-0.22959113
20	0x3e86e55a	0.26346856
21	0x3eb85e4e	0.3600945
22	0xbf19be42	-0.60055935
23	0x3f733ff7	0.9501948
24	0x3f852872	1.0402968
25	0x3ebd716b	0.37000594
26	0xbf48d02a	-0.78442633
27	0x3eb92d30	0.36167288
28	0xbeadf2c4	-0.33974278
29	0x3f3edb94	0.745538

fca1.weight f4 [60, 60]
0	0x3e916989	0.2840083
1	0x3e16b745	0.1471835
2	0xbe109a41	-0.14121343
3	0x3dc034e0	0.09385085
4	0x3b822eef	0.00397288
5	0x3df229f9	0.11824412
6	0x3ce5a43c	0.028032415
7	0xbe4ec3f5	-0.20191939
8	0x3e13588e	0.1438925
9	0xbdcb21fc	-0.099185914
10	0xbd53d138	-0.0517132
11	0xbe19a3ae	-0.15003845
12	0x3ef00137	0.46875927
13	0x3db03546	0.08603911
14	0x3e6692b2	0.22516897
15	0x3da7b385	0.081885375
16	0x3e970b38	0.29500747
17	0x3e024a6e	0.12723705
18	0x3d79ab00	0.060954094
19	0x38c3cc88	9.3364215e-05
20	0x3e10ce60	0.14141226
21	0xbc4932ed	-0.012280208
22	0x3daaa57b	0.08332344
23	0xbefdd532	-0.49576718
24	0xbddfa017	-0.109192066
25	0xbccf4579	-0.025301682
26	0x3e4adc96	0.1981071
27	0x3e97037e	0.29494852
28	0x3eb85f14	0.3601004
29	0xbe147e15	-0.14501221
30	0x3dae386a	0.08506854
31	0x3c48697a	0.012232179
32	0x3e30f76a	0.17281881
33	0xbbb0bc4e	-0.0053935414
34	0x3d1995e5	0.037496466
35	0xbe320fa7	-0.17388783
36	0x3da9bc49	0.08287866
37	0xbd5d01f0	-0.053956926
38	0x3dea7580	0.114481926
39	0xbdfd47e3	-0.12367227
40	0xbe6521bc	-0.2237615
41	0xbda20a8f	-0.0791217
42	0x3c71b876	0.014753452
43	0x3de20500	0.1103611
44	0x3c0a9d29	0.008460321
45	0x3d9da8b7	0.076981954
46	0x3e48cee6	0.19610175
47	0x3d8c3c75	0.06847469
48	0xbd0acbfc	-0.03388594
49	0x3d8cacce	0.068688974
50	0x3df19c93	0.11797442
51	0x3d9986e5	0.07496432
52	0xbd9068bc	-0.070512265
53	0xbc907f8e	-0.017638948
54	0xbe04a327	-0.12952863
55	0xbe1de66c	-0.1541993
56	0x3d88b9ba	0.066760495
57	0x3c31b099	0.010845327
58	0xbd922697	-0.07136267
59	0xbd09a55a	-0.033604957
60	0x3e9ba0f4	0.30396235
61	0x3e08e308	0.13367856
62	0x3dd4a9a6	0.1038392
63	0x3e39c958	0.18143213
64	0x3ea20d2c	0.31650674
65	0xbdb0f83f	-0.08641099
66	0x3e8517ae	0.2599463
67	0x3e72f64a	0.23726764
68	0xbd87d8f0	-0.066331744
69	0xbe0fc5c4	-0.14040285
70	0x3d1e7cb2	0.038693137
71	0xbec93864	-0.39300835
72	0xbecf06c0	-0.40434837
73	0xbc2b49e6	-0.0104546305
74	0x3d0bc917	0.03412732
75	0xbcc44275	-0.02395747
76	0x3e987b3f	0.2978153
77	0x3e087ea9	0.13329567
78	0xbe7f6e26	-0.24944362
79	0xbf171e0d	-0.5903023
80	0x3e35fa26	0.17771205
81	0xbe5a5695	-0.21322091
82	0x3e97012b	0.2949308
83	0x3effafce	0.49938816
84	0xbf7f808c	-0.9980552
85	0x3e46a95d	0.19400544
86	0xbe8efc43	-0.27926835
87	0x3dedc1d3	0.11609235
88	0x3ed6acf0	0.41928816
89	0xbe01d946	-0.1268054
90	0xbe01cf5f	-0.12676762
91	0xbdbc1fa8	-0.091857255
92	0x3d1013af	0.03517502
93	0x3d0c83ff	0.03430557
94	0x3d927988	0.071520865
95	0xbd6156e5	-0.05501451
96	0x3d154bf9	0.036449406
97	0x3c6c1f17	0.014411709
98	0xbbed4385	-0.007240715
99	0xbdabe4db	-0.0839326
100	0xbde36b2d	-0.111044265
101	0x3d9e3b25	0.07726125
102	0xbd7b009e	-0.061279885
103	0x3ba5ae53	0.0050561815
104	0xbd98dd46	-0.074640796
105	0xbe4587a1	-0.1929002
106	0xbcba6140	-0.02275145
107	0xbdadebfb	-0.08492275
108	0xbcf47fea	-0.02984615
109	0x3d13e247	0.036104467
110	0x3da6d26a	0.08145602
111	0x3c1d461a	0.009599233
112	0xbd18494b	-0.037179273
113	0xbc68d00c	-0.0142097585
114	0x3df75c3f	0.120781414
115	0x3c98486c	0.018589221
116	0xbccc4536	-0.024935346
117	0xbdcd5b1f	-0.100271456
118	0x3cf0d20d	0.029397035
119	0xbdb3fec9	-0.08788831
120	0x3dd9678c	0.10615453
121	0x3e68a39e	0.22718665
122	0xbc9808ca	-0.018558878
123	0x3e9e37b9	0.30901888
124	0x3c5b673b	0.013391311
125	0x3e2be355	0.16785939
126	0x3e45b5ba	0.19307604
127	0x3e0e1274	0.13874227
128	0x3e2d1af2	0.1690481
129	0xbc7fca55	-0.015612205
130	0x3e096d77	0.13420664
131	0x3d86318d	0.0655242
132	0x3e94308c	0.28943288
133	0x3e4989eb	0.19681518
134	0x3c36841f	0.011139899
135	0x3e10d90d	0.14145298
136	0x3e6c0bac	0.23051327
137	0x3d1bdede	0.03805434
138	0x3de1d30f	0.11026584
139	0xbcbac1ea	-0.022797544
140	0x3e25d9ec	0.16196412
141	0xbca52766	-0.020160388
142	0x3e4fc879	0.20291318
143	0xbe0294de	-0.12752101
144	0x3ca6f12c	0.020378672
145	0x3e5d8db7	0.21636091
146	0x3e21d1ab	0.15802638
147	0x3e819fd7	0.2531726
148	0x3e2132ba	0.15742007
149	0xbdcab495	-0.098977245
150	0x3dbcaa80	0.09212208
151	0x3d72bfa4	0.059264794
152	0x3d704a15	0.0586644
153	0xbd99fc2b	-0.075188
154	0x3e2860a5	0.16443117
155	0x3ce968bf	0.02849233
156	0xbc12fb75	-0.008971085
157	0xbdfd9e6d	-0.12383733
158	0xbac09c0f	-0.0014694947
159	0x3d8d0c69	0.06887133
160	0xbd7990f2	-0.060929246
161	0xbd4e17c6	-0.05031564
162	0x3e3be481	0.18348886
163	0xbdb8c10b	-0.09021195
164	0x3c909b45	0.017652163
165	0x3dfc700d	0.123260595
166	0x3e86254b	0.26200327
167	0x3e7b37a8	0.2453295
168	0x3dd9f81d	0.10643027
169	0xbe2fc088	-0.17163289
170	0xbe06a648	-0.13149369
171	0x3dea5391	0.1144172
172	0xbd81a485	-0.06330208
173	0xbe34108a	-0.17584434
174	0x3dd533aa	0.10410245
175	0x3e03ac06	0.1285859
176	0x3d4b960b	0.04970364
177	0x3d2ade6c	0.041716024
178	0x3d0cbcd4	0.034359768
179	0xbd75de8c	-0.06002669
180	0x3dd8f9cb	0.10594519
181	0xbc1426b6	-0.0090424325
182	0xbe2f53fd	-0.17121883
183	0xbd8b0950	-0.067888856
184	0xbd30b9f3	-0.043146085
185	0x3cb45ca4	0.02201683
186	0xbd01fb93	-0.03173406
187	0xbd5ec460	-0.054386497
188	0xbe5ac332	-0.21363524
189	0x3d1f71cc	0.038926885
190	0xbb23ed8c	-0.0025013415
191	0x3cf16790	0.029468328
192	0x3d90de68	0.070736706
193	0xbd970598	-0.07374114
194	0x3dc2e357	0.09516018
195	0xbd93270e	-0.071851835
196	0xbd589fd2	-0.05288679
197	0x3e0b5dc7	0.13609992
198	0xbd75cb42	-0.060008295
199	0xbe236bed	-0.15959139
200	0xbe001ede	-0.12511775
201	0xbd75ee40	-0.060041666
202	0xbda97a43	-0.08275273
203	0xbdf81bb0	-0.12114656
204	0xbc54d067	-0.01298914
205	0xbd71d870	-0.0590443
206	0xbc2540f3	-0.010086286
207	0xbd88df6e	-0.06683241
208	0x3c1c85a0	0.009553343
209	0xbdbdce0d	-0.09267817
210	0xbdfd8f1a	-0.1238081
211	0xbe217d4b	-0.15770452
212	0xbe6047f2	-0.21902445
213	0xbe1806cc	-0.14846343
214	0xbcbaf9ff	-0.022824286
215	0xbc6bbc13	-0.014388102
216	0xbe0d9ac4	-0.1382857
217	0x3c69cd6a	0.014270166
218	0x3d8aa001	0.067687996
219	0xbe5fccc8	-0.21855462
220	0x3d8d632b	0.069036804
221	0xba810aa1	-0.0009845087
222	0x3d4eab1a	0.050456144
223	0xbd9a6496	-0.075387165
224	0x3db043af	0.086066596
225	0x3dfb9a75	0.1228532
226	0xbd94d58a	-0.07267292
227	0xba39d3fa	-0.0007088777
228	0xbe3e3553	-0.18575029
229	0xbc434c5b	-0.01192006
230	0x3b36fa42	0.0027920161
231	0xbd0f14a7	-0.034931805
232	0x3ab27fd7	0.0013618422
233	0x3c983b5f	0.018582998
234	0xbd147449	-0.03624371
235	0xbc55c6df	-0.013047903
236	0xbe66c42a	-0.22535768
237	0x3daa6b33	0.08321228
238	0x3e2197a4	0.15780503
239	0x3e4d18cf	0.20028995
240	0xbf27ec98	-0.6559539
241	0xbe949886	-0.29022616
242	0xbe17f4d0	-0.14839482
243	0xbe6dcfb9	-0.23223771
244	0xbf1ed9a0	-0.6205082
245	0xbe51c22d	-0.20484228
246	0xba5467b3	-0.00081026106
247	0x3c68b30b	0.014202843
248	0x3db86a4e	0.09004651
249	0xbd1ce938	-0.038308352
250	0xbe407217	-0.18793522
251	0x3e4b1423	0.198319
252	0x3c4df33a	0.012570197
253	0xbf0563e7	-0.52105564
254	0xbe180dcd	-0.14849015
255	0xbe0a66be	-0.13515756

fca1.bias f4 [60]
0	0x3e08fea8	0.13378394
1	0x3d6a8272	0.05725331
2	0x3deb297a	0.114825204
3	0x3be72581	0.0070540314
4	0xbd85c149	-0.06531007
5	0x3e147db4	0.14501077
6	0x3cd853b5	0.026407102
7	0x3dbd0130	0.09228742
8	0xbd9b7950	-0.07591498
9	0x3bbed3f0	0.0058236048
10	0x3dd3fa6f	0.10350501
11	0x3d568ff4	0.05238338
12	0xbb32483a	-0.0027203695
13	0xbd38a336	-0.045077525
14	0x3d298131	0.041382972
15	0x3db70b80	0.0893774
16	0x3c79904d	0.015232158
17	0x3d840e44	0.064480335
18	0xbd58abc1	-0.052898172
19	0x3d492662	0.04910887
20	0x3dd2e06f	0.102967136
21	0x3e08206c	0.13293618
22	0x3c77ed7e	0.015132306
23	0x3be0633b	0.0068477667
24	0xbd287db2	-0.041135497
25	0x3d3def7e	0.046370976
26	0xbdbae848	-0.091263354
27	0xbd12db6f	-0.0358538
28	0x3dae121c	0.08499548
29	0x3e031963	0.12802653
30	0xbc05408b	-0.008133064
31	0xbd75bd8a	-0.05999521
32	0x3d8714c9	0.06595761
33	0xbdea64d5	-0.114450134
34	0x3e300c72	0.17192248
35	0xbd80d0ed	-0.062898494
36	0x3d48ea58	0.049051613
37	0x3d507100	0.050889015
38	0x3e64a6f4	0.22329313
39	0x3b925457	0.0044656205
40	0x3e3c2e49	0.18377031
41	0x3dd758ef	0.105150096
42	0x3d8df1ff	0.06930923
43	0x3dc08b7a	0.09401603
44	0xbdea025d	-0.11426232
45	0x3dd0b49c	0.101906985
46	0xbd39eb13	-0.0453902
47	0x3dc139cd	0.09434853
48	0xbdf93787	-0.12168794
49	0x3dd6ed61	0.10494495
50	0x3dbe49d6	0.09291427
51	0x3e0fc9d8	0.14041841
52	0x3dd9cd35	0.10634843
53	0xbda51c84	-0.080620795
54	0xbe147846	-0.14499006
55	0x3d476977	0.048684563
56	0x3d2ef3c3	0.042712938
57	0xbd42849c	-0.047489747
58	0x3c80e1fb	0.015732756
59	0x3d866992	0.06563105

fca2.weight f4 [1, 60]
0	0xbe2891c2	-0.16461852
1	0x3f18eae9	0.59733444
2	0xbe0c052a	-0.13673845
3	0x3d3c8b8d	0.046031523
4	0x3e9e00ac	0.30859888
5	0xbf3b73e2	-0.732237
6	0xbe2b7fbf	-0.1674795
7	0x3ee3aa95	0.4446608
8	0x3df0be87	0.1175509
9	0x3f403f99	0.7509704
10	0x3f0bf9d4	0.5467808
11	0x3eeb16de	0.45915884
12	0xbea910a6	-0.33020514
13	0x3f1852f1	0.5950156
14	0x3f0d7753	0.552602
15	0xbed33377	-0.41250202
16	0xbdfb06ae	-0.122571334
17	0x3f20a395	0.62749606
18	0xbec1faac	-0.3788656
19	0x3f111e19	0.5668655
20	0xbe4db37d	-0.20088
21	0x3f2b70de	0.66969097
22	0xbea45509	-0.32096127
23	0xbe536d27	-0.20647107
24	0xbe6407a5	-0.22268541
25	0xbd5f2337	-0.054476943
26	0xbda0927b	-0.07840439
27	0x3c358e64	0.011081312
28	0x3ee43614	0.44572508
29	0x3f43e9be	0.7652854
30	0xbd92d4ae	-0.07169472
31	0x3f15e781	0.5855637
32	0x3efa58e7	0.48895952
33	0x3d07a4eb	0.033116262
34	0x3ee43692	0.44572884
35	0x3d4b6e3d	0.04966568
36	0xbe1421e7	-0.14466058
37	0xbe0790f3	-0.13238887
38	0xbe3f60b0	-0.18689227
39	0xbe39df20	-0.18151522
40	0x3f1395c1	0.5765038
41	0xbe05ebf9	-0.13078298
42	0x3eb8b01e	0.36071867
43	0x3e68754a	0.22700992
44	0x3cc8f6ac	0.024531685
45	0xbea74cc4	-0.32675755
46	0xbdaccbdb	-0.0843732
47	0x3d0f3f52	0.034972496
48	0x3edf067c	0.43559635
49	0xbdd3bd33	-0.10338821
50	0xbdfaa327	-0.1223815
51	0x3f4c1489	0.79718834
52	0x3ee22c7b	0.4417456
53	0xbe3a04f0	-0.18165946
54	0x3f32405f	0.6962947
55	0xbe67d420	-0.22639513
56	0x3f668939	0.90053135
57	0xbe5747df	-0.2102351
58	0xbe4471df	-0.19184063
59	0x3eff1d6d	0.49827138
