DDPG/models/7100_critic.pt (torch, 18423 bytes, 7 tensors)

fc1.weight f4 [30, 3]
-0.41146463 -0.65852565 -0.064420395 -0.51564765 -0.24348588 -0.13669848 0.53768164 0.50480354
0.17885883 -0.4130709 -0.8860522 -0.1159836 -0.92664313 -0.3918763 -0.059527345 0.01364948
-0.31478998 -0.010107425 0.089163795 -1.3917742 -0.2659352 -0.35765156 1.4502275 0.31734616
-0.49075934 0.65675265 0.04278146 0.035244167 0.099179864 -0.015316948 0.05700744 0.1256192
-0.014960306 -0.76890886 0.35237962 0.27431992 0.61056924 -0.38232458 -0.16520928 -0.3813631
-0.31267968 0.012870314 0.73209137 0.3888607 0.1999304 -0.35637873 -0.0066708014 0.10568593
0.37891433 -0.6184254 -0.12772906 -0.42210186 -0.39419517 -0.15404958 0.14564945 0.835234
0.14004041 0.11808761 0.78624666 0.1666807 0.11134082 -0.26657352 0.16271451 -0.012242595
-0.105895214 0.00072338345 -0.1553731 0.5475981 0.036748 -0.5256114 1.0156397 0.1638599
-0.9217368 0.4862767 0.31602746 -0.77865845 -0.36617488 -0.039957847 -0.5052243 -0.016591884
0.08301858 -0.76837957 0.116770834 0.13654612 -0.46150038 0.5986978 0.16044953 -0.050530978
-0.43278065 -0.3312136
00000000: 7eab d2be 2395 28bf d7ee 83bd 7c01 04bf
00000010: 5d54 79be b0fa 0bbe 81a5 093f ce3a 013f
00000020: c526 373e 077e d3be 51d4 62bf cf88 edbd
00000030: 7c38 6dbf 03a4 c8be f2d2 73bd 12a2 5f3c
00000040: 272c a1be 9d99 25bc 829b b63d a825 b2bf
00000050: a928 88be 1b1e b7be 0ea1 b93f 327b a23e
00000060: cf44 fbbe f120 283f 9d3b 2f3d 305c 103d
00000070: d01e cb3d f0f3 7abc a280 693d 52a2 003e
00000080: 121c 75bc 36d7 44bf 1a6b b43e a973 8c3e
00000090: 444e 1c3f 0cc0 c3be 9f2c 29be 0642 c3be
000000a0: 8d17 a0be 02de 523c 576a 3b3f c018 c73e
000000b0: 8eba 4c3e 4677 b6be bd96 dabb dd71 d83d
000000c0: 0f01 c23e 2151 1ebf 68cb 02be bc1d d8be
000000d0: f3d3 c9be 2cbf 1dbe 2125 153e e5d1 553f
000000e0: c166 0f3e ebd7 f13d 7647 493f 58ae 2a3e
000000f0: a806 e43d 537c 88be a29e 263e 2a95 48bc
00000100: 97df d8bd 71a1 3d3a 201a 1fbe 642f 0c3f
00000110: 1285 163d 788e 06bf 7b00 823f e4ca 273e
00000120: f1f6 6bbf 42f9 f83e 5ace a13e 2956 47bf
00000130: 467b bbbe d7aa 23bd 6156 01bf b4eb 87bc
00000140: a505 aa3d 86b4 44bf 8c25 ef3d bfd2 0b3e
00000150: c749 ecbe 4244 193f e24c 243e 92f9 4ebd
00000160: 6d95 ddbe d494 a9be

fc1.bias f4 [30]
0.027388604 0.36649013 -0.30442536 -0.194407 -0.28563797 -0.39473203 -0.5184839 -0.21778363
-0.4186702 -0.34424782 -0.35777807 -0.5432503 -0.21565971 0.4799261 -0.4146462 0.26330742
-0.1365813 0.5391022 0.02999888 0.44752 0.63951486 -0.36049688 0.42541993 -0.31658468
0.007813205 0.041667115 0.21249773 0.11266545 0.56732523 -0.19986126
00000000: 115e e03c 98a4 bb3e a4dd 9bbe a112 47be
00000010: 243f 92be 511a cabe 5cbb 04bf ac02 5fbe
00000020: f15b d6be 4041 b0be b02e b7be 7412 0bbf
00000030: e6d5 5cbe e0b8 f53e 824c d4be 3bd0 863e
00000040: f8db 0bbe 9a02 0a3f 36c0 f53c 5721 e53e
00000050: 3fb7 233f 0c93 b8be a4d0 d93e 6317 a2be
00000060: f502 003c 23ab 2a3d 0199 593e 25bd e63d
00000070: 3a3c 113f 6ea8 4cbe

fa1.weight f4 [30, 1]
-0.003807038 -0.014505315 -0.0009242002 -0.04173765 0.05615116 0.11391427 0.07499302 0.080101945
-0.17421712 -0.1933965 -0.11924559 0.033981796 0.021610891 0.086746745 -0.197395 -0.13256411
0.0827334 0.012590453 0.14920744 -0.06686335 -0.12785846 -0.06771811 -0.06384968 0.087480135
-0.07677391 -0.049134407 -0.0878561 0.15745799 0.0006192513 -0.086454235
00000000: 807f 79bb b3a7 6dbc 0746 72ba 19f5 2abd
00000010: c2fe 653d e34b e93d f195 993d 7d0c a43d
00000020: f965 32be bb09 46be 0837 f4bd 7f30 0b3d
00000030: 5309 b13c 47a8 b13d ea21 4abe e3be 07be
00000040: 2170 a93d 3048 4e3c d6c9 183e a7ef 88bd
00000050: 54ed 02be cbaf 8abd 9fc3 82bd c928 b33d
00000060: a43b 9dbd 2941 49bd e6ed b3bd ab3c 213e
00000070: 4055 223a eb0e b1bd

fa1.bias f4 [30]
0.7034493 -0.03228755 -0.058107972 -0.76421 -0.80774546 -0.8279406 0.18085621 -0.56653357
-0.3505345 -0.91434705 0.088078305 -0.068517216 0.016041033 -0.8679669 0.049361587 -0.04052468
0.13723592 0.7381695 -0.512557 -0.22959113 -0.25672722 0.11944717 -0.60055935 0.552657
0.8024895 -0.0033274596 -0.78442633 0.06528881 -0.33974278 0.20431839
00000000: 4115 343f f33f 04bd a002 6ebd 44a3 43bf
00000010: 68c8 4ebf eaf3 53bf 5f32 393e 5808 11bf
00000020: 4279 b3be a612 6abf 6662 b43d c152 8cbd
00000030: 7c68 833c 1433 5ebf 602f 4a3d 35fd 25bd
00000040: 9387 0c3e adf8 3c3f f036 03bf f019 6bbe
00000050: c071 83be b8a0 f43d 42be 19bf ee7a 0d3f
00000060: f46f 4d3f 8211 5abb 2ad0 48bf 24b6 853d
00000070: c4f2 adbe d738 513e

fca1.weight f4 [60, 60]
0.064769104 0.3131543 -0.13308609 -0.10315513 0.05771918 0.11824412 0.179251 -0.028019695
-1.9560958 -0.099185914 -0.0517132 -0.5665311 -0.15338862 0.075666465 0.1894803 0.14396898
0.47757262 0.33419427 -0.04803671 -0.059404556 -0.21857592 -0.012280208 0.46190128 0.03103663
-0.47031504 -0.022243962 0.018694973 0.28115222 0.16074795 -0.6498793 -0.016460735 -0.035805214
0.17281881 -0.0053935414 0.037496466 -0.17388783 -0.009088385 -0.053956926 0.117249325 -0.12367227
-0.3566103 -0.10737019 -0.019318944 0.1103611 -0.13955763 -0.06060519 0.13388363 -0.03940654
-0.03388594 0.068688974 0.091024674 -0.037649687 -0.070512265 -0.1111226 -0.2362208 -0.2712357
0.066760495 0.113768384 -0.07136267 -0.13204965 0.25276724 0.06651696 -1.9835342 0.16238058
0.2852603 -0.08641099 0.28143665 0.37817517 -0.05725152 -0.14040285 0.038693137 0.9588593
0.33181015 -0.111863606 -1.6349508 -0.11839562 0.25422576 0.024760306 -1.5854335 -1.5173227
0.26635784 -0.21322091 -0.12496814 0.75254375 0.14205939 0.16539933 -0.18592378 -0.31366974
0.2278063 -0.21009324 -0.23135269 -0.22523694 0.03517502 0.03430557 0.071520865 -0.05501451
-0.0013786714 0.014411709 -0.0022988426 -0.0839326 -0.20164467 0.17339835 -0.0069563463 0.0050561815
-0.27759552 -0.3896919 0.021452604 -0.17383711 -0.02984615 0.036104467 0.19368137 -0.2654786
-0.037179273 -0.10481557 -0.022283595 -0.08520113 -0.024935346 0.04157057 0.029397035 -0.3994895
0.0075517087 0.3308757 0.12038795 0.1749457 0.009828341 0.16785939 0.44873053 0.26841146
-0.019805966 -0.015612205 0.13420664 0.2569775 0.1488204 0.20519112 -0.16871887 0.20020474
0.07064932 0.09999105 0.09703524 -0.027683256 0.04449998 -0.020160388 0.2815034 0.13725725
0.1265018 0.25028706 0.07559721 0.2444747 0.2449712 0.12041187 0.064771004 0.056363903
0.0586644 -0.075188 0.16443117 0.02849233 -0.06483712 -0.12383733 0.011287201 0.06887133
-0.07319463 -0.06980238 0.09284765 -0.09021195 0.03221302 0.12134204 0.18426314 0.22214803
0.10643027 -0.17163289 -0.13084523 0.20445561 -0.06330208 -0.21952714 0.095750146 0.15063469
0.04970364 -0.05984182 0.034359768 -0.05647369 0.10594519 -0.0153869195 -0.17121883 -0.067888856
-0.043146085 0.02201683 -0.03803221 -0.054386497 -0.21363524 0.038926885 -0.0025013415 0.029468328
0.06439982 -0.08002999 0.09516018 -0.071851835 -0.059191745 0.1297546 -0.060008295 -0.15959139
-0.12511775 -0.060041666 -0.08909289 -0.12114656 -0.01298914 -0.0590443 -0.010086286 -0.06683241
0.009553343 -0.0990259 -0.13014948 -0.15770452 -0.21902445 -0.14846343 -0.022824286 -0.014388102
-0.14456882 0.014270166 0.067687996 -0.21855462 0.062705725 -0.0009845087 0.050456144 -0.075387165
0.07972995 0.116523385 -0.07267292 -0.0070495293 -0.18575029 -0.01192006 -0.0034734204 -0.041250218
0.0013618422 0.012249824 -0.04258811 -0.01933264 -0.22535768 0.08321228 0.15780503 0.19396088
-0.86673933 0.41372734 -0.07221833 -0.056662742 -0.7154297 -0.20484228 0.11429357 0.31895697
0.45385188 -0.038308352 -0.18793522 -0.15296541 -0.7248116 -0.13201472 0.27906257 -0.31726724
00000000: aaa5 843d c355 a03e b847 08be ff42 d3bd
00000010: f26a 6c3d f929 f23d 938d 373e 8f89 e5bc
00000020: 5961 fabf fc21 cbbd 38d1 53bd 2f08 11bf
00000030: e811 1dbe 05f7 9a3d 2007 423e 9b6c 133e
00000040: 6684 f43e 831b ab3e 24c2 44bd 3152 73bd
00000050: 5ed2 5fbe ed32 49bc 537e ec3e 8840 fe3c
00000060: 22cd f0be f838 b6bc 3326 993c 2ff3 8f3e
00000070: 1c9b 243e 7d5e 26bf aad8 86bc 7da8 12bd
00000080: 6af7 303e 4ebc b0bb e595 193d a70f 32be
00000090: 73e7 14bc f001 5dbd 6a20 f03d e347 fdbd
000000a0: a095 b6be e7e4 dbbd c342 9ebc 0005 e23d
000000b0: 32e8 0ebe 263d 78bd ca18 093e c168 21bd
000000c0: fccb 0abd ceac 8c3d 256b ba3d 8f36 1abd
000000d0: bc68 90bd 3f94 e3bd dee3 71be 68df 8abe
000000e0: bab9 883d 66ff e83d 9726 92bd 0638 07be
000000f0: b56a 813e 0b3a 883d 73e4 fdbf 1847 263e
00000100: a30d 923e 3ff8 b0bd 7718 903e 2da0 c13e
00000110: 9280 6abd c4c5 0fbe b27c 1e3d ce77 753f
00000120: 05e3 a93e bf18 e5bd 1146 d1bf 6779 f2bd
00000130: e129 823e 20d6 ca3c 7cef cabf a137 c2bf
00000140: 0e60 883e 9556 5abe 4cef ffbd b5a6 403f
00000150: 0478 113e 715e 293e ce62 3ebe 5299 a0be
00000160: 0e46 693e af22 57be b8e7 6cbe 83a4 66be
00000170: af13 103d ff83 0c3d 8879 923d e556 61bd
00000180: 89b4 b4ba 171f 6c3c 2ea8 16bb dbe4 abbd
00000190: f17b 4ebe 568f 313e 10f2 e3bb 53ae a53b
000001a0: 0021 8ebe b285 c7be 5fbd af3c 5b02 32be
000001b0: ea7f f4bc 47e2 133d 6954 463e d0ec 87be
000001c0: 4b49 18bd 8ca9 d6bd 168c b6bc ee7d aebd
000001d0: 3645 ccbc e745 2a3d 0dd2 f03c e389 ccbe
000001e0: 5374 f73b 8a68 a93e f58d f63d f724 333e
000001f0: 0d07 213c 55e3 2b3e 02c0 e53e 3a6d 893e
00000200: 1f40 a2bc 55ca 7fbc 776d 093e 8e92 833e
00000210: 6064 183e 9f1d 523e a4c4 2cbe 7902 4d3e
00000220: 97b0 903d 1cc8 cc3d 69ba c63d ffc7 e2bc
00000230: 9c45 363d 6627 a5bc 3721 903e 2a8d 0c3e
00000240: b089 013e a025 803e b6d2 9a3d 9357 7a3e
00000250: bbd9 7a3e 809a f63d a9a6 843d d6dd 663d
00000260: 154a 703d 2bfc 99bd a560 283e bf68 e93c
00000270: 53c9 84bd 6d9e fdbd f4ed 383c 690c 8d3d
00000280: 11e7 95bd 8df4 8ebd e926 be3d 0bc1 b8bd
00000290: cdf1 033d 2d82 f83d 7aaf 3c3e c67a 633e
000002a0: 1df8 d93d 88c0 2fbe 4bfc 05be d05c 513e
000002b0: 85a4 81bd b9cb 60be a718 c43d fb3f 1a3e
000002c0: 0b96 4b3d b21c 75bd d4bc 0c3d f550 67bd
000002d0: cbf9 d83d 6b19 7cbc fd53 2fbe 5009 8bbd
000002e0: f3b9 30bd a45c b43c aac7 1bbd 60c4 5ebd
000002f0: 32c3 5abe cc71 1f3d 8ced 23bb 9067 f13c
00000300: 0ee4 833d c3e6 a3bd 57e3 c23d 0e27 93bd
00000310: 0b73 72bd 64de 043e 42cb 75bd ed6b 23be
00000320: de1e 00be 40ee 75bd 5576 b6bd b01b f8bd
00000330: 67d0 54bc 70d8 71bd f340 25bc 6edf 88bd
00000340: a085 1c3c 17ce cabd e845 05be 4b7d 21be
00000350: f247 60be cc06 18be fff9 babc 13bc 6bbc
00000360: d909 14be 6acd 693c 01a0 8a3d c8cc 5fbe
00000370: dc6b 803d a10a 81ba 1aab 4e3d 9664 9abd
00000380: 7549 a33d d0a3 ee3d 8ad5 94bd bdff e6bb
00000390: 5335 3ebe 5b4c 43bc 53a2 63bb fdf5 28bd
000003a0: d77f b23a 7cb3 483c df70 2ebd 7c5f 9ebc
000003b0: 2ac4 66be 336b aa3d a497 213e ae9d 463e
000003c0: a1e2 5dbf 12d4 d33e 34e7 93bd 3117 68bd
000003d0: 6726 37bf 2dc2 51be bf12 ea3d 544e a33e
000003e0: 465f e83e 38e9 1cbd 1772 40be f7a2 1cbe
000003f0: 418d 39bf de2e 07be 4ae1 8e3e da70 a2be

fca1.bias f4 [60]
0.031140609 -0.08406957 0.08640202 0.00070938584 -0.22549124 0.11962169 0.007348864 0.1577125
-0.08861905 0.031802505 -0.07814 -0.0343145 -0.004543258 0.00040582535 -0.036925707 0.058491077
-0.030942608 0.13081437 -0.047716796 0.07372971 0.08823058 0.15449163 0.015395018 -0.004054923
-0.06091989 0.046370976 -0.091263354 -0.013324574 -0.011965426 0.15377878 0.13056004 -0.18245244
0.14042139 -0.114450134 0.2126414 -0.08035246 0.014936505 -0.005168878 0.21390975 -0.01321055
0.21383347 0.07056821 0.01861736 0.118016884 -0.12584445 0.10430617 -0.06122514 0.17094256
-0.17733489 0.062452897 0.052582014 0.16337974 0.100302964 -0.09452397 -0.11161786 0.02983286
-0.013034398 -0.05694393 -0.006507076 0.1704275
00000000: 971a ff3c ab2c acbd 8bf3 b03d 14f6 393a
00000010: 2de7 66be 37fc f43d bdce f03b 637f 213e
00000020: e87d b5bd 5843 023d dd07 a0bd 5c8d 0cbd
00000030: 9cdf 94bb f5c4 d439 693f 17bd 5794 6f3d
00000040: 5a7b fdbc 34f4 053e b072 43bd 9aff 963d
00000050: 3cb2 b43d 0e33 1e3e 633b 7c3c 29df 84bb
00000060: 2287 79bd 7eef 3d3d 48e8 babd 504f 5abc
00000070: a20a 44bc 2f78 1d3e 88b1 053e d0d4 3abe
00000080: a0ca 0f3e d564 eabd abbe 593e d58f a4bd
00000090: 3eb8 743c b15f a9bb 280b 5b3e 1071 58bc
000000a0: 29f7 5a3e 1186 903d 6f83 983c d6b2 f13d
000000b0: 5edd 00be 799e d53d 36c7 7abd 910b 2f3e
000000c0: 4797 35be 9cce 7f3d 3d60 573d 054d 273e
000000d0: a46b cd3d c895 c1bd e897 e4bd 0b64 f43c
000000e0: 3a8e 55bc 0a3e 69bd 4f39 d5bb 8c84 2e3e

fca2.weight f4 [1, 60]
-1.1012661 0.35307452 -0.12057243 0.040189266 0.6869795 -0.94541955 -0.14538966 0.5000145
0.10649749 0.23866643 0.99101686 0.4126143 -0.24612965 0.49350736 0.27335113 -0.20187245
-0.1343178 0.5623644 -0.31845576 0.3966134 -0.15896045 0.34506217 -0.27554557 -0.18810168
-0.12622823 -0.054476943 -0.07840439 0.61486477 0.59955627 0.9776487 -0.8767424 0.43938145
0.55101055 0.033116262 0.432071 0.016433192 -0.083685875 -0.060177263 -0.19123635 -0.15343887
0.55481654 -0.0770773 0.45797163 0.4340509 0.013711155 -0.28909704 -0.06581231 0.67304546
0.24047737 -0.08654615 -0.07562229 0.56176317 0.5499389 -0.15818465 0.3476687 -0.14460693
0.4079542 -0.19826521 -0.11465147 0.45304957
00000000: 4af6 8cbf 2fc6 b43e aeee f6bd 809d 243d
00000010: e3dd 2f3f 0407 72bf 07e1 14be f300 003f
00000020: 5b1b da3d f964 743e 48b3 7d3f 2e42 d33e
00000030: 6909 7cbe ffac fc3e aef4 8b3e a7b7 4ebe
00000040: 9b8a 09be 1df7 0f3f a20c a3be e910 cb3e
00000050: 87c6 22be fdab b03e 4f14 8dbe ba9d 40be
00000060: f941 01be 3723 5fbd 7b92 a0bd c767 1d3f
00000070: 857c 193f 2f47 7a3f 3172 60bf 9bf6 e03e
00000080: 070f 0d3f eba4 073d 6938 dd3e e79e 863c
00000090: 8063 abbd 6f7c 76bd 76d3 43be 141f 1dbe
000000a0: 7508 0e3f b4da 9dbd 427b ea3e eb3b de3e
000000b0: c1a4 603c 8704 94be 9bc8 86bd b54c 2c3f
000000c0: b33f 763e 1c3f b1bd dcdf 9abd b6cf 0f3f
000000d0: ccc8 0c3f 28fb 21be a201 b23e d713 14be
000000e0: 5fdf d03e 0906 4bbe 64ce eabd 1df6 e73e
