DDPG/models/7400_critic.pt (torch, 18423 bytes, 7 tensors)

fc1.weight f4 [30, 3]
-0.38673586 -0.64528275 -0.058485318 -0.53098804 -0.24346802 -0.12953477 0.55597097 0.48144493
0.1800036 -0.40220144 -0.9156985 -0.118284434 -0.9550653 -0.3966293 -0.05564874 0.01364948
-0.31478998 -0.010107425 0.07377191 -1.4102011 -0.26198354 -0.4560701 1.4474168 0.33013287
-0.5169167 0.66920596 0.040885903 0.035244167 0.099179864 -0.015316948 0.05700744 0.1256192
-0.014960306 -0.7565889 0.4046342 0.2813493 0.62802726 -0.35988426 -0.16828592 -0.37372226
-0.29389825 0.021967947 0.7555802 0.42265022 0.19741076 -0.35912368 -0.018147225 0.106614634
0.39099 -0.58646446 -0.12335219 -0.4436778 -0.3944311 -0.1473607 0.13553205 0.83353454
0.13869469 0.087729745 0.80699784 0.16973221 0.14009918 -0.2185594 0.17698559 -0.012242595
-0.105895214 0.00072338345 -0.17529984 0.53974235 0.03446666 -0.530426 1.0120219 0.17100932
-0.9116456 0.4611195 0.30646807 -0.81479293 -0.3548401 -0.04142779 -0.4885526 -0.016755117
0.08263685 -0.7493846 0.010796477 0.121282436 -0.47968045 0.57739985 0.14264485 -0.059265193
-0.52350956 -0.32391292
00000000: 3e02 c6be 4031 25bf 4d8e 6fbd d5ee 07bf
00000010: ae4f 79be c3a4 04be 1d54 0e3f f37f f63e
00000020: dd52 383e 59ed cdbe 386b 6abf 1c3f f2bd
00000030: 297f 74bf ff12 cbbe efef 63bd 12a2 5f3c
00000040: 272c a1be 9d99 25bc ba15 973d 7881 b4bf
00000050: b522 86be 0582 e9be f444 b93f 2d07 a93e
00000060: a754 04bf 1551 2b3f fa77 273d 305c 103d
00000070: d01e cb3d f0f3 7abc a280 693d 52a2 003e
00000080: 121c 75bc cfaf 41bf 372c cf3e 040d 903e
00000090: 65c6 203f c042 b8be 2553 2cbe 8658 bfbe
000000a0: d579 96be 20f6 b33c b46d 413f 9c65 d83e
000000b0: 0c26 4a3e 0fdf b7be 7da9 94bc c658 da3d
000000c0: d72f c83e 8922 16bf 13a0 fcbd bd29 e3be
000000d0: e0f2 c9be b9e5 16be eac8 0a3e 8562 553f
000000e0: fb05 0e3e a7ab b33d 6997 4e3f 48ce 2d3e
000000f0: 2976 0f3e 09ce 5fbe b63b 353e 2a95 48bc
00000100: 97df d8bd 71a1 3d3a cd81 33be 8e2c 0a3f
00000110: ea2c 0d3d 00ca 07bf ef89 813f 111d 2f3e
00000120: 9b61 69bf db17 ec3e 62e9 9c3e 4596 50bf
00000130: 9aad b5be 30b0 29bd 9123 fabe 0742 89bc
00000140: 823d a93d abd7 3fbf b5e3 303c ed62 f83d
00000150: ad98 f5be 7ad0 133f 7e11 123e 0fc0 72bd
00000160: b904 06bf ead7 a5be

fc1.bias f4 [30]
0.00066028093 0.34498656 -0.279908 -0.23156075 -0.3005373 -0.39473203 -0.5139843 -0.17708232
-0.44173643 -0.34424782 -0.35777807 -0.5568467 -0.2184231 0.49802187 -0.42234144 0.2903511
-0.13445958 0.5259678 0.056844328 0.44318098 0.6724232 -0.36049688 0.4291384 -0.3104789
0.048365876 0.05179261 0.21844693 0.12134505 0.57744044 -0.20790717
00000000: b416 2d3a 14a2 b03e 1a50 8fbe 431e 6dbe
00000010: 06e0 99be 511a cabe 7a94 03bf 1155 35be
00000020: 472b e2be 4041 b0be b02e b7be 818d 0ebf
00000030: 4eaa 5fbe b9fc fe3e 233d d8be e6a8 943e
00000040: c6af 09be d3a5 063f 99d5 683d 9ee8 e23e
00000050: ed23 2c3f 0c93 b8be 07b8 db3e 17f7 9ebe
00000060: 4c1b 463d 7d24 543d 8db0 5f3e c183 f83d
00000070: 23d3 133f 9ee5 54be

fa1.weight f4 [30, 1]
-0.0026550286 -0.014505315 -0.0009242002 -0.04173765 0.05615116 0.11391427 0.07490912 0.080101945
-0.17421712 -0.1933965 -0.100289695 0.033981796 0.030930104 0.086746745 -0.17201549 -0.09698386
0.050004486 0.010527086 0.14920744 -0.06686335 -0.12785846 -0.07150939 -0.06384968 0.07868326
-0.08500052 -0.04112283 -0.0878561 0.15123563 0.0006192513 -0.07152012
00000000: fdff 2dbb b3a7 6dbc 0746 72ba 19f5 2abd
00000010: c2fe 653d e34b e93d f469 993d 7d0c a43d
00000020: f965 32be bb09 46be af64 cdbd 7f30 0b3d
00000030: 2161 fd3c 47a8 b13d d424 30be 799f c6bd
00000040: 81d1 4c3d cd79 2c3c d6c9 183e a7ef 88bd
00000050: 54ed 02be 8473 92bd 9fc3 82bd b024 a13d
00000060: c114 aebd 6a70 28bd e6ed b3bd 83dd 1a3e
00000070: 4055 223a 2479 92bd

fa1.bias f4 [30]
0.6845205 -0.03228755 -0.058107972 -0.76421 -0.80774546 -0.8279406 0.15836644 -0.56653357
-0.3505345 -0.91434705 0.117157824 -0.068517216 -0.01084715 -0.8679669 0.005932746 -0.09114278
0.11316186 0.72475594 -0.512557 -0.22959113 -0.25672722 0.116439074 -0.60055935 0.5317741
0.7908117 -0.020532278 -0.78442633 0.051393427 -0.33974278 0.14867371
00000000: bc3c 2f3f f33f 04bd a002 6ebd 44a3 43bf
00000010: 68c8 4ebf eaf3 53bf d02a 223e 5808 11bf
00000020: 4279 b3be a612 6abf 71f0 ef3d c152 8cbd
00000030: 3fb8 31bc 1433 5ebf 7b67 c23b 11a9 babd
00000040: 68c1 e73d 9b89 393f f036 03bf f019 6bbe
00000050: c071 83be 9c77 ee3d 42be 19bf 5922 083f
00000060: a372 4a3f 4f33 a8bc 2ad0 48bf ea81 523d
00000070: c4f2 adbe ec3d 183e

fca1.weight f4 [60, 60]
0.04502028 0.2974381 -0.70899576 -0.120853305 0.033297572 0.11824412 0.17561138 -0.076106295
-2.1962032 -0.099185914 -0.0517132 -0.56862235 -0.14954409 0.069350556 0.3640978 0.12953384
0.48087114 0.32660666 -0.2368808 -0.06715111 -0.18225051 -0.012280208 0.45785856 0.09963406
-0.44322574 -0.044930335 -0.013447951 0.22112493 0.1518758 -0.6350091 -0.010395597 -0.035805214
0.17281881 -0.0053935414 0.037496466 -0.17388783 0.0054090614 -0.053956926 0.117249325 -0.12367227
-0.35476965 -0.10737019 0.020806529 0.1103611 -0.13313171 -0.047917917 0.15363997 -0.03208205
-0.03388594 0.068688974 0.091024674 -0.043557685 -0.070512265 -0.10048686 -0.23178066 -0.24062295
0.066760495 0.14519806 -0.07136267 -0.13719194 0.22652794 0.049479812 -1.8405671 0.13277604
0.29714787 -0.08641099 0.24707821 0.3791953 -0.15320526 -0.14040285 0.038693137 0.94683534
0.39437735 -0.11720727 -1.5131264 -0.13054678 0.2548797 0.014099982 -1.5978326 -1.5318856
0.28376862 -0.21322091 -0.119847134 0.7184962 0.13096781 0.15333594 -0.19448854 -0.30443954
0.22632225 -0.28530732 -0.2194186 -0.22523694 0.03517502 0.03430557 0.071520865 -0.05501451
0.028193187 0.014411709 -0.0022988426 -0.0839326 -0.21055317 0.17339835 0.025915228 0.0050561815
-0.2712456 -0.4069053 0.04738607 -0.15974486 -0.02984615 0.036104467 0.19368137 -0.3238776
-0.037179273 -0.0849381 -0.019228827 -0.0941819 -0.024935346 0.07645122 0.029397035 -0.4887886
0.013289868 0.3289913 0.13984162 0.18316478 0.006440131 0.16785939 0.45431814 0.2616703
-0.015410984 -0.015612205 0.13420664 0.24594815 0.1488316 0.20771264 -0.1720716 0.19558018
0.07242297 0.09963136 0.09434048 -0.026908943 0.033448093 -0.020160388 0.27906138 0.15396908
0.13172694 0.25385937 0.072095096 0.23256469 0.25037143 0.12723687 0.06578408 0.056363903
0.0586644 -0.075188 0.16443117 0.02849233 -0.0699883 -0.12383733 0.011287201 0.06887133
-0.0692813 -0.06980238 0.09054386 -0.09021195 0.04206591 0.12930171 0.17655547 0.22318602
0.10643027 -0.17163289 -0.13084523 0.2094255 -0.06330208 -0.22065623 0.09847391 0.15990397
0.04970364 -0.06497868 0.034359768 -0.050805744 0.10594519 -0.0153869195 -0.17121883 -0.067888856
-0.043146085 0.02201683 -0.03803221 -0.054386497 -0.21363524 0.038926885 -0.0025013415 0.029468328
0.06439982 -0.08002999 0.09516018 -0.071851835 -0.059191745 0.1297546 -0.060008295 -0.15959139
-0.12511775 -0.060041666 -0.08909289 -0.12114656 -0.01298914 -0.0590443 -0.010086286 -0.06683241
0.009553343 -0.0990259 -0.13014948 -0.15770452 -0.21902445 -0.14846343 -0.022824286 -0.014388102
-0.14456882 0.014270166 0.067687996 -0.21855462 0.062705725 -0.0009845087 0.050456144 -0.075387165
0.07972995 0.116523385 -0.07267292 -0.0070495293 -0.18575029 -0.01192006 -0.0034734204 -0.041250218
0.0013618422 0.012249824 -0.04258811 -0.01933264 -0.22535768 0.08321228 0.15780503 0.19396088
-0.85224515 0.4226462 -0.10586897 -0.00022977148 -0.67012304 -0.20484228 0.3482355 0.34096548
0.41988188 -0.038308352 -0.18793522 -0.18645355 -0.62322694 -0.16545938 0.31430766 -0.3456285
00000000: 2f67 383d cf49 983e bf80 35bf f081 f7bd
00000010: 0963 083d f929 f23d 78d3 333e 9edd 9bbd
00000020: 988e 0cc0 fc21 cbbd 38d1 53bd 3c91 11bf
00000030: 1622 19be aa07 8e3d 076b ba3e 85a4 043e
00000040: be34 f63e fd38 a73e e190 72be 8586 89bd
00000050: e19f 3abe ed32 49bc 706c ea3e f10c cc3d
00000060: 7cee e2be df08 38bd cb54 5cbc 936e 623e
00000070: 5485 1b3e f58f 22bf 4b52 2abc 7da8 12bd
00000080: 6af7 303e 4ebc b0bb e595 193d a70f 32be
00000090: 7f3e b13b f001 5dbd 6a20 f03d e347 fdbd
000000a0: 5ea4 b5be e7e4 dbbd 7472 aa3c 0005 e23d
000000b0: ae53 08be 9445 44bd cc53 1d3e 7868 03bd
000000c0: fccb 0abd ceac 8c3d 256b ba3d 8b69 32bd
000000d0: bc68 90bd 0ecc cdbd e957 6dbe dd65 76be
000000e0: bab9 883d cdae 143e 9726 92bd 0b7c 0cbe
000000f0: f1f6 673e 58ab 4a3d b497 ebbf 71f6 073e
00000100: c423 983e 3ff8 b0bd 1202 7d3e e325 c23e
00000110: d7e1 1cbe c4c5 0fbe b27c 1e3d cd63 723f
00000120: d4eb c93e 5d0a f0bd 20ae c1bf 0eae 05be
00000130: 987f 823e 9c03 673c c785 ccbf d414 c4bf
00000140: 1f4a 913e 9556 5abe 6a72 f5bd 5eef 373f
00000150: 6d1c 063e 1904 1d3e 0128 47be 80df 9bbe
00000160: 05c1 673e cd13 92be 45af 60be 83a4 66be
00000170: af13 103d ff83 0c3d 8879 923d e556 61bd
00000180: 66f5 e63c 171f 6c3c 2ea8 16bb dbe4 abbd
00000190: 409b 57be 568f 313e 2c4c d43c 53ae a53b
000001a0: b4e0 8abe e455 d0be e517 423d 2894 23be
000001b0: ea7f f4bc 47e2 133d 6954 463e 49d3 a5be
000001c0: 4b49 18bd 07f4 adbd c685 9dbc 71e2 c0bd
000001d0: 3645 ccbc 7592 9c3d 0dd2 f03c 8042 fabe
000001e0: bfbd 593c 8c71 a83e a432 0f3e 8c8f 3b3e
000001f0: bc07 d33b 55e3 2b3e 639c e83e a6f9 853e
00000200: 5a7e 7cbc 55ca 7fbc 776d 093e d5d9 7b3e
00000210: 5067 183e 9fb2 543e 8a33 30be 2c46 483e
00000220: 7e52 943d 870b cc3d 9535 c13d 2570 dcbc
00000230: de00 093d 6627 a5bc 22e1 8e3e 12aa 1d3e
00000240: 6de3 063e dbf9 813e 98a6 933d 7025 6e3e
00000250: af30 803e 624a 023e ceb9 863d d6dd 663d
00000260: 154a 703d 2bfc 99bd a560 283e bf68 e93c
00000270: 0756 8fbd 6d9e fdbd f4ed 383c 690c 8d3d
00000280: 5be3 8dbd 8df4 8ebd 0f6f b93d 0bc1 b8bd
00000290: 4e4d 2c3d ab67 043e f5ca 343e e08a 643e
000002a0: 1df8 d93d 88c0 2fbe 4bfc 05be a373 563e
000002b0: 85a4 81bd b5f3 61be b0ac c93d debd 233e
000002c0: 0b96 4b3d 8b13 85bd d4bc 0c3d af19 50bd
000002d0: cbf9 d83d 6b19 7cbc fd53 2fbe 5009 8bbd
000002e0: f3b9 30bd a45c b43c aac7 1bbd 60c4 5ebd
000002f0: 32c3 5abe cc71 1f3d 8ced 23bb 9067 f13c
00000300: 0ee4 833d c3e6 a3bd 57e3 c23d 0e27 93bd
00000310: 0b73 72bd 64de 043e 42cb 75bd ed6b 23be
00000320: de1e 00be 40ee 75bd 5576 b6bd b01b f8bd
00000330: 67d0 54bc 70d8 71bd f340 25bc 6edf 88bd
00000340: a085 1c3c 17ce cabd e845 05be 4b7d 21be
00000350: f247 60be cc06 18be fff9 babc 13bc 6bbc
00000360: d909 14be 6acd 693c 01a0 8a3d c8cc 5fbe
00000370: dc6b 803d a10a 81ba 1aab 4e3d 9664 9abd
00000380: 7549 a33d d0a3 ee3d 8ad5 94bd bdff e6bb
00000390: 5335 3ebe 5b4c 43bc 53a2 63bb fdf5 28bd
000003a0: d77f b23a 7cb3 483c df70 2ebd 7c5f 9ebc
000003b0: 2ac4 66be 336b aa3d a497 213e ae9d 463e
000003c0: bd2c 5abf 1565 d83e d5d1 d8bd d0ee 70b9
000003d0: 2f8d 2bbf 2dc2 51be ec4b b23e 0793 ae3e
000003e0: c2fa d63e 38e9 1cbd 1772 40be aeed 3ebe
000003f0: cd8b 1fbf 2f6e 29be efec a03e 38f6 b0be

fca1.bias f4 [60]
0.038981456 -0.07236931 0.08673773 0.00070938584 -0.2180805 0.11894368 0.008233325 0.15949434
-0.08861905 0.0263638 -0.10430451 -0.04616089 -0.003126994 0.0020259996 -0.036925707 0.074040025
-0.02765934 0.13256307 -0.045922644 0.07771898 0.08908238 0.16156565 0.017003767 -0.0029335958
-0.06068058 0.046370976 -0.091263354 -0.015478868 -0.011965426 0.15442407 0.12509453 -0.18068275
0.13819365 -0.114450134 0.2158467 -0.08035246 0.01432501 -0.007627364 0.21512009 -0.01241158
0.21824954 0.06996493 0.016358402 0.12553148 -0.12584445 0.10598401 -0.06122514 0.18339963
-0.18632524 0.06202311 0.051636714 0.16643986 0.092625014 -0.09355506 -0.10844893 0.030398028
0.010611891 -0.0557182 -0.0063528414 0.16772282
00000000: 05ab 1f3d 5c36 94bd 8da3 b13d 14f6 393a
00000010: 7f50 5fbe be98 f33d 11e5 063c 7c52 233e
00000020: e87d b5bd e5f8 d73c 9a9d d5bd 3413 3dbd
00000030: 41ee 4cbb a2c6 043b 693f 17bd 4ca2 973d
00000040: d795 e2bc 9dbe 073e 6219 3cbd 212b 9f3d
00000050: d370 b63d 7771 253e 7c4b 8b3c 9241 40bb
00000060: 338c 78bd 7eef 3d3d 48e8 babd 149b 7dbc
00000070: a20a 44bc 5821 1e3e c818 003e e604 39be
00000080: a382 0d3e d564 eabd eb06 5d3e d58f a4bd
00000090: 72b3 6a3c f7ee f9bb 7148 5c3e f159 4bbc
000000a0: cf7c 5f3e c649 8f3d 0e02 863c 538b 003e
000000b0: 5edd 00be 250e d93d 36c7 7abd 1dcd 3b3e
000000c0: 0bcc 3ebe f20b 7e3d 0581 533d 366f 2a3e
000000d0: 2fb2 bd3d cc99 bfbd 791a debd 4905 f93c
000000e0: 7fdd 2d3c c438 64bd 7f2b d0bb 88bf 2b3e

fca2.weight f4 [1, 60]
-0.9933223 0.2995957 -0.11936646 0.040189266 0.6702555 -0.9482478 -0.14592528 0.5312774
0.10649749 0.24307242 0.9697457 0.40783015 -0.24617389 0.5182042 0.27335113 -0.20103776
-0.13477892 0.5343888 -0.3176485 0.4081264 -0.15743423 0.34657404 -0.27457222 -0.18793738
-0.123604074 -0.054476943 -0.07840439 0.62371206 0.59955627 0.9607879 -0.85473984 0.43610558
0.5415952 0.033116262 0.4593367 0.016433192 -0.081024334 -0.055876262 -0.1907903 -0.15239479
0.5539005 -0.072431944 0.4525404 0.41103026 0.013711155 -0.28799674 -0.06581231 0.6580767
0.2754599 -0.08525485 -0.07298356 0.5586636 0.5784215 -0.157004 0.33722115 -0.14313918
0.35654128 -0.19698521 -0.11219278 0.43153456
00000000: 5f4a 7ebf 9c64 993e 6776 f4bd 809d 243d
00000010: dd95 2b3f 5ec0 72bf 706d 15be cc01 083f
00000020: 5b1b da3d fae7 783e 4141 783f 1dcf d03e
00000030: 0215 7cbe 08a9 043f aef4 8b3e d8dc 4dbe
00000040: 7c03 0abe b4cd 083f d3a2 a2be f2f5 d03e
00000050: 7036 21be 2772 b13e bb94 8cbe a872 40be
00000060: 2224 fdbd 3723 5fbd 7b92 a0bd 98ab 1f3f
00000070: 857c 193f 32f6 753f 3bd0 5abf 3b49 df3e
00000080: fca5 0a3f eba4 073d 2e2e eb3e e79e 863c
00000090: 16f0 a5bd 82de 64bd 885e 43be 610d 1cbe
000000a0: 6ccc 0d3f 3357 94bd 60b3 e73e 8f72 d23e
000000b0: c1a4 603c 4f74 93be 9bc8 86bd b777 283f
000000c0: 1409 8d3e 189a aebd 6878 95bd 9404 0f3f
000000d0: 6e13 143f a8c5 20be 40a8 ac3e 1493 12be
000000e0: 948c b63e 7eb6 49be 54c5 e5bd 19f2 dc3e
