DDPG/models/7700_actor.pt (torch, 2835 bytes, 3 tensors)

fa1.weight f4 [60, 3]
0.4664308 -1.0894808 -0.05756735 0.6165619 -1.1949946 -0.74127173 1.0168397 -1.8297585
-0.21983917 0.90904003 1.1075683 -1.282796 1.0631088 1.2065878 -0.09724221 0.26605284
1.9524194 -0.19028798 -0.092620604 -0.1603878 -0.005839608 1.0901176 1.2411683 -0.09606776
-1.3876654 -1.1029887 -0.5769704 -0.21193683 0.27660576 -0.8152475 0.7008711 -0.78229463
-0.65604275 -0.28528938 -0.9234456 0.8525378 -0.03422885 0.16427618 -0.0151247 1.0084482
-1.617975 -0.8460596 -0.50615513 -1.1042682 1.1489857 -0.1139807 0.5018953 -0.74338084
-1.4558294 -0.11920652 -1.0537153 1.0579231 -0.9546153 -0.85474426 0.76803726 0.97679806
-0.17325838 -0.04955231 0.00852733 -0.053729255 -0.74243313 -1.1136967 0.84044194 0.47102445
-0.09121862 0.036027655 0.89660686 -0.83608013 -0.8049338 0.15692894 -0.1535959 -0.5209459
1.0223479 -0.040136814 0.9055683 -0.66507995 -1.0797883 0.7603753 0.041144624 -0.10252819
0.025459757 0.8296689 -1.1415075 -0.81164896 0.032980476 -0.019603023 -0.6632816 -1.9223611
-1.7748882 -0.34851402 0.8526497 -1.7678428 -0.20689848 0.6762036 -0.029323151 -0.861711
-0.10727904 0.4323105 0.75158644 0.8609105 -0.73083365 0.90141094 0.888559 -1.5450121
-0.9110961 -1.270333 -0.3618281 -1.0176646 0.50848037 0.7415154 0.38038945 -0.07740201
0.3817727 -0.7021954 -0.08388511 0.46887928 0.8393129 -0.813879 0.7054286 -0.82354903
1.2221212 0.14856558 1.1997719 -0.5414617 1.1174698 -0.772464 0.5888848 0.7887085
0.36315677 1.3450766 0.25734288 1.3165171 -1.7979677 -1.7707597 -0.33685964 1.025961
1.177201 -0.09919882 -0.28250042 -1.0162743 0.7664017 0.88411164 -1.4933875 -0.9165734
0.73527586 0.92554724 0.42722997 -2.3003132 2.0331242 0.16687113 0.8410578 -1.542145
-0.8984586 0.869173 -0.5071157 -0.9248934 0.06867318 1.3963035 -0.35854626 -0.3698341
-1.2087784 0.9401421 0.96084964 0.43626732 0.850827 -0.6763649 -1.0998615 0.7791877
1.2071061 0.07122539 1.1085538 0.48731506 0.8248093 0.40209055 1.2994277 1.4675424
-0.09482355 -0.6926996 -1.0279694 0.7626893
00000000: 05d0 ee3e 1b74 8bbf becb 6bbd 00d7 1d3f
00000010: 95f5 98bf fcc3 3dbf ce27 823f 8735 eabf
00000020: 851d 61be d9b6 683f ccc4 8d3f a932 a4bf
00000030: f313 883f 7871 9a3f ec26 c7bd 1438 883e
00000040: e1e8 f93f dada 42be dfaf bdbd b33c 24be
00000050: 2f5a bfbb f988 8b3f 9ade 9e3f 2cbf c4bd
00000060: 059f b1bf bc2e 8dbf 55b4 13bf f805 59be
00000070: 459f 8d3e 0fb4 50bf 4a6c 333f 7644 48bf
00000080: 6bf2 27bf 7311 92be ee66 6cbf eb3f 5a3f
00000090: 8d33 0cbd 0438 283e 97cd 77bc d514 813f
000000a0: ce19 cfbf 5d97 58bf 6293 01bf a958 8dbf
000000b0: f711 933f b76e e9bd 367c 003f 354e 3ebf
000000c0: 9e58 babf 8c22 f4bd 25e0 86bf 066a 873f
000000d0: ab61 74bf 85d0 5abf 179e 443f 700f 7a3f
000000e0: a56a 31be 5df7 4abd 37b6 0b3c 3513 5cbd
000000f0: 1910 3ebf 9d8d 8ebf 3427 573f 1e2a f13e
00000100: d4d0 babd bc91 133d 0788 653f 5909 56bf
00000110: 2410 4ebf fbb1 203e 3e48 1dbe b65c 05bf
00000120: 4cdc 823f 8066 24bd 53d3 673f ae42 2abf
00000130: 8136 8abf f5a7 423f 4487 283d 4dfa d1bd
00000140: fb90 d03c 2e65 543f eb1c 92bf 3ac8 4fbf
00000150: 8916 073d 8596 a0bc d3cc 29bf ee0f f6bf
00000160: 892f e3bf 6e70 b2be 4047 5a3f ac48 e2bf
00000170: 32dd 53be ae1b 2d3f 1b37 f0bc 1899 5cbf
00000180: 1db5 dbbd cd57 dd3e f867 403f a164 5c3f
00000190: ea17 3bbf dec2 663f 9a78 633f f5c2 c5bf
000001a0: 983d 69bf 469a a2bf 8841 b9be d542 82bf
000001b0: c52b 023f f4d3 3d3f 68c2 c23e f284 9ebd
000001c0: b677 c33e 14c3 33bf f5cb abbd f210 f03e
000001d0: 36dd 563f 605a 50bf f896 343f 1cd4 52bf
000001e0: 786e 9c3f 9321 183e 2092 993f 3c9d 0abf
000001f0: 4009 8f3f 33c0 45bf 27c1 163f cde8 493f
00000200: afef b93e 782b ac3f 72c2 833e a283 a83f
00000210: ce23 e6bf 41a8 e2bf de78 acbe b152 833f
00000220: 86ae 963f c028 cbbd e5a3 90be 4715 82bf
00000230: e732 443f 2455 623f 5227 bfbf 8ea4 6abf
00000240: 0a3b 3c3f aaf0 6c3f e3bd da3e 5538 13c0
00000250: b51e 0240 44e0 2a3e 904f 573f 0265 c5bf
00000260: 6201 66bf 1f82 5e3f 56d2 01bf d0c5 6cbf
00000270: 86a4 8c3d 13ba b23f 6093 b7be e55a bdbe
00000280: 40b9 9abf 27ad 703f 3efa 753f 6e5e df3e
00000290: cccf 593f 4026 2dbf 43c8 8cbf d878 473f
000002a0: 7482 9a3f 9ede 913d 17e5 8d3f 5c81 f93e
000002b0: b426 533f d0de cd3e a653 a63f 6ed8 bb3f
000002c0: d932 c2bd c354 31bf 8094 83bf 9b3f 433f

fa1.bias f4 [60]
0.8933239 0.09240121 0.6541348 -1.1717968 0.04732856 -0.9567777 -0.295763 0.045104027
-0.24921863 0.6612525 -0.05589454 0.79408956 -0.28385732 -0.16085628 0.83232975 0.5376301
0.16802615 -0.3504087 0.30836824 -0.55098695 1.0103617 0.78576344 -0.51101756 0.21911338
-0.56703544 0.9176029 -0.31140813 -0.1451761 0.8184731 -0.44046807 0.59310055 -0.4824399
-0.9536759 -1.2658939 -0.30046698 0.19080916 -0.050012495 0.5834547 -0.91741043 0.15518695
-0.16689059 0.2649547 0.16456085 -0.21392605 -0.4171082 0.05694729 0.81900275 -0.29726103
0.18975173 -0.5488042 -0.34722885 -0.6326269 0.3440593 0.9035897 -0.5733249 0.9329879
-0.19436589 -0.0034531646 0.029847529 0.94117266
00000000: e0b0 643f d83c bd3d 6175 273f 70fd 95bf
00000010: 98db 413d 62ef 74bf 3f6e 97be 00bf 383d
00000020: 2b33 7fbe d847 293f acf1 64bd 7449 4b3f
00000030: bf55 91be 82b7 24be 9013 553f 20a2 093f
00000040: 0c0f 2c3e c568 b3be 71e2 9d3e 7b0d 0dbf
00000050: 8853 813f cb27 493f 0cd2 02bf 425f 603e
00000060: 3c29 11bf 06e8 6a3f e370 9fbe 0ba9 14be
00000070: 7487 513f 0885 e1be 70d5 173f 5d02 f7be
00000080: 1b24 74bf d008 a2bf cfd6 99be 7a63 433e
00000090: e7d9 4cbd 4a5d 153f 69db 6abf 54e9 1e3e
000000a0: 5ee5 2abe 24a8 873e a482 283e 6e0f 5bbe
000000b0: 358f d5be 9041 693d 2aaa 513f 9932 98be
000000c0: 474e 423e 6f7e 0cbf fbc7 b1be d6f3 21bf
000000d0: 8a28 b03e a851 673f 6cc5 12bf 4cd8 6e3f
000000e0: da07 47be 7d4e 62bb ce82 f43c b1f0 703f

fa2.weight f4 [1, 60]
0.6478364 0.78469366 0.7671152 1.8119775 -1.208232 -2.8890657 -0.0684354 -1.2585297
-2.1814928 -0.35505736 0.7003875 0.48245654 -0.16032678 1.5792602 1.3821912 -0.5119069
-1.5556053 1.0294272 -0.5561607 0.11315759 1.0636775 0.30243182 1.2409556 0.34836584
-1.523911 1.1574322 0.07130343 0.74893224 -0.4962143 -2.100195 0.9340051 1.3917339
-1.4103785 -1.3659676 1.4835885 -1.3606341 -0.76548123 -0.42748594 -1.7883285 -0.88457346
-1.7292743 -1.0626386 -0.20593818 -1.6159413 -1.9889966 -0.98302037 0.7782656 1.4591879
-0.31379735 1.5013263 1.5048583 1.3064541 -0.8721039 1.1708478 -1.4138072 1.088669
-1.6761519 -0.46952313 -1.6711061 0.93104345
00000000: 9bd8 253f afe1 483f a961 443f e1ee e73f
00000010: 59a7 9abf 74e6 38c0 dc27 8cbd 8017 a1bf
00000020: 949d 0bc0 14ca b5be 984c 333f 8b04 f73e
00000030: b42c 24be 3325 ca3f a4eb b03f 550c 03bf
00000040: 131e c7bf 45c4 833f 8c60 0ebf 2bbf e73d
00000050: 9626 883f 58d8 9a3e a2d7 9e3f 025d b23e
00000060: 840f c3bf bd26 943f 8807 923d 06ba 3f3f
00000070: cd0f febe 9869 06c0 f51a 6f3f 5624 b23f
00000080: 4887 b4bf 07d8 aebf 3ae6 bd3f 4229 aebf
00000090: 94f6 43bf 70df dabe f3e7 e4bf 6873 62bf
000000a0: dc58 ddbf 8b04 88bf 75e1 52be 2ad7 cebf
000000b0: 7197 febf 39a7 7bbf 6a3c 473f abc6 ba3f
000000c0: 0caa a0be 762b c03f 329f c03f e339 a73f
000000d0: 3442 5fbf 57de 953f a2f7 b4bf 8159 8b3f
000000e0: 258c d6bf 5665 f0be cee6 d5bf dd58 6e3f
