DDPG/models/7900_critic.pt (torch, 18423 bytes, 7 tensors)

fc1.weight f4 [30, 3]
000000 02 ae c5 be 06 73 15 bf 65 0a 43 bd 20 51 07 bf
       -0.3860932 -0.58378637 -0.047617335 -0.5285816
000010 68 c8 78 be 0d 82 fa bd f4 d9 0e 3f 39 db f1 3e
       -0.24295199 -0.122318365 0.5580132 0.47237566
000020 07 2f 39 3e c2 34 d7 be bc 10 7c bf fa a6 f6 bd
       0.18084346 -0.4203244 -0.98463035 -0.12043567
000030 11 7d 77 bf 26 e0 ae be af ab 66 bd 12 a2 5f 3c
       -0.9667521 -0.34155387 -0.056316074 0.01364948
000040 27 2c a1 be 9d 99 25 bc 56 b9 81 3d f6 d9 b6 bf
       -0.31478998 -0.010107425 0.06334178 -1.4285266
000050 7c de 86 be 66 af 02 bf 0f 56 ba 3f 7a ba b4 3e
       -0.26341617 -0.51048887 1.4557513 0.3529852
000060 c9 f0 0b bf fe 5a 30 3f cc c0 04 3d 30 5c 10 3d
       -0.54664284 0.68888843 0.032410428 0.035244167
000070 d0 1e cb 3d f0 f3 7a bc a2 80 69 3d 52 a2 00 3e
       0.099179864 -0.015316948 0.05700744 0.1256192
000080 12 1c 75 bc 48 c2 40 bf bc fa d4 3e 96 e1 94 3e
       -0.014960306 -0.7529645 0.41597545 0.29078358
000090 88 2b 23 3f 1f 73 bc be 36 e0 28 be b5 3f c0 be
       0.637383 -0.3680658 -0.1649178 -0.37548605
0000a0 c8 2b 93 be 50 ca d4 3c f9 17 3d 3f 36 2d f5 3e
       -0.2874434 0.025975376 0.73864704 0.47886056
0000b0 b8 1b 57 3e 6b ed d2 be 65 61 a7 bd 89 ca dd 3d
       0.21006668 -0.4119676 -0.081728734 0.10829646
0000c0 46 41 c3 3e fb 54 16 bf 87 51 ec bd 1b 0b e1 be
       0.38135737 -0.5872342 -0.115389876 -0.43953785
0000d0 d2 cd cd be 23 f6 13 be c6 f8 ed 3d ef c2 59 3f
       -0.4019609 -0.14449362 0.116197154 0.8506307
0000e0 80 5e 0d 3e 69 05 59 3d 94 e2 55 3f 51 27 2d 3e
       0.1380558 0.052983675 0.83548856 0.1690953
0000f0 2f 6b 39 3e 76 e9 87 bd f4 5c 5e 3e 2a 95 48 bc
       0.18107294 -0.06636326 0.21715146 -0.012242595
000100 97 df d8 bd 71 a1 3d 3a a3 32 46 be 55 26 0c 3f
       -0.105895214 0.00072338345 -0.19355254 0.5474599
000110 cc 6f 05 3d d8 89 fc be 9e e8 81 3f 99 cf 31 3e
       0.03257732 -0.49323916 1.0149114 0.17364348
000120 bb 20 66 bf 9c b7 e3 3e 71 b0 8f 3e c7 e0 56 bf
       -0.8989369 0.4447602 0.28064302 -0.83936733
000130 91 a3 af be 31 0c 05 bd 83 24 f2 be 74 e0 d8 bc
       -0.3430448 -0.03248233 -0.4729348 -0.026474215
000140 8f 9b a2 3d d5 56 3b bf 2d 12 b3 bc 9e 15 d5 3d
       0.07939827 -0.7317937 -0.021859253 0.10404514
000150 2a 65 fa be fa 31 16 3f d6 3b 0c 3e f0 09 5b bd
       -0.48905307 0.5867001 0.136947 -0.053476274
000160 c6 94 10 bf 4a 7d a6 be
       -0.5647701 -0.32517463

fc1.bias f4 [30]
000000 f1 a1 51 bc 62 68 ab 3e 80 b3 90 be 87 d9 8e be
       -0.0127949575 0.33478075 -0.28261948 -0.27900335
000010 53 e1 b7 be 51 1a ca be ac bc 06 bf 73 d3 bf bd
       -0.35914096 -0.39473203 -0.5263164 -0.093665026
000020 dd c0 ff be 40 41 b0 be b0 2e b7 be 62 54 0b bf
       -0.4995183 -0.34424782 -0.35777807 -0.5442563
000030 be 31 5d be f2 27 02 3f c1 42 d5 be b3 7c 8c 3e
       -0.21601006 0.508422 -0.41652492 0.27438888
000040 81 c3 09 be 3d 64 05 3f b5 35 b1 3d f3 85 e6 3e
       -0.13453485 0.52106076 0.08652822 0.4502407
000050 f6 6b 28 3f 0c 93 b8 be 39 04 dd 3e 33 7b a4 be
       0.65789735 -0.36049688 0.43167284 -0.32125244
000060 99 f5 e1 3d 0f 8a 71 3d 0a 61 64 3e 57 77 06 3e
       0.11033172 0.058969554 0.22302642 0.13131462
000070 81 91 12 3f b1 88 60 be
       0.5725327 -0.21927144

fa1.weight f4 [30, 1]
000000 49 fb 5c bc b3 a7 6d bc 07 46 72 ba 19 f5 2a bd
       -0.013487645 -0.014505315 -0.0009242002 -0.04173765
000010 c2 fe 65 3d e3 4b e9 3d f6 3f 8a 3d 7d 0c a4 3d
       0.05615116 0.11391427 0.06750481 0.080101945
000020 f9 65 32 be bb 09 46 be 24 15 d3 bd 7f 30 0b 3d
       -0.17421712 -0.1933965 -0.10306767 0.033981796
000030 47 93 30 3d 47 a8 b1 3d 70 e6 18 be 41 a5 a8 bd
       0.043109205 0.086746745 -0.14931655 -0.08234645
000040 e2 b7 06 3d de 40 fd 3b d6 c9 18 3e a7 ef 88 bd
       0.032890208 0.00772868 0.14920744 -0.06686335
000050 54 ed 02 be 21 07 69 bd 9f c3 82 bd 2a 8d 55 3d
       -0.12785846 -0.056891564 -0.06384968 0.052136578
000060 8c a7 99 bd 4b 49 0f bd e6 ed b3 bd 26 df 0c 3e
       -0.0750266 -0.034982007 -0.0878561 0.13757
000070 40 55 22 3a 0a 50 6b bd
       0.0006192513 -0.057449378

fa1.bias f4 [30]
000000 b5 70 28 3f f3 3f 04 bd a0 02 6e bd 44 a3 43 bf
       0.6579698 -0.03228755 -0.058107972 -0.76421
000010 68 c8 4e bf ea f3 53 bf b0 1f f0 3d 58 08 11 bf
       -0.80774546 -0.8279406 0.11724794 -0.56653357
000020 42 79 b3 be a6 12 6a bf 3d 2f ea 3d c1 52 8c bd
       -0.3505345 -0.91434705 0.11434791 -0.068517216
000030 4e f3 bd bc 14 33 5e bf 94 19 6c bd fd 0d 0a be
       -0.023187306 -0.8679669 -0.05764158 -0.13481899
000040 dd bd 64 3d c0 30 34 3f f0 36 03 bf f0 19 6b be
       0.05584513 0.70386887 -0.512557 -0.22959113
000050 c0 71 83 be 6b d6 e5 3d 42 be 19 bf a2 d2 fe 3e
       -0.25672722 0.112225376 -0.60055935 0.49770075
000060 a3 44 44 3f 9c 4c 78 bd 2a d0 48 bf ff 65 0c 3d
       0.7666723 -0.060619935 -0.78442633 0.03427696
000070 c4 f2 ad be f4 ba dc 3d
       -0.33974278 0.10777846

fca1.weight f4 [60, 60]
000000 14 c9 e2 3c 23 7a 93 3e 5a e4 ad bf eb 0e 09 be
       0.027683772 0.2880412 -1.3585312 -0.13384597
000010 da 80 3f bb f9 29 f2 3d 32 74 2d 3e 6f 21 d4 bd
       -0.0029221089 0.11824412 0.16938856 -0.103579395
000020 7a 6d 19 c0 fc 21 cb bd 38 d1 53 bd c7 9a e6 be
       -2.397307 -0.099185914 -0.0517132 -0.4503996
000030 e7 95 30 be 3c 9d 98 3d e0 62 fb 3e 53 6e f9 3d
       -0.17244683 0.07451865 0.49098873 0.12179246
000040 ce 03 eb 3e 36 73 a5 3e 5c e4 81 be 78 60 dd bd
       0.4590134 0.3231446 -0.25369537 -0.108094156
000050 37 f7 46 be ed 32 49 bc 93 54 f5 3e 7b e1 da 3d
       -0.19430242 -0.012280208 0.47916088 0.10687538
000060 f5 b3 c0 be d8 88 7e bd cd 23 ae bc bb 38 4c 3e
       -0.37637296 -0.062142223 -0.021257306 0.19943516
000070 09 40 48 3e 14 93 22 bf ce c6 f6 38 7d a8 12 bd
       0.19555677 -0.63505673 0.00011767224 -0.035805214
000080 6a f7 30 3e 4e bc b0 bb e5 95 19 3d a7 0f 32 be
       0.17281881 -0.0053935414 0.037496466 -0.17388783
000090 df ae ae 3c f0 01 5d bd 6a 20 f0 3d e3 47 fd bd
       0.02132362 -0.053956926 0.117249325 -0.12367227
0000a0 c3 01 bc be e7 e4 db bd 0a ae 09 3d 00 05 e2 3d
       -0.36720094 -0.10737019 0.033613242 0.1103611
0000b0 b2 70 2c be a5 57 18 be e1 f5 36 3e 06 79 a2 bc
       -0.16839865 -0.14877184 0.17867233 -0.0198331
0000c0 fc cb 0a bd ce ac 8c 3d 25 6b ba 3d 94 d9 53 bd
       -0.03388594 0.068688974 0.091024674 -0.05172117
0000d0 bc 68 90 bd a7 68 af bd 98 5f 63 be 37 12 86 be
       -0.070512265 -0.08564883 -0.22204435 -0.26185772
0000e0 ba b9 88 3d 94 2f 1a 3e 97 26 92 bd 88 31 10 be
       0.066760495 0.15057212 -0.07136267 -0.14081395
0000f0 f1 33 62 3e 4e 25 f7 3c 4f 87 de bf 72 f0 b2 3d
       0.22090127 0.030169155 -1.7385043 0.087372676
000100 3a 1b b9 3e 3f f8 b0 bd bc df 4d 3e 5b 90 c0 3e
       0.36153585 -0.08641099 0.20104879 0.37610134
000110 db 8e 16 bf c4 c5 0f be b2 7c 1e 3d 33 67 73 3f
       -0.5881173 -0.14040285 0.038693137 0.95079345
000120 4a f9 e4 3e 14 36 e6 bd db 22 f8 bf 23 95 fa bd
       0.44721442 -0.11240783 -1.9385637 -0.12235477
000130 5f 6b 6b 3e 4d 3d 3f 3b ff 63 d6 bf a7 6d c5 bf
       0.22990178 0.0029180825 -1.6749266 -1.5424088
000140 35 9b 9b 3e 95 56 5a be b4 18 18 be 30 52 2a 3f
       0.3039185 -0.21322091 -0.14853173 0.6653166
000150 d7 94 0b 3e cb 98 3a 3e a4 aa 32 be 29 7d 86 be
       0.13630997 0.18222348 -0.17447907 -0.26267365
000160 c7 ba 64 3e 63 d9 c2 be 43 b9 56 be 83 a4 66 be
       0.22336875 -0.38056478 -0.20969109 -0.22523694
000170 af 13 10 3d ff 83 0c 3d 88 79 92 3d e5 56 61 bd
       0.03517502 0.03430557 0.071520865 -0.05501451
000180 c8 50 26 3d 17 1f 6c 3c 2e a8 16 bb db e4 ab bd
       0.040604383 0.014411709 -0.0022988426 -0.0839326
000190 9b 7d 0b be 56 8f 31 3e c8 09 9b 3c 53 ae a5 3b
       -0.13622133 0.17339835 0.018925563 0.0050561815
0001a0 70 ec 88 be ef dc f9 be f4 66 4f 3d 0b 6f 18 be
       -0.26742887 -0.4880137 0.050635293 -0.1488611
0001b0 ea 7f f4 bc 47 e2 13 3d 69 54 46 3e 7b 90 a3 be
       -0.02984615 0.036104467 0.19368137 -0.31946167
0001c0 4b 49 18 bd 17 bb 97 bd 69 d6 3d bc 11 30 42 be
       -0.037179273 -0.074087314 -0.011586764 -0.18963648
0001d0 36 45 cc bc 9e f2 ac 3d 0d d2 f0 3c ed 24 05 bf
       -0.024935346 0.08444713 0.029397035 -0.5200947
0001e0 7f 54 73 3c 5f b1 a5 3e a9 1d 1e 3e d4 be 56 3e
       0.014851688 0.32361886 0.15441002 0.20971233
0001f0 ce 55 b9 bb 55 e3 2b 3e 73 fb eb 3e 9c bd 84 3e
       -0.0056559807 0.16785939 0.46090278 0.2592591
000200 78 8e ce bc 55 ca 7f bc 77 6d 09 3e 6d 1e 78 3e
       -0.025214419 -0.015612205 0.13420664 0.24230357
000210 14 93 07 3e d5 da 5a 3e bc 42 2f be 58 4f 49 3e
       0.132397 0.2137254 -0.17115301 0.19659173
000220 d4 4e 66 3d f3 f0 dd 3d aa 16 b4 3d 8c 7e c6 bc
       0.05622752 0.10836973 0.08793385 -0.024230264
000230 ef 62 62 3c 66 27 a5 bc 1d 37 8d 3e 3a 5d 1c 3e
       0.013817533 -0.020160388 0.2758111 0.15269938
000240 c4 b3 09 3e eb 06 7a 3e 31 7d 86 3d dd 09 5a 3e
       0.13447481 0.24416701 0.06566847 0.21292825
000250 99 7d 84 3e 17 2e 05 3e 3a f1 90 3d d6 dd 66 3d
       0.25877073 0.13005863 0.0707726 0.056363903
000260 15 4a 70 3d 2b fc 99 bd a5 60 28 3e bf 68 e9 3c
       0.0586644 -0.075188 0.16443117 0.02849233
000270 bc d4 8c bd 6d 9e fd bd f4 ed 38 3c 69 0c 8d 3d
       -0.06876513 -0.12383733 0.011287201 0.06887133
000280 5f 7d 92 bd 8d f4 8e bd 08 86 a9 3d 0b c1 b8 bd
       -0.07152819 -0.06980238 0.082775176 -0.09021195
000290 16 b7 31 3d f6 0b f8 3d 2c 0c 34 3e 1b 42 6a 3e
       0.043387495 0.12111656 0.17582768 0.2287678
0002a0 1d f8 d9 3d 88 c0 2f be 4b fc 05 be 1c cd 5d 3e
       0.10643027 -0.17163289 -0.13084523 0.21660274
0002b0 85 a4 81 bd fd 40 5e be 01 0b d7 3d d5 e4 1c 3e
       -0.06330208 -0.21704479 0.10500146 0.15321667
0002c0 0b 96 4b 3d 2f 2a 93 bd d4 bc 0c 3d ae 24 3d bd
       0.04970364 -0.0718578 0.034359768 -0.04617756
0002d0 cb f9 d8 3d 6b 19 7c bc fd 53 2f be 50 09 8b bd
       0.10594519 -0.0153869195 -0.17121883 -0.067888856
0002e0 f3 b9 30 bd a4 5c b4 3c aa c7 1b bd 60 c4 5e bd
       -0.043146085 0.02201683 -0.03803221 -0.054386497
0002f0 32 c3 5a be cc 71 1f 3d 8c ed 23 bb 90 67 f1 3c
       -0.21363524 0.038926885 -0.0025013415 0.029468328
000300 0e e4 83 3d c3 e6 a3 bd 57 e3 c2 3d 0e 27 93 bd
       0.06439982 -0.08002999 0.09516018 -0.071851835
000310 0b 73 72 bd 64 de 04 3e 42 cb 75 bd ed 6b 23 be
       -0.059191745 0.1297546 -0.060008295 -0.15959139
000320 de 1e 00 be 40 ee 75 bd 55 76 b6 bd b0 1b f8 bd
       -0.12511775 -0.060041666 -0.08909289 -0.12114656
000330 67 d0 54 bc 70 d8 71 bd f3 40 25 bc 6e df 88 bd
       -0.01298914 -0.0590443 -0.010086286 -0.06683241
000340 a0 85 1c 3c 17 ce ca bd e8 45 05 be 4b 7d 21 be
       0.009553343 -0.0990259 -0.13014948 -0.15770452
000350 f2 47 60 be cc 06 18 be ff f9 ba bc 13 bc 6b bc
       -0.21902445 -0.14846343 -0.022824286 -0.014388102
000360 d9 09 14 be 6a cd 69 3c 01 a0 8a 3d c8 cc 5f be
       -0.14456882 0.014270166 0.067687996 -0.21855462
000370 dc 6b 80 3d a1 0a 81 ba 1a ab 4e 3d 96 64 9a bd
       0.062705725 -0.0009845087 0.050456144 -0.075387165
000380 75 49 a3 3d d0 a3 ee 3d 8a d5 94 bd bd ff e6 bb
       0.07972995 0.116523385 -0.07267292 -0.0070495293
000390 53 35 3e be 5b 4c 43 bc 53 a2 63 bb fd f5 28 bd
       -0.18575029 -0.01192006 -0.0034734204 -0.041250218
0003a0 d7 7f b2 3a 7c b3 48 3c df 70 2e bd 7c 5f 9e bc
       0.0013618422 0.012249824 -0.04258811 -0.01933264
0003b0 2a c4 66 be 33 6b aa 3d a4 97 21 3e ae 9d 46 3e
       -0.22535768 0.08321228 0.15780503 0.19396088
0003c0 b2 b7 57 bf d3 7b db 3e 51 01 c9 bd 16 17 00 bc
       -0.8426467 0.42867908 -0.09814704 -0.007818004
0003d0 4a 95 25 bf 2d c2 51 be 42 fc b2 3e 40 64 c1 3e
       -0.6468092 -0.20484228 0.34958082 0.37771797
0003e0 09 10 e2 3e 38 e9 1c bd 17 72 40 be b4 a4 58 be
       0.4415286 -0.038308352 -0.18793522 -0.2115658
0003f0 c2 db 22 bf 0f 5d 4d be 34 52 d3 3e ac ce c6 be
       -0.63616574 -0.2005503 0.41273654 -0.38829553

fca1.bias f4 [60]
000000 be a7 58 3d fd 0e 82 bd a8 e1 b9 3d 14 f6 39 3a
       0.052894346 -0.06350515 0.09076244 0.00070938584
000010 8a 44 68 be cb 8c f2 3d 1f 24 58 3c dd 18 1b 3e
       -0.22682396 0.118432604 0.013192206 0.15146203
000020 e8 7d b5 bd 8e 0a d1 3c 6c 06 06 be 1c 49 5a bd
       -0.08861905 0.025517728 -0.13088387 -0.05329238
000030 72 e3 24 3b fb 80 6e bb 69 3f 17 bd 1f 66 b9 3d
       0.0025159982 -0.0036392796 -0.036925707 0.09052681
000040 df 97 81 bc cb 12 08 3e 85 7b 22 bd 24 5d b5 3d
       -0.015819488 0.13288419 -0.03966858 0.08855656
000050 42 1c c0 3d 87 2b 1e 3e 0a 2b bc 3c 31 8a 16 3b
       0.0938039 0.15446292 0.022969741 0.0022970552
000060 3a 0b 69 bd 7e ef 3d 3d 48 e8 ba bd e6 de d5 bc
       -0.056895472 0.046370976 -0.091263354 -0.026107263
000070 a2 0a 44 bc ab 05 15 3e d2 bb f7 3d 79 68 3c be
       -0.011965426 0.14552943 0.12096371 -0.18399228
000080 c5 06 08 3e d5 64 ea bd 63 bc 5b 3e d5 8f a4 bd
       0.13283832 -0.114450134 0.21458583 -0.08035246
000090 82 cc 88 3c c4 ea 10 bc e9 c6 61 3e f5 f7 fb bb
       0.01669908 -0.008845035 0.22048534 -0.007689471
0000a0 f4 ca 66 3e 5f 1f 94 3d 2c 10 1c 3c 5a da 06 3e
       0.22538358 0.07232546 0.00952534 0.13169232
0000b0 5e dd 00 be 3c 7e e5 3d e8 bd 86 bd b2 1c 40 3e
       -0.12584445 0.11205718 -0.065791905 0.18760946
0000c0 58 f5 46 be dc f0 84 3d 89 39 5b 3d e7 7d 2c 3e
       -0.19429529 0.06491253 0.053521667 0.16844903
0000d0 27 a5 cb 3d 11 75 b5 bd 3e 3a eb bd 67 0f 0e 3d
       0.0994361 -0.08860219 -0.11485718 0.034682658
0000e0 bd 05 89 3c 86 0d 4e bd a0 35 34 bb 84 49 2b 3e
       0.016726369 -0.050305866 -0.0027497783 0.16727263

fca2.weight f4 [1, 60]
000000 df c7 68 bf 1c f6 ad 3e 75 9a f0 bd 80 9d 24 3d
       -0.9092998 0.3397683 -0.1174821 0.040189266
000010 34 65 27 3f 0e ce 6d bf 90 35 15 be e1 16 04 3f
       0.653888 -0.9289254 -0.14571214 0.5159741
000020 5b 1b da 3d 37 e0 7a 3e 04 b5 87 3f e7 30 c9 3e
       0.10649749 0.24499594 1.0602117 0.39295122
000030 b5 a9 79 be ab 8d 0a 3f ae f4 8b 3e a0 99 60 be
       -0.24381144 0.5412242 0.27335113 -0.21933603
000040 c7 40 09 be 09 50 fc 3e 01 73 a1 be 5b 5f d8 3e
       -0.13403617 0.49279812 -0.31533054 0.4226025
000050 1a 79 1b be e5 a9 a9 3e 3f 6e 8b be b6 95 3e be
       -0.15182915 0.33137432 -0.2723255 -0.18611798
000060 e6 80 f4 bd 37 23 5f bd 7b 92 a0 bd e9 0c 19 3f
       -0.11938648 -0.054476943 -0.07840439 0.59785324
000070 85 7c 19 3f 3a 86 78 3f 71 c0 59 bf f0 a8 d9 3e
       0.59955627 0.97079813 -0.8505927 0.42511702
000080 6d 8f 05 3f eb a4 07 3d 13 bf f4 3e e7 9e 86 3c
       0.52171975 0.033116262 0.47802028 0.016433192
000090 23 8e 9c bd 69 34 41 bd 07 3e 43 be 1c c2 18 be
       -0.07644298 -0.047169123 -0.1906663 -0.14917797
0000a0 0f 34 04 3f 6c 67 85 bd 81 ed e4 3e fd 00 be 3e
       0.51641935 -0.06513867 0.4471245 0.3711013
0000b0 c1 a4 60 3c 68 95 92 be 78 a0 44 bd 41 f3 1e 3f
       0.013711155 -0.28629613 -0.048004597 0.62089926
0000c0 21 cb 57 3e 86 2b ac bd b5 fe 89 bd b5 b8 06 3f
       0.21073581 -0.08406739 -0.06738035 0.5262559
0000d0 e1 33 0e 3f 23 51 1c be e5 b7 a7 3e 9e 1e 0e be
       0.5554791 -0.15265326 0.32757488 -0.13878867
0000e0 bc 02 b3 3e 84 40 49 be ea 7e d9 bd 56 29 cd 3e
       0.34963024 -0.19653517 -0.1061991 0.400706
