DDPG/models/8100_critic.pt (torch, 18423 bytes, 7 tensors)

fc1.weight f4 [30, 3]
000000 d0 31 cd be d9 1c 0c bf 78 53 35 bd e6 3a 0a bf
       -0.40077066 -0.5473152 -0.044269055 -0.5399612
000010 1c 08 74 be 16 dc f0 bd 18 ae 12 3f cf aa e5 3e
       -0.23831218 -0.11760728 0.57296896 0.4485688
000020 72 2e 35 3e 86 01 e7 be 93 63 7c bf 81 78 f7 bd
       0.17693499 -0.4511835 -0.9858944 -0.12083531
000030 15 57 7a bf 51 6d a4 be 57 d2 3c bd 12 a2 5f 3c
       -0.97789127 -0.32114652 -0.046099033 0.01364948
000040 27 2c a1 be 9d 99 25 bc 57 ba 46 3d a2 e9 b6 bf
       -0.31478998 -0.010107425 0.04851755 -1.4290049
000050 34 42 84 be 39 35 fe be b8 40 bc 3f 73 77 b2 3e
       -0.2583176 -0.4964998 1.470725 0.34856758
000060 94 80 0b bf 52 31 32 3f 14 3d db 3c 30 5c 10 3d
       -0.5449307 0.69606507 0.026762523 0.035244167
000070 d0 1e cb 3d f0 f3 7a bc a2 80 69 3d 52 a2 00 3e
       0.099179864 -0.015316948 0.05700744 0.1256192
000080 12 1c 75 bc f5 3c 40 bf 76 cd d4 3e 48 57 95 3e
       -0.014960306 -0.75093013 0.41563004 0.29168153
000090 7c 57 22 3f 6f 89 cb be 84 ad 2c be f0 70 c1 be
       0.6341474 -0.3975329 -0.16863066 -0.37781477
0000a0 b9 9c 93 be ef 6e d3 3c 0d 04 3f 3f 48 d6 eb 3e
       -0.28830507 0.025809733 0.74615556 0.4606192
0000b0 04 f5 51 3e ab 4d e0 be 06 a3 99 bd b9 e2 dd 3d
       0.20503622 -0.43809256 -0.075017974 0.108342595
0000c0 3b 0f c5 3e 6f dd 10 bf 07 34 e5 bd 0e b9 e3 be
       0.38488182 -0.5658788 -0.11191564 -0.44477123
0000d0 b3 4f d0 be 85 4b 12 be cc b9 0b 3e e7 58 56 3f
       -0.40685806 -0.14286621 0.13645095 0.83729404
0000e0 39 80 0e 3e 2a 3e 75 3d b9 ad 57 3f 93 cb 2b 3e
       0.139161 0.059873737 0.84249455 0.16776876
0000f0 3f c2 3d 3e a7 81 31 bd cc d2 64 3e 2a 95 48 bc
       0.1853113 -0.043336537 0.22346038 -0.012242595
000100 97 df d8 bd 71 a1 3d 3a 1d fc 3d be 7b 50 0c 3f
       -0.105895214 0.00072338345 -0.18553205 0.54810303
000110 4f 38 f7 3c ee 5b f6 be 89 88 82 3f 03 52 2b 3e
       0.030178217 -0.48117012 1.0197917 0.16730504
000120 22 73 61 bf 24 4a ea 3e 19 b7 8b 3e 02 0b 5a bf
       -0.88066304 0.4575969 0.2728813 -0.85173047
000130 7a a1 ab be 19 fd ea bc 87 b2 ef be 97 c8 a5 3b
       -0.33521634 -0.02868514 -0.46815893 0.0050593126
000140 85 0e a7 3d 6f 7c 3a bf 8b 19 b0 bc 1e 22 d4 3d
       0.08157066 -0.7284612 -0.021496555 0.1035807
000150 82 02 fd be 89 9f 16 3f e3 66 09 3e 21 91 93 bd
       -0.49415976 0.5883718 0.13418154 -0.072054155
000160 fd 0c 17 bf 53 2f a4 be
       -0.59004194 -0.32067356

fc1.bias f4 [30]
000000 08 85 d3 bc 4d 24 ae 3e c5 ba 8b be ad d6 91 be
       -0.02582027 0.3401207 -0.2729093 -0.28484097
000010 6c 4e bf be 51 1a ca be 38 9b 09 bf 3b b4 fd bd
       -0.3736452 -0.39473203 -0.5375247 -0.12387892
000020 21 3f 04 bf 40 41 b0 be b0 2e b7 be f1 98 09 bf
       -0.5165883 -0.34424782 -0.35777807 -0.53748995
000030 be 76 53 be a4 49 02 3f 9a d4 d6 be 38 b1 87 3e
       -0.20650765 0.50893617 -0.41959077 0.26502395
000040 5c 6b 11 be 42 c8 03 3f ab 5e cb 3d 45 0c e6 3e
       -0.1420111 0.51477444 0.09930166 0.44931236
000050 bc 80 21 3f 0c 93 b8 be 95 ce dc 3e e0 47 a7 be
       0.6308706 -0.36049688 0.4312636 -0.32672024
000060 b8 3d cf 3d 3f b1 8f 3d 7d 2e 5e 3e ab 7f e7 3d
       0.10119194 0.07016229 0.21697421 0.113036476
000070 35 16 12 3f 44 d7 58 be
       0.57065135 -0.21175867

fa1.weight f4 [30, 1]
000000 49 a3 f6 39 b3 a7 6d bc 07 46 72 ba 19 f5 2a bd
       0.00047042433 -0.014505315 -0.0009242002 -0.04173765
000010 c2 fe 65 3d e3 4b e9 3d c6 cb 30 3d 7d 0c a4 3d
       0.05615116 0.11391427 0.043163083 0.080101945
000020 f9 65 32 be bb 09 46 be 3b 1b ea bd 7f 30 0b 3d
       -0.17421712 -0.1933965 -0.11430975 0.033981796
000030 65 c8 34 3d 47 a8 b1 3d 55 85 f3 bd 2b f7 99 bd
       0.044136424 0.086746745 -0.118906654 -0.07517847
000040 9c 7c 96 3c 6c c9 bf 3b d6 c9 18 3e a7 ef 88 bd
       0.018369965 0.005852869 0.14920744 -0.06686335
000050 54 ed 02 be 07 2e 5f bd 9f c3 82 bd b3 88 2d 3d
       -0.12785846 -0.054487254 -0.06384968 0.042366695
000060 5e 41 9e bd 92 ec 37 bd e6 ed b3 bd 95 53 fb 3d
       -0.077273116 -0.044903345 -0.0878561 0.122718014
000070 40 55 22 3a 6e e8 da bc
       0.0006192513 -0.02672216

fa1.bias f4 [30]
000000 34 8a 25 3f f3 3f 04 bd a0 02 6e bd 44 a3 43 bf
       0.64664006 -0.03228755 -0.058107972 -0.76421
000010 68 c8 4e bf ea f3 53 bf 43 88 ad 3d 58 08 11 bf
       -0.80774546 -0.8279406 0.084732555 -0.56653357
000020 42 79 b3 be a6 12 6a bf 18 72 d5 3d c1 52 8c bd
       -0.3505345 -0.91434705 0.10422152 -0.068517216
000030 da 7a 19 bd 14 33 5e bf 28 c5 b2 bd 32 f9 1b be
       -0.037470676 -0.8679669 -0.08729011 -0.15231779
000040 2f 4c 01 3d a7 e4 31 3f f0 36 03 bf f0 19 6b be
       0.031566795 0.6948952 -0.512557 -0.22959113
000050 c0 71 83 be d8 2d d7 3d 42 be 19 bf c5 9b f9 3e
       -0.25672722 0.10506791 -0.60055935 0.48751655
000060 04 52 42 3f 74 d4 1c bd 2a d0 48 bf 59 c3 f5 3c
       0.75906396 -0.03828855 -0.78442633 0.030000376
000070 c4 f2 ad be af cd d8 3d
       -0.33974278 0.10586106

fca1.weight f4 [60, 60]
000000 36 1b 08 3d 2e 71 96 3e eb 81 aa bf e1 18 06 be
       0.033229075 0.29383224 -1.3320898 -0.13095428
000010 fa c9 bc 3b f9 29 f2 3d 80 b6 2e 3e 98 0f 3e bd
       0.005761382 0.11824412 0.17061806 -0.04640159
000020 b2 8e 1e c0 fc 21 cb bd 38 d1 53 bd 4b be c4 be
       -2.4774594 -0.099185914 -0.0517132 -0.38426432
000030 e1 e5 46 be 88 5f ae 3d 80 fb 0c 3f c7 dd 08 3e
       -0.1942363 0.08514315 0.5507126 0.13365851
000040 6e e0 e3 3e 26 01 a8 3e 0b e7 91 be 98 6d 24 be
       0.44507164 0.32813376 -0.28496584 -0.16057432
000050 06 da 4a be ed 32 49 bc 4b 25 ee 3e bf 98 25 3e
       -0.19809732 -0.012280208 0.46512827 0.1617155
000060 6e ce b1 be 7d 86 64 bd ed a3 75 bc 70 dc 49 3e
       -0.34727806 -0.05579232 -0.014992696 0.19712996
000070 78 07 5a 3e d1 4e 1f bf 7f e9 45 ba 7d a8 12 bd
       0.21291912 -0.6222964 -0.0007549747 -0.035805214
000080 6a f7 30 3e 4e bc b0 bb e5 95 19 3d a7 0f 32 be
       0.17281881 -0.0053935414 0.037496466 -0.17388783
000090 7c 1d 00 3d f0 01 5d bd 6a 20 f0 3d e3 47 fd bd
       0.03127812 -0.053956926 0.117249325 -0.12367227
0000a0 21 a3 c5 be e7 e4 db bd 3d 40 59 3d 00 05 e2 3d
       -0.3860102 -0.10737019 0.053039778 0.1103611
0000b0 d4 16 4b be 36 dd 34 be 2d 25 44 3e f0 99 9e bc
       -0.19832927 -0.1766251 0.19154806 -0.019360512
0000c0 fc cb 0a bd ce ac 8c 3d 25 6b ba 3d e5 9b 92 bd
       -0.03388594 0.068688974 0.091024674 -0.07158641
0000d0 bc 68 90 bd 4f f0 a6 bd 31 22 67 be c8 81 8b be
       -0.070512265 -0.08151304 -0.22571637 -0.27247453
0000e0 ba b9 88 3d 4f 8b 27 3e 97 26 92 bd 9d 03 23 be
       0.066760495 0.16361736 -0.07136267 -0.15919347
0000f0 ca 40 70 3e b5 0e b9 3c 29 25 e2 bf 1e 82 d7 3d
       0.23462215 0.02259002 -1.766759 0.10522865
000100 53 f4 b4 3e 3f f8 b0 bd 06 c4 48 3e 3e 91 be 3e
       0.35342655 -0.08641099 0.19606027 0.37220186
000110 00 b5 18 bf c4 c5 0f be b2 7c 1e 3d 0e a2 74 3f
       -0.59651184 -0.14040285 0.038693137 0.95559776
000120 f5 30 de 3e c5 4a d5 bd ba 7f 04 c0 0f d4 de bd
       0.43396726 -0.10414652 -2.0702958 -0.10880291
000130 2c 6f 63 3e 45 b6 ac ba 80 32 d8 bf 16 0d c6 bf
       0.22210377 -0.0013176879 -1.6890411 -1.5472744
000140 a8 95 9c 3e 95 56 5a be 36 3b 26 be 86 ed 25 3f
       0.3058293 -0.21322091 -0.16233525 0.64815557
000150 db 60 0c 3e b8 04 46 3e b7 a4 22 be 76 91 78 be
       0.13708822 0.19337738 -0.15883146 -0.24274239
000160 eb 05 62 3e 32 89 d8 be 0c 08 57 be 83 a4 66 be
       0.2207257 -0.42292172 -0.20999163 -0.22523694
000170 af 13 10 3d ff 83 0c 3d 88 79 92 3d e5 56 61 bd
       0.03517502 0.03430557 0.071520865 -0.05501451
000180 0f fd 1e 3d 17 1f 6c 3c 2e a8 16 bb db e4 ab bd
       0.038815554 0.014411709 -0.0022988426 -0.0839326
000190 e7 fa 50 be 56 8f 31 3e e4 76 80 bb 53 ae a5 3b
       -0.20408212 0.17339835 -0.003920423 0.0050561815
0001a0 3f 43 92 be ef dc f9 be 5d ee 2d 3d 4b 37 18 be
       -0.2856693 -0.4880137 0.04246365 -0.14864843
0001b0 ea 7f f4 bc 47 e2 13 3d 69 54 46 3e ad 64 a4 be
       -0.02984615 0.036104467 0.19368137 -0.3210806
0001c0 4b 49 18 bd 8f 63 99 bd e0 46 34 bc cc 4a 59 be
       -0.037179273 -0.074896924 -0.011003226 -0.21219939
0001d0 36 45 cc bc 2a 09 a0 3d 0d d2 f0 3c 51 be 16 bf
       -0.024935346 0.07814248 0.029397035 -0.5888415
0001e0 c3 86 9c 3c 47 64 a6 3e f1 6b 27 3e e1 2f 60 3e
       0.019107228 0.3249838 0.1634977 0.21893264
0001f0 d6 20 30 bc 55 e3 2b 3e 35 f8 e9 3e 49 ca 85 3e
       -0.010750016 0.16785939 0.4569718 0.26130894
000200 7b 60 04 bd 55 ca 7f bc 77 6d 09 3e 14 52 72 3e
       -0.032318573 -0.015612205 0.13420664 0.23664123
000210 70 0a 04 3e aa b8 5b 3e 9a 29 2b be 01 ab 4d 3e
       0.12894607 0.21457162 -0.16715088 0.20084764
000220 49 f1 50 3d 67 2b e4 3d fc 56 b4 3d 74 5d c8 bc
       0.051011357 0.11141091 0.088056535 -0.024458624
000230 d5 70 cc 3b 66 27 a5 bc c2 9e 8a 3e 89 88 1d 3e
       0.0062390366 -0.020160388 0.27074248 0.15384115
000240 c3 ff 06 3e e7 ef 79 3e 4c 12 8d 3d 07 78 50 3e
       0.13183503 0.24407922 0.068882555 0.20358287
000250 82 c3 85 3e 0e 70 06 3e 9a 03 94 3d d6 dd 66 3d
       0.26125723 0.13128683 0.072272494 0.056363903
000260 15 4a 70 3d 2b fc 99 bd a5 60 28 3e bf 68 e9 3c
       0.0586644 -0.075188 0.16443117 0.02849233
000270 60 6f 9a bd 6d 9e fd bd f4 ed 38 3c 69 0c 8d 3d
       -0.07540774 -0.12383733 0.011287201 0.06887133
000280 7c 7c 8c bd 8d f4 8e bd bd f8 93 3d 0b c1 b8 bd
       -0.06859681 -0.06980238 0.072251774 -0.09021195
000290 6e 35 36 3d bd e2 f8 3d 49 8c 2c 3e 57 c6 6b 3e
       0.04448455 0.12152622 0.1685039 0.2302488
0002a0 1d f8 d9 3d 88 c0 2f be 4b fc 05 be 65 43 66 3e
       0.10643027 -0.17163289 -0.13084523 0.22486646
0002b0 85 a4 81 bd 41 c0 5e be 07 df dd 3d 72 e3 18 3e
       -0.06330208 -0.21753027 0.10833555 0.14930514
0002c0 0b 96 4b 3d 48 9a 9b bd d4 bc 0c 3d 6d fb 26 bd
       0.04970364 -0.07597786 0.034359768 -0.040767122
0002d0 cb f9 d8 3d 6b 19 7c bc fd 53 2f be 50 09 8b bd
       0.10594519 -0.0153869195 -0.17121883 -0.067888856
0002e0 f3 b9 30 bd a4 5c b4 3c aa c7 1b bd 60 c4 5e bd
       -0.043146085 0.02201683 -0.03803221 -0.054386497
0002f0 32 c3 5a be cc 71 1f 3d 8c ed 23 bb 90 67 f1 3c
       -0.21363524 0.038926885 -0.0025013415 0.029468328
000300 0e e4 83 3d c3 e6 a3 bd 57 e3 c2 3d 0e 27 93 bd
       0.06439982 -0.08002999 0.09516018 -0.071851835
000310 0b 73 72 bd 64 de 04 3e 42 cb 75 bd ed 6b 23 be
       -0.059191745 0.1297546 -0.060008295 -0.15959139
000320 de 1e 00 be 40 ee 75 bd 55 76 b6 bd b0 1b f8 bd
       -0.12511775 -0.060041666 -0.08909289 -0.12114656
000330 67 d0 54 bc 70 d8 71 bd f3 40 25 bc 6e df 88 bd
       -0.01298914 -0.0590443 -0.010086286 -0.06683241
000340 a0 85 1c 3c 17 ce ca bd e8 45 05 be 4b 7d 21 be
       0.009553343 -0.0990259 -0.13014948 -0.15770452
000350 f2 47 60 be cc 06 18 be ff f9 ba bc 13 bc 6b bc
       -0.21902445 -0.14846343 -0.022824286 -0.014388102
000360 d9 09 14 be 6a cd 69 3c 01 a0 8a 3d c8 cc 5f be
       -0.14456882 0.014270166 0.067687996 -0.21855462
000370 dc 6b 80 3d a1 0a 81 ba 1a ab 4e 3d 96 64 9a bd
       0.062705725 -0.0009845087 0.050456144 -0.075387165
000380 75 49 a3 3d d0 a3 ee 3d 8a d5 94 bd bd ff e6 bb
       0.07972995 0.116523385 -0.07267292 -0.0070495293
000390 53 35 3e be 5b 4c 43 bc 53 a2 63 bb fd f5 28 bd
       -0.18575029 -0.01192006 -0.0034734204 -0.041250218
0003a0 d7 7f b2 3a 7c b3 48 3c df 70 2e bd 7c 5f 9e bc
       0.0013618422 0.012249824 -0.04258811 -0.01933264
0003b0 2a c4 66 be 33 6b aa 3d a4 97 21 3e ae 9d 46 3e
       -0.22535768 0.08321228 0.15780503 0.19396088
0003c0 94 30 57 bf 31 9a de 3e 1e 7c bf bd 45 c7 71 bc
       -0.840585 0.43477014 -0.09349845 -0.014756982
0003d0 da d3 22 bf 2d c2 51 be ad e3 ab 3e b3 2a c8 3e
       -0.6360451 -0.20484228 0.3357214 0.39095077
0003e0 13 f1 eb 3e 38 e9 1c bd 17 72 40 be 0c a7 50 be
       0.46082363 -0.038308352 -0.18793522 -0.20376223
0003f0 1d ae 1f bf 84 dd 58 be 24 b5 de 3e bb 33 cd be
       -0.6237505 -0.21178252 0.43497574 -0.4007853

fca1.bias f4 [60]
000000 49 35 5d 3d dc 5a 83 bd 2e b8 bb 3d 14 f6 39 3a
       0.054005895 -0.064138144 0.09165989 0.00070938584
000010 f8 6f 71 be 71 36 f4 3d b4 3e 6d 3c 5e 7e 1b 3e
       -0.23577869 0.119244464 0.014480282 0.15184924
000020 e8 7d b5 bd e3 4f bd 3c 97 5a 11 be 4b bb 57 bd
       -0.08861905 0.023109382 -0.14194714 -0.05266885
000030 1b e1 83 3b 90 21 a9 bb 69 3f 17 bd d1 48 c9 3d
       0.0040246374 -0.0051614717 -0.036925707 0.09828342
000040 af 33 4e bc 74 af 0a 3e 83 4c 1b bd e0 bd b6 3d
       -0.0125855645 0.13543493 -0.037914764 0.089229345
000050 25 69 c2 3d 8c fc 1d 3e 50 9f c9 3c 09 b4 6f 3b
       0.09492711 0.1542837 0.024612099 0.0036575815
000060 9a d2 65 bd 7e ef 3d 3d 48 e8 ba bd fb 84 d9 bc
       -0.05610905 0.046370976 -0.091263354 -0.026552668
000070 a2 0a 44 bc f7 ef 14 3e 37 e8 f0 3d b6 c5 36 be
       -0.011965426 0.14544664 0.117630415 -0.17848858
000080 0d 84 03 3e d5 64 ea bd 9a 11 61 3e d5 8f a4 bd
       0.12843342 -0.114450134 0.2197937 -0.08035246
000090 ef 43 8a 3c 97 44 2b bc 7b 39 63 3e 09 f7 d5 bb
       0.016878096 -0.010453365 0.22189896 -0.006529693
0000a0 f3 50 69 3e 62 69 94 3d d9 ea 1a 3c 4f 57 06 3e
       0.22784786 0.07246663 0.009455406 0.13119243
0000b0 5e dd 00 be 37 f1 e8 3d e8 bd 86 bd 53 40 3f 3e
       -0.12584445 0.11374133 -0.065791905 0.18676881
0000c0 85 20 49 be e0 e2 85 3d d8 3d 5b 3d b8 83 29 3e
       -0.19641311 0.065374136 0.053525776 0.16554153
0000d0 43 a6 d8 3d b9 ef b2 bd 40 98 e5 bd 44 03 12 3d
       0.10578587 -0.0873713 -0.1121068 0.035647646
0000e0 91 eb c2 3c 0f 25 48 bd c9 62 08 bb 59 75 28 3e
       0.023793967 -0.048863467 -0.0020810834 0.16451015

fca2.weight f4 [1, 60]
000000 bd bf 5d bf 0e 1c b1 3e 29 fc ee bd 80 9d 24 3d
       -0.86620694 0.34591717 -0.116691895 0.040189266
000010 53 bd 22 3f 9d 35 63 bf 05 2d 15 be 7c 3e 01 3f
       0.63570136 -0.8875368 -0.14567955 0.5048597
000020 5b 1b da 3d 03 8e 78 3e 33 a3 89 3f 6b 00 c4 3e
       0.10649749 0.24272923 1.075293 0.3828157
000030 d0 fb 78 be 03 de 0a 3f ae f4 8b 3e 5d d4 6f be
       -0.24314809 0.54245013 0.27335113 -0.23420854
000040 0f 38 08 be ff 70 f5 3e e4 4c a1 be a2 79 d9 3e
       -0.13302635 0.47937772 -0.31503975 0.4247561
000050 f8 7c 19 be 15 e6 a4 3e bf f2 8a be a4 37 3e be
       -0.14989078 0.3220679 -0.27138326 -0.18575913
000060 73 6a f2 bd 37 23 5f bd 7b 92 a0 bd b3 4f 11 3f
       -0.1183671 -0.054476943 -0.07840439 0.56762236
000070 85 7c 19 3f 5f 2b 6d 3f a3 7a 53 bf 29 0b d8 3e
       0.59955627 0.92644304 -0.82609004 0.42196015
000080 46 8c 01 3f eb a4 07 3d 20 f8 f7 3e e7 9e 86 3c
       0.50604665 0.033116262 0.48431492 0.016433192
000090 85 ba 99 bd 67 52 33 bd b1 3a 43 be 42 00 18 be
       -0.07506279 -0.043779757 -0.19065358 -0.14843848
0000a0 cd 93 01 3f 18 57 7e bd c1 76 e7 3e 8f dc b6 3e
       0.5061615 -0.062094778 0.4520779 0.35715148
0000b0 c1 a4 60 3c ee 3d 92 be 78 a0 44 bd 8f 0b 1a 3f
       0.013711155 -0.28562874 -0.048004597 0.60173887
0000c0 eb 37 49 3e 37 6e aa bd 04 eb 85 bd 1c b4 04 3f
       0.19650237 -0.08321803 -0.06538966 0.51837325
0000d0 74 55 0e 3f 6e 69 1a be ae 10 a6 3e a0 89 0c be
       0.5559914 -0.1507928 0.324346 -0.13724375
0000e0 26 1d af 3e 3b 8a 48 be a0 d9 d3 bd f7 b6 ce 3e
       0.34201926 -0.1958398 -0.10344243 0.40373966
