DDPG/models/8500_critic.pt (torch, 18423 bytes, 7 tensors)

fc1.weight f4 [30, 3]
0	0xbeb33067	-0.34997866
1	0xbf0e6081	-0.55616003
2	0xbd2e11e2	-0.042497523
3	0xbf1022e9	-0.5630327
4	0xbe70e839	-0.23526086
5	0xbde93df3	-0.11388769
6	0x3f146372	0.5796424
7	0x3eefd749	0.46843937
8	0x3e395ec3	0.18102555
9	0xbeedc589	-0.4643977
10	0xbf819c24	-1.0125775
11	0xbe011531	-0.1260574
12	0xbf7aaba9	-0.9791818
13	0xbe98158d	-0.29703942
14	0xbd1825e9	-0.03714553
15	0x3c5fa212	0.01364948
16	0xbea12c27	-0.31478998
17	0xbc25999d	-0.010107425
18	0x3dceb1ac	0.10092482
19	0xbfb7159f	-1.4303473
20	0xbe8299e6	-0.2550804
21	0xbf036cb5	-0.5133775
22	0x3fbe577a	1.4870446
23	0x3ebc8752	0.3682199
24	0xbf1648f1	-0.5870505
25	0x3f2f2387	0.68413585
26	0x3d13e9fa	0.03611181
27	0x3d105c30	0.035244167
28	0x3dcb1ed0	0.099179864
29	0xbc7af3f0	-0.015316948
30	0x3d6980a2	0.05700744
31	0x3e00a252	0.1256192
32	0xbc751c12	-0.014960306
33	0xbf41061d	-0.75399953
34	0x3ed64331	0.41848138
35	0x3e9df6f0	0.3085246
36	0x3f207b48	0.6268811
37	0xbed1237b	-0.40847382
38	0xbe3252df	-0.17414425
39	0xbebff7c5	-0.3749372
40	0xbe8ec030	-0.27881002
41	0x3d17f483	0.03709842
42	0x3f3dfc66	0.74213254
43	0x3ef0d797	0.47039482
44	0x3e520dae	0.20513031
45	0xbef6f178	-0.482311
46	0xbdcfff53	-0.10156121
47	0x3deaa7f4	0.11457816
48	0x3ed74f26	0.42052573
49	0xbef8e1af	-0.48609683
50	0xbdc9205a	-0.09820624
51	0xbee6437a	-0.44973356
52	0xbedca2a9	-0.4309285
53	0xbe0ced39	-0.13762368
54	0x3e253c6a	0.16136327
55	0x3f4d6edd	0.8024729
56	0x3e02ecf7	0.12785707
57	0x3d5e8da0	0.054334283
58	0x3f57b27a	0.8425671
59	0x3e2d3e07	0.16918193
60	0x3e47740d	0.19477864
61	0x3d347eed	0.04406636
62	0x3e7bd38e	0.2459242
63	0xbc48952a	-0.012242595
64	0xbdd8df97	-0.105895214
65	0x3a3da171	0.00072338345
66	0xbe3be446	-0.18348798
67	0x3f0c4e12	0.54806626
68	0x3d004489	0.03131536
69	0xbf04917d	-0.517845
70	0x3f838ccc	1.0277343
71	0x3e324fbe	0.17413232
72	0xbf638b55	-0.8888448
73	0x3efabe60	0.4897337
74	0x3e86ed3f	0.2635288
75	0xbf5c23ed	-0.8599232
76	0xbebaee64	-0.36510003
77	0xbcb6515e	-0.022255596
78	0xbef94081	-0.48682025
79	0x3a2c8ade	0.0006581972
80	0x3d98938b	0.074500166
81	0xbf3a7f81	-0.72850806
82	0x3c0e6c29	0.00869278
83	0x3dd24064	0.10266188
84	0xbefd29d0	-0.49445963
85	0x3f20656b	0.6265475
86	0x3e03afda	0.12860051
87	0xbde048f8	-0.10951418
88	0xbf19a142	-0.60011685
89	0xbea03f64	-0.31298363

fc1.bias f4 [30]
0	0xbd05f2f2	-0.032702394
1	0x3ea73c25	0.32663074
2	0xbe87e016	-0.26538152
3	0xbea85b38	-0.32882094
4	0xbed76c31	-0.4207473
5	0xbeca1a51	-0.39473203
6	0xbf108549	-0.56453377
7	0xbe00074b	-0.12502782
8	0xbf03af06	-0.5143894
9	0xbeb04140	-0.34424782
10	0xbeb72eb0	-0.35777807
11	0xbf07ce82	-0.5304948
12	0xbe4aeef4	-0.19817716
13	0x3f061bd1	0.52386194
14	0xbedf43a3	-0.4360629
15	0x3e85cf1a	0.26134568
16	0xbdee8556	-0.116465256
17	0x3f02d57c	0.51107
18	0x3de06fe4	0.109588414
19	0x3eeaac48	0.45834565
20	0x3f141423	0.57843226
21	0xbeb8930c	-0.36049688
22	0x3ed4bc64	0.4154998
23	0xbea1e651	-0.3162103
24	0x3de3fa62	0.11131741
25	0x3db96daf	0.090541236
26	0x3e4af0aa	0.19818369
27	0x3dc3f511	0.09568227
28	0x3f10fdd2	0.566373
29	0xbe5ab72d	-0.21358939

fa1.weight f4 [30, 1]
0	0xbc0f4192	-0.0087436605
1	0xbc6da7b3	-0.014505315
2	0xba724607	-0.0009242002
3	0xbd2af519	-0.04173765
4	0x3d65fec2	0.05615116
5	0x3de94be3	0.11391427
6	0x3d274297	0.04083499
7	0x3da40c7d	0.080101945
8	0xbe3265f9	-0.17421712
9	0xbe4609bb	-0.1933965
10	0xbde562b0	-0.11200464
11	0x3d0b307f	0.033981796
12	0x3d594266	0.053041838
13	0x3db1a847	0.086746745
14	0xbe054300	-0.1301384
15	0xbd99f72b	-0.07517847
16	0x3b8e1106	0.0043355254
17	0x3cc4aef5	0.024009207
18	0x3e18c9d6	0.14920744
19	0xbd88efa7	-0.06686335
20	0xbe02ed54	-0.12785846
21	0xbce45479	-0.027872311
22	0xbd82c39f	-0.06384968
23	0x3cc0fc60	0.023557842
24	0xbd9a3777	-0.0753011
25	0xbd70c1c1	-0.058778528
26	0xbdb3ede6	-0.0878561
27	0x3de05d39	0.10955281
28	0x3a225540	0.0006192513
29	0xbc195b10	-0.00936009

fa1.bias f4 [30]
0	0x3f1fc24b	0.6240584
1	0xbd043ff3	-0.03228755
2	0xbd6e02a0	-0.058107972
3	0xbf43a344	-0.76421
4	0xbf4ec868	-0.80774546
5	0xbf53f3ea	-0.8279406
6	0x3d5d9df1	0.054105703
7	0xbf110858	-0.56653357
8	0xbeb37942	-0.3505345
9	0xbf6a12a6	-0.91434705
10	0x3dc8a192	0.09796442
11	0xbd8c52c1	-0.068517216
12	0xbd653815	-0.055961687
13	0xbf5e3314	-0.8679669
14	0xbe046e2b	-0.1293265
15	0xbe1bf932	-0.15231779
16	0x3c6f9922	0.014623912
17	0x3f2f1cef	0.68403524
18	0xbf0336f0	-0.512557
19	0xbe6b19f0	-0.22959113
20	0xbe8371c0	-0.25672722
21	0x3d5a3d4c	0.053281114
22	0xbf19be42	-0.60055935
23	0x3ef24856	0.47320813
24	0x3f3d59b2	0.7396499
25	0xbd572b62	-0.052531607
26	0xbf48d02a	-0.78442633
27	0x3cd8ed71	0.026480408
28	0xbeadf2c4	-0.33974278
29	0x3d0260f9	0.03183076

fca1.weight f4 [60, 60]
0	0x3d1d8dd4	0.038465336
1	0x3e983dd9	0.29734686
2	0xbfc04e89	-1.5023967
3	0xbdfce8a4	-0.1234906
4	0x3ca086d5	0.019595543
5	0x3df229f9	0.11824412
6	0x3e469561	0.19392921
7	0xbb425c1d	-0.0029656955
8	0xc01c4acc	-2.4420652
9	0xbdcb21fc	-0.099185914
10	0xbd53d138	-0.0517132
11	0xbed6ed6a	-0.41978008
12	0xbe6139b6	-0.21994671
13	0x3dbc687f	0.091996185
14	0x3f0cfb80	0.5507126
15	0x3e0bd7d8	0.13656557
16	0x3ef2654b	0.47342905
17	0x3eab8779	0.33501795
18	0xbe879fa6	-0.2648899
19	0xbe6d338e	-0.23164198
20	0xbe789498	-0.24275434
21	0xbc4932ed	-0.012280208
22	0x3ede0652	0.43364197
23	0x3e673a74	0.22580892
24	0xbed580ce	-0.41699833
25	0xbd9a525f	-0.07535242
26	0xbca37757	-0.019954367
27	0x3e207b2b	0.15671985
28	0x3e52b79b	0.20577852
29	0xbf189bab	-0.5961253
30	0xbb5cd172	-0.0033694175
31	0xbd12a87d	-0.035805214
32	0x3e30f76a	0.17281881
33	0xbbb0bc4e	-0.0053935414
34	0x3d1995e5	0.037496466
35	0xbe320fa7	-0.17388783
36	0x3d4ff34e	0.050769143
37	0xbd5d01f0	-0.053956926
38	0x3df0206a	0.117249325
39	0xbdfd47e3	-0.12367227
40	0xbed63f2e	-0.41845077
41	0xbddbe4e7	-0.10737019
42	0x3db3687b	0.087601624
43	0x3de20500	0.1103611
44	0xbe833376	-0.256252
45	0xbe34dd36	-0.1766251
46	0x3e5cf3dc	0.215774
47	0xbc9501e3	-0.018189376
48	0xbd0acbfc	-0.03388594
49	0x3d8cacce	0.068688974
50	0x3dba6b25	0.091024674
51	0xbde43691	-0.1114322
52	0xbd9068bc	-0.070512265
53	0xbd9e41ff	-0.077274315
54	0xbe6fe0e2	-0.2342563
55	0xbe9e65d9	-0.3093708
56	0x3d88b9ba	0.066760495
57	0x3e459e00	0.19298553
58	0xbd922697	-0.07136267
59	0xbe43580d	-0.19076557
60	0x3e714dd5	0.23564847
61	0x3c899c1f	0.016798077
62	0xbff3305c	-1.8999133
63	0x3dfd36df	0.123639815
64	0x3ebada5a	0.36494714
65	0xbdb0f83f	-0.08641099
66	0x3e4a1904	0.19736105
67	0x3eb9aae2	0.36263186
68	0xbf229f8f	-0.6352472
69	0xbe0fc5c4	-0.14040285
70	0x3d1e7cb2	0.038693137
71	0x3f732a25	0.9498618
72	0x3efdfa96	0.49605244
73	0xbdcea36b	-0.10089763
74	0xbff7bd34	-1.9354615
75	0xbded2f93	-0.1158134
76	0x3e8ab964	0.27094567
77	0x3b7bb461	0.0038407075
78	0xbfd841cd	-1.6895081
79	0xbfc9362c	-1.5719657
80	0x3e8eda1a	0.27900773
81	0xbe5a5695	-0.21322091
82	0xbe35336d	-0.17695399
83	0x3f1b5248	0.60672426
84	0x3df6fe96	0.12060277
85	0x3e626418	0.22108495
86	0xbe215d47	-0.15758239
87	0xbe65a1d8	-0.2242502
88	0x3e5282b9	0.20557679
89	0xbf065f19	-0.5248886
90	0xbe454445	-0.19264324
91	0xbe66a483	-0.22523694
92	0x3d1013af	0.03517502
93	0x3d0c83ff	0.03430557
94	0x3d927988	0.071520865
95	0xbd6156e5	-0.05501451
96	0x3d2ea52f	0.042638
97	0x3c6c1f17	0.014411709
98	0xbb16a82e	-0.0022988426
99	0xbdabe4db	-0.0839326
100	0xbde35772	-0.11100663
101	0x3e318f56	0.17339835
102	0xbd2c11dd	-0.042009223
103	0x3ba5ae53	0.0050561815
104	0xbed9abbd	-0.42513838
105	0xbef9dcef	-0.4880137
106	0x3cccd847	0.025005473
107	0xbe058487	-0.13038836
108	0xbcf47fea	-0.02984615
109	0x3d13e247	0.036104467
110	0x3e465469	0.19368137
111	0xbe4513fe	-0.19245908
112	0xbd18494b	-0.037179273
113	0xbd7bd6da	-0.061484195
114	0x3c3e176b	0.011602263
115	0xbe820d49	-0.2540076
116	0xbccc4536	-0.024935346
117	0x3d875fe7	0.06610089
118	0x3cf0d20d	0.029397035
119	0xbf071529	-0.5276666
120	0x3d0532c0	0.032519102
121	0x3ea48751	0.32134488
122	0x3e31a739	0.17348947
123	0x3e685e7a	0.2269229
124	0xbba370d4	-0.0049878154
125	0x3e2be355	0.16785939
126	0x3eea5934	0.45771182
127	0x3e874045	0.2641622
128	0xbd2ade8a	-0.041716136
129	0xbc7fca55	-0.015612205
130	0x3e096d77	0.13420664
131	0x3e72f152	0.23724869
132	0x3de55954	0.111986786
133	0x3e6ab61f	0.22921036
134	0xbe288260	-0.16455984
135	0x3e419b01	0.18906786
136	0x3d4e1b6e	0.050319128
137	0x3df91383	0.12161925
138	0x3d90f397	0.07077711
139	0xbcca898c	-0.02472379
140	0xbb64cca1	-0.0034912007
141	0xbca52766	-0.020160388
142	0x3e80ba6a	0.25142223
143	0x3e1c7d5d	0.15282197
144	0x3e09e4d0	0.13466191
145	0x3e7b6870	0.24551558
146	0x3d9719bd	0.07377956
147	0x3e4f1a26	0.20224819
148	0x3e88fb35	0.26754156
149	0x3df19d70	0.11797607
150	0x3d9545f4	0.07288733
151	0x3d66ddd6	0.056363903
152	0x3d704a15	0.0586644
153	0xbd99fc2b	-0.075188
154	0x3e2860a5	0.16443117
155	0x3ce968bf	0.02849233
156	0xbd9ed069	-0.07754595
157	0xbdfd9e6d	-0.12383733
158	0x3c38edf4	0.011287201
159	0x3d8d0c69	0.06887133
160	0xbd85e594	-0.06537929
161	0xbd8ef48d	-0.06980238
162	0x3d843e17	0.06457155
163	0xbdb8c10b	-0.09021195
164	0x3d0eb265	0.0348381
165	0x3df8e2bd	0.12152622
166	0x3e2a9fd8	0.16662538
167	0x3e6c75d0	0.23091817
168	0x3dd9f81d	0.10643027
169	0xbe2fc088	-0.17163289
170	0xbe05fc4b	-0.13084523
171	0x3e688d17	0.22710072
172	0xbd81a485	-0.06330208
173	0xbe5fb0e4	-0.21844822
174	0x3de44a20	0.11146951
175	0x3e15c81f	0.14627121
176	0x3d4b960b	0.04970364
177	0xbda618c5	-0.08110193
178	0x3d0cbcd4	0.034359768
179	0xbd485950	-0.0489133
180	0x3dd8f9cb	0.10594519
181	0xbc7c196b	-0.0153869195
182	0xbe2f53fd	-0.17121883
183	0xbd8b0950	-0.067888856
184	0xbd30b9f3	-0.043146085
185	0x3cb45ca4	0.02201683
186	0xbd1bc7aa	-0.03803221
187	0xbd5ec460	-0.054386497
188	0xbe5ac332	-0.21363524
189	0x3d1f71cc	0.038926885
190	0xbb23ed8c	-0.0025013415
191	0x3cf16790	0.029468328
192	0x3d83e40e	0.06439982
193	0xbda3e6c3	-0.08002999
194	0x3dc2e357	0.09516018
195	0xbd93270e	-0.071851835
196	0xbd72730b	-0.059191745
197	0x3e04de64	0.1297546
198	0xbd75cb42	-0.060008295
199	0xbe236bed	-0.15959139
200	0xbe001ede	-0.12511775
201	0xbd75ee40	-0.060041666
202	0xbdb67655	-0.08909289
203	0xbdf81bb0	-0.12114656
204	0xbc54d067	-0.01298914
205	0xbd71d870	-0.0590443
206	0xbc2540f3	-0.010086286
207	0xbd88df6e	-0.06683241
208	0x3c1c85a0	0.009553343
209	0xbdcace17	-0.0990259
210	0xbe0545e8	-0.13014948
211	0xbe217d4b	-0.15770452
212	0xbe6047f2	-0.21902445
213	0xbe1806cc	-0.14846343
214	0xbcbaf9ff	-0.022824286
215	0xbc6bbc13	-0.014388102
216	0xbe1409d9	-0.14456882
217	0x3c69cd6a	0.014270166
218	0x3d8aa001	0.067687996
219	0xbe5fccc8	-0.21855462
220	0x3d806bdc	0.062705725
221	0xba810aa1	-0.0009845087
222	0x3d4eab1a	0.050456144
223	0xbd9a6496	-0.075387165
224	0x3da34975	0.07972995
225	0x3deea3d0	0.116523385
226	0xbd94d58a	-0.07267292
227	0xbbe6ffbd	-0.0070495293
228	0xbe3e3553	-0.18575029
229	0xbc434c5b	-0.01192006
230	0xbb63a253	-0.0034734204
231	0xbd28f5fd	-0.041250218
232	0x3ab27fd7	0.0013618422
233	0x3c48b37c	0.012249824
234	0xbd2e70df	-0.04258811
235	0xbc9e5f7c	-0.01933264
236	0xbe66c42a	-0.22535768
237	0x3daa6b33	0.08321228
238	0x3e2197a4	0.15780503
239	0x3e469dae	0.19396088
240	0xbf5e2aed	-0.8678425
241	0x3ee5ea24	0.44905198
242	0xbdb5567a	-0.08854385
243	0x3c9212f6	0.017831307
244	0xbf206cac	-0.6266582
245	0xbe51c22d	-0.20484228
246	0x3ebf2923	0.37336072
247	0x3ee195ab	0.440595
248	0x3efa9946	0.48945063
249	0xbd1ce938	-0.038308352
250	0xbe407217	-0.18793522
251	0xbe79b246	-0.24384412
252	0xbf22f88b	-0.63660496
253	0xbe6b7410	-0.22993493
254	0x3ef200f7	0.4726636
255	0xbedab74f	-0.42717978

fca1.bias f4 [60]
0	0x3d609638	0.05483076
1	0xbd424c82	-0.047436245
2	0x3dbbb52a	0.09165414
3	0x3a39f614	0.00070938584
4	0xbe831d8a	-0.25608474
5	0x3dfef059	0.124481864
6	0x3c7b22b6	0.0153281
7	0x3e1c5d00	0.15269852
8	0xbdb57de8	-0.08861905
9	0x3c588599	0.013215446
10	0xbe22510c	-0.1585123
11	0xbd805078	-0.06265348
12	0x3bac34ca	0.0052553164
13	0x3a965d44	0.0011471887
14	0xbd173f69	-0.036925707
15	0x3db59bf1	0.08867634
16	0xbc43be20	-0.011947185
17	0x3e0b8543	0.13625054
18	0xbd142012	-0.036163397
19	0x3dc4a652	0.096020356
20	0x3dc33e07	0.09533315
21	0x3e13685e	0.14395282
22	0x3cd610bc	0.026131026
23	0x3b976d69	0.004621197
24	0xbd66e96f	-0.056374963
25	0x3d3def7e	0.046370976
26	0xbdbae848	-0.091263354
27	0xbd0849c2	-0.033273466
28	0xbc440aa2	-0.011965426
29	0x3e1f12d8	0.15534532
30	0x3de2279a	0.1104271
31	0xbe405ad0	-0.18784642
32	0x3e00ba09	0.12570967
33	0xbdea64d5	-0.114450134
34	0x3e5d5479	0.21614255
35	0xbda48fd5	-0.08035246
36	0x3c7ad5df	0.01530978
37	0xbc878766	-0.016544055
38	0x3e645502	0.22298053
39	0xbbc483e6	-0.005997169
40	0x3e6e357c	0.2326259
41	0x3d911160	0.07083392
42	0x3b1244a6	0.002231875
43	0x3de9fbf2	0.11425008
44	0xbe00dd5e	-0.12584445
45	0x3dec3efb	0.1153545
46	0xbd8e91a2	-0.06961371
47	0x3e3dd47b	0.18538086
48	0xbe667f97	-0.22509609
49	0x3d8427b6	0.06452887
50	0x3d53cabd	0.05170702
51	0x3e2f8bc9	0.17143168
52	0x3dde99db	0.10869189
53	0xbdb19193	-0.08670344
54	0xbde0c508	-0.10975081
55	0x3d125e2c	0.03573434
56	0x3cb4aba5	0.022054503
57	0xbd43813a	-0.047730662
58	0xbb2cb373	-0.0026352077
59	0x3e30e75c	0.17275757

fca2.weight f4 [1, 60]
0	0xbf58e8c3	-0.84730166
1	0x3ec0f585	0.37687317
2	0xbdeb2456	-0.1148154
3	0x3d249d80	0.040189266
4	0x3f25b8f6	0.64735353
5	0xbf6a7a76	-0.9159311
6	0xbe147faa	-0.14501825
7	0x3efd936c	0.49526536
8	0x3dda1b5b	0.10649749
9	0x3e74b19a	0.23895875
10	0x3f85b1e6	1.0444915
11	0x3ec08304	0.37599957
12	0xbe75e16b	-0.24011771
13	0x3f1334ce	0.5750245
14	0x3e8bf4ae	0.27335113
15	0xbe77e659	-0.24208964
16	0xbe05a6fe	-0.13051984
17	0x3ef68ee3	0.4815589
18	0xbea1cc72	-0.31601292
19	0x3edd3eb4	0.432119
20	0xbe161d65	-0.1465965
21	0x3e9e5791	0.30926183
22	0xbe89d6bd	-0.26921645
23	0xbe3e8604	-0.1860581
24	0xbdeb8449	-0.11499841
25	0xbd5f2337	-0.054476943
26	0xbda0927b	-0.07840439
27	0x3f03ec4c	0.51532435
28	0x3f197c85	0.59955627
29	0x3f606c58	0.8766532
30	0xbf619762	-0.88121617
31	0x3ed0a605	0.40751663
32	0x3efabe00	0.48973083
33	0x3d07a4eb	0.033116262
34	0x3efd0596	0.49418324
35	0x3c869ee7	0.016433192
36	0xbd93d861	-0.072190054
37	0xbd1a6aea	-0.037699617
38	0xbe455218	-0.19269598
39	0xbe14ac69	-0.14518894
40	0x3eff6af1	0.49886277
41	0xbd6a4edb	-0.05720411
42	0x3eef7772	0.46770817
43	0x3ead51b8	0.3385141
44	0x3c60a4c1	0.013711155
45	0xbe925824	-0.2858287
46	0xbd144eb2	-0.036207862
47	0x3f149104	0.58033776
48	0x3e68343c	0.22676176
49	0xbda9980c	-0.08280954
50	0xbd823d30	-0.06359327
51	0x3efa12fd	0.48842612
52	0x3f1868fd	0.595352
53	0xbe17ade4	-0.14812428
54	0x3ea0bcb0	0.31393957
55	0xbe09581b	-0.13412516
56	0x3eba9e8e	0.36449093
57	0xbe48a8e3	-0.19595675
58	0xbdcc1389	-0.099646635
59	0x3ed312d5	0.41225305
