DDPG/models/8600_critic.pt (torch, 18423 bytes, 7 tensors)

fc1.weight f4 [30, 3]
00000000: 7c09 b0be ce03 0fbf 000c 22bd fb06 11bf
00000010: 3897 71be c80f eabd 763e 153f 0e79 f13e
00000020: b253 3a3e 31d4 f4be d262 82bf 6fea febd
00000030: 4a86 79bf 17b5 9ebe b628 18bd 12a2 5f3c
00000040: 272c a1be 9d99 25bc 7430 ce3d d079 b7bf
00000050: 2ec8 80be 8d59 06bf 0117 bf3f 7500 ba3e
00000060: 055c 16bf 5d1e 323f bdf8 143d 305c 103d
00000070: d01e cb3d f0f3 7abc a280 693d 52a2 003e
00000080: 121c 75bc e545 42bf 5864 d63e 249e 9d3e
00000090: d693 203f 4e17 d6be 3f8c 2ebe 67bc bfbe
000000a0: d6ac 8fbe 5215 1b3d 7049 3d3f 5dc4 f23e
000000b0: 563b 563e ae97 f8be 80ff c6bd 6c8b f03d
000000c0: 49b4 db3e 278a f0be 1ad1 b9bd 50b2 e3be
000000d0: bc48 dcbe 710e 10be f2fc 243e 442e 4d3f
000000e0: f075 013e 58ee 533d 6f3d 583f ce7a 303e
000000f0: f47a 4b3e 1cfb a23d 46ba 803e 2a95 48bc
00000100: 97df d8bd 71a1 3d3a 7565 3abe c2bb 0b3f
00000110: 694c 053d 1f82 0abf a4e8 823f b977 343e
00000120: 1c0e 64bf 9795 fd3e a491 843e 2819 5cbf
00000130: 042a c2be 6be9 89bc c761 fabe 981c bc39
00000140: 431a 963d ccb2 39bf b9e3 283c 6c08 cc3d
00000150: ab02 ffbe b370 203f ee3b 053e 7858 bdbd
00000160: 2067 1cbf 60cf 9fbe
-0.34382236 -0.5586518 -0.039562225 -0.56651276 -0.23592842 -0.11428791 0.5829843 0.4716267
0.1819599 -0.4781814 -1.0186408 -0.124470584 -0.97470534 -0.30997536 -0.0371482 0.01364948
-0.31478998 -0.010107425 0.100678355 -1.4334049 -0.25152725 -0.52480394 1.4928895 0.36328474
-0.5873416 0.6957758 0.036370028 0.035244167 0.099179864 -0.015316948 0.05700744 0.1256192
-0.014960306 -0.758879 0.4187343 0.30784714 0.6272558 -0.41814655 -0.17045687 -0.37448427
-0.2806155 0.03786213 0.7394018 0.47415438 0.20921072 -0.48553222 -0.097167015 0.117453426
0.42910984 -0.46980402 -0.09073086 -0.4447198 -0.43024242 -0.14068009 0.16112116 0.8014872
0.12642646 0.051740974 0.8446874 0.17234346 0.19871122 0.079580516 0.25142115 -0.012242595
-0.105895214 0.00072338345 -0.18202765 0.5458337 0.032543574 -0.541048 1.0227246 0.17623796
-0.8908403 0.4952819 0.25892365 -0.85975885 -0.3792268 -0.016834935 -0.48902723 0.00035879458
0.07329228 -0.7253845 0.0103082 0.09962544 -0.49806723 0.62671965 0.13011143 -0.0924539
-0.61094856 -0.31212902

fc1.bias f4 [30]
00000000: cf8b 0ebd 503a a33e 76ac 85be e19e adbe
00000010: 69d3 debe 511a cabe 2d63 10bf 2914 dcbd
00000020: e380 03bf 4041 b0be b02e b7be 2e01 09bf
00000030: 8325 50be 5511 063f 4865 debe ac8f 813e
00000040: ded3 e2bd 56c4 023f ae7b e13d 95b3 ec3e
00000050: 49c1 113f 0c93 b8be abfd d43e 1c53 a3be
00000060: a6c2 e73d f224 ac3d 35ab 493e eb6a c13d
00000070: 8871 103f 9948 58be
-0.0348013 0.31880426 -0.2610814 -0.33910277 -0.43520668 -0.39473203 -0.5640133 -0.10746033
-0.5136854 -0.34424782 -0.35777807 -0.53517425 -0.2032681 0.52370197 -0.43436646 0.25304925
-0.11075567 0.51080835 0.11009918 0.4623076 0.56935555 -0.36049688 0.41599783 -0.31899345
0.11316423 0.08405484 0.19694217 0.09444221 0.56423235 -0.21121444

fa1.weight f4 [30, 1]
00000000: 6e5e 5ebb b3a7 6dbc 0746 72ba 19f5 2abd
00000010: c2fe 653d e34b e93d d379 373d 7d0c a43d
00000020: f965 32be bb09 46be 5990 e2bd 7f30 0b3d
00000030: 1ff7 5d3d 47a8 b13d 538b 07be 2bf7 99bd
00000040: a4ec c43b 75b9 a63c d6c9 183e a7ef 88bd
00000050: 54ed 02be 5ad1 edbc 9fc3 82bd 5345 b43c
00000060: 984a 9ebd 50ea 35bd e6ed b3bd 980a e43d
00000070: 4055 223a 133d 56bb
-0.0033930796 -0.014505315 -0.0009242002 -0.04173765 0.05615116 0.11391427 0.044793915 0.080101945
-0.17421712 -0.1933965 -0.110626884 0.033981796 0.05419075 0.086746745 -0.13236742 -0.07517847
0.006009655 0.020352105 0.14920744 -0.06686335 -0.12785846 -0.02903049 -0.06384968 0.022005713
-0.077290714 -0.04441291 -0.0878561 0.11134833 0.0006192513 -0.0032690212

fa1.bias f4 [30]
00000000: ccdd 1e3f f33f 04bd a002 6ebd 44a3 43bf
00000010: 68c8 4ebf eaf3 53bf 69b1 533d 5808 11bf
00000020: 4279 b3be a612 6abf 674b e23d c152 8cbd
00000030: c07a 5ebd 1433 5ebf 32d3 0dbe 32f9 1bbe
00000040: edb5 7b3a 5e92 2e3f f036 03bf f019 6bbe
00000050: c071 83be 3df0 363d 42be 19bf 139c ef3e
00000060: 6980 3c3f 2911 56bd 2ad0 48bf 206b f53c
00000070: c4f2 adbe 4f38 d73b
0.62057185 -0.03228755 -0.058107972 -0.76421 -0.80774546 -0.8279406 0.051682863 -0.56653357
-0.3505345 -0.91434705 0.11049538 -0.068517216 -0.054316282 -0.8679669 -0.13850096 -0.15231779
0.0009601999 0.6819209 -0.512557 -0.22959113 -0.25672722 0.044662703 -0.60055935 0.46798763
0.7363344 -0.05226246 -0.78442633 0.029958308 -0.33974278 0.006567992

fca1.weight f4 [60, 60]
00000000: bf60 253d 5679 973e c275 cfbf e4bf fabd
00000010: 9e78 0b3d f929 f23d fdfa 483e 5fba a0bd
00000020: 3c73 1ac0 fc21 cbbd 38d1 53bd 1061 f4be
00000030: b237 5cbe 1932 c23d 80fb 0c3f f7ae 123e
00000040: 7536 f73e b6d6 ab3e 4e0a 6abe 1782 7ebe
00000050: 17c2 74be ed32 49bc 89da d73e 1d5f 323e
00000060: 9855 d3be 3574 9dbd c16d 7ebc d926 203e
00000070: c41d 503e 8bee 18bf d944 d6ba 7da8 12bd
00000080: 6af7 303e 4ebc b0bb e595 193d a70f 32be
00000090: f312 633d f001 5dbd 6a20 f03d e347 fdbd
000000a0: 1e28 ddbe e7e4 dbbd 2df1 983d 0005 e23d
000000b0: c200 89be 36dd 34be 3e5d 673e 8af6 7ebc
000000c0: fccb 0abd ceac 8c3d 256b ba3d b2d7 f6bd
000000d0: bc68 90bd 0d8f 98bd 98f8 6ebe d9d2 a1be
000000e0: bab9 883d c769 483e 9726 92bd 93c4 53be
000000f0: d46f 7c3e e675 c43c 7d37 f4bf f074 073e
00000100: ed36 b73e 3ff8 b0bd 19ae 4c3e 1534 b83e
00000110: a42d 26bf c4c5 0fbe b27c 1e3d c60e 723f
00000120: d691 fd3e 247a c4bd 9be7 efbf 74a6 e6bd
00000130: 14bc 8e3e 86c3 1f3c e780 d9bf 300a cabf
00000140: 9bda 883e 9556 5abe 806a 34be 19e6 183f
00000150: 2e75 f33d 514b 6c3e 8c17 1ebe a896 5fbe
00000160: 3f82 513e 47bc 09bf 306a 42be 83a4 66be
00000170: af13 103d ff83 0c3d 8879 923d e556 61bd
00000180: 21e7 2b3d 171f 6c3c 2ea8 16bb dbe4 abbd
00000190: 07f7 1abc 568f 313e c2fc bdbc 53ae a53b
000001a0: c6c8 a5be efdc f9be c02a 233c b4f7 02be
000001b0: ea7f f4bc 47e2 133d 6954 463e 435e 1abe
000001c0: 4b49 18bd 77e9 73bd b01a 803c 1d86 1dbe
000001d0: 3645 ccbc 5327 8f3d 0dd2 f03c b9ad f5be
000001e0: 4a2e 0a3d c65e a43e 6f9b 303e 9435 6a3e
000001f0: d492 38ba 55e3 2b3e 7bde e93e 4373 863e
00000200: 6f98 22bd 55ca 7fbc 776d 093e 61da 703e
00000210: 65b9 e13d b594 6a3e fdac 2bbe 446a 403e
00000220: ee5b 4f3d 543b fd3d 5b8a 923d f0ea cabc
00000230: 15b4 b6bb 6627 a5bc 6d5b 803e dcf2 1b3e
00000240: 71e0 0a3e 78c7 793e 50f0 9b3d 3345 4b3e
00000250: f621 893e 9548 f53d c633 973d d6dd 663d
00000260: 154a 703d 2bfc 99bd a560 283e bf68 e93c
00000270: f58d a2bd 6d9e fdbd f4ed 383c 690c 8d3d
00000280: 7d63 88bd 8df4 8ebd 6f39 5b3d 0bc1 b8bd
00000290: 0dec 123d bde2 f83d 87d2 2c3e 8a61 6d3e
000002a0: 1df8 d93d 88c0 2fbe 4bfc 05be 7b19 693e
000002b0: 85a4 81bd 3f21 5fbe 81da e73d 7a58 183e
000002c0: 0b96 4b3d 9c5d a6bd d4bc 0c3d 23fd 50bd
000002d0: cbf9 d83d 6b19 7cbc fd53 2fbe 5009 8bbd
000002e0: f3b9 30bd a45c b43c aac7 1bbd 60c4 5ebd
000002f0: 32c3 5abe cc71 1f3d 8ced 23bb 9067 f13c
00000300: 0ee4 833d c3e6 a3bd 57e3 c23d 0e27 93bd
00000310: 0b73 72bd 64de 043e 42cb 75bd ed6b 23be
00000320: de1e 00be 40ee 75bd 5576 b6bd b01b f8bd
00000330: 67d0 54bc 70d8 71bd f340 25bc 6edf 88bd
00000340: a085 1c3c 17ce cabd e845 05be 4b7d 21be
00000350: f247 60be cc06 18be fff9 babc 13bc 6bbc
00000360: d909 14be 6acd 693c 01a0 8a3d c8cc 5fbe
00000370: dc6b 803d a10a 81ba 1aab 4e3d 9664 9abd
00000380: 7549 a33d d0a3 ee3d 8ad5 94bd bdff e6bb
00000390: 5335 3ebe 5b4c 43bc 53a2 63bb fdf5 28bd
000003a0: d77f b23a 7cb3 483c df70 2ebd 7c5f 9ebc
000003b0: 2ac4 66be 336b aa3d a497 213e ae9d 463e
000003c0: 68c1 60bf c1fd e43e ad74 bbbd 7d34 a339
000003d0: db82 21bf 2dc2 51be f6bf c03e 95c6 e43e
000003e0: b94b fd3e 38e9 1cbd 1772 40be 0015 7cbe
000003f0: db50 24bf f397 74be b1b2 f43e 3fc5 dabe
0.040375467 0.2958476 -1.6207812 -0.122436315 0.034050576 0.11824412 0.19626994 -0.078480475
-2.4132833 -0.099185914 -0.0517132 -0.47730303 -0.21505621 0.094822116 0.5507126 0.14324556
0.48283735 0.3356225 -0.22855493 -0.24854313 -0.23902164 -0.012280208 0.42158917 0.17419095
-0.4127624 -0.0768818 -0.015529097 0.15639819 0.20323855 -0.5973899 -0.0016347422 -0.035805214
0.17281881 -0.0053935414 0.037496466 -0.17388783 0.055437993 -0.053956926 0.117249325 -0.12367227
-0.4319467 -0.10737019 0.07467876 0.1103611 -0.2675839 -0.1766251 0.22594163 -0.015561709
-0.03388594 0.068688974 0.091024674 -0.12052859 -0.070512265 -0.0744916 -0.23337018 -0.31606176
0.066760495 0.19571601 -0.07136267 -0.20680456 0.24652034 0.023982 -1.9079434 0.13228202
0.35784093 -0.08641099 0.19988288 0.35977235 -0.6491339 -0.14040285 0.038693137 0.9455379
0.49525326 -0.09593609 -1.8742555 -0.11262217 0.27877867 0.009751206 -1.6992463 -1.5784359
0.26729283 -0.21322091 -0.17618752 0.597261 0.118875846 0.23075606 -0.1543867 -0.21834815
0.20459841 -0.53802913 -0.1898582 -0.22523694 0.03517502 0.03430557 0.071520865 -0.05501451
0.04196847 0.014411709 -0.0022988426 -0.0839326 -0.00945831 0.17339835 -0.023191813 0.0050561815
-0.3237974 -0.4880137 0.009958923 -0.12789804 -0.02984615 0.036104467 0.19368137 -0.1507502
-0.037179273 -0.05954882 0.015637726 -0.15383191 -0.024935346 0.069899224 0.029397035 -0.47984102
0.03373555 0.32103556 0.17246793 0.22872001 -0.0007040922 0.16785939 0.45677552 0.26259813
-0.039696153 -0.015612205 0.13420664 0.23520805 0.11021689 0.2290829 -0.16765209 0.18790537
0.05062478 0.123648316 0.071552955 -0.02477023 -0.0055756667 -0.020160388 0.25069752 0.15229362
0.1356218 0.24392498 0.07614195 0.19850616 0.26783723 0.119767345 0.07382922 0.056363903
0.0586644 -0.075188 0.16443117 0.02849233 -0.079372324 -0.12383733 0.011287201 0.06887133
-0.06659601 -0.06980238 0.05352157 -0.09021195 0.035869647 0.12152622 0.16877185 0.2318174
0.10643027 -0.17163289 -0.13084523 0.22763626 -0.06330208 -0.21790026 0.11320973 0.14877501
0.04970364 -0.08123323 0.034359768 -0.05102266 0.10594519 -0.0153869195 -0.17121883 -0.067888856
-0.043146085 0.02201683 -0.03803221 -0.054386497 -0.21363524 0.038926885 -0.0025013415 0.029468328
0.06439982 -0.08002999 0.09516018 -0.071851835 -0.059191745 0.1297546 -0.060008295 -0.15959139
-0.12511775 -0.060041666 -0.08909289 -0.12114656 -0.01298914 -0.0590443 -0.010086286 -0.06683241
0.009553343 -0.0990259 -0.13014948 -0.15770452 -0.21902445 -0.14846343 -0.022824286 -0.014388102
-0.14456882 0.014270166 0.067687996 -0.21855462 0.062705725 -0.0009845087 0.050456144 -0.075387165
0.07972995 0.116523385 -0.07267292 -0.0070495293 -0.18575029 -0.01192006 -0.0034734204 -0.041250218
0.0013618422 0.012249824 -0.04258811 -0.01933264 -0.22535768 0.08321228 0.15780503 0.19396088
-0.87795115 0.4472485 -0.091531135 0.0003112889 -0.63090295 -0.20484228 0.37646455 0.44682756
0.49471834 -0.038308352 -0.18793522 -0.24617386 -0.64185876 -0.23886089 0.4779258 -0.42728612

fca1.bias f4 [60]
00000000: aa3f 6b3d 287d 38bd 4868 bd3d 14f6 393a
00000010: 723a 86be dc8c fc3d 9f56 863c e557 1c3e
00000020: e87d b5bd 6822 5a3c 6c7f 23be 49ed 81bd
00000030: c08a d13b 3176 da3a 693f 17bd a0de b33d
00000040: 1711 33bc ed27 0d3e cae5 0ebd dd8e c53d
00000050: 851f c53d 1c0a 113e dd07 e03c ebd1 ba3b
00000060: 4ad8 63bd 7eef 3d3d 48e8 babd e3da 12bd
00000070: a20a 44bc 6f75 1f3e 4223 e63d 622c 47be
00000080: 807f 043e d564 eabd 6ff0 5e3e d58f a4bd
00000090: 64c2 803c da33 8fbc 0778 653e b4a6 a4bb
000000a0: 13ba 6a3e 61f2 913d 06da 543a 74b2 e63d
000000b0: 5edd 00be 11ca ee3d a291 8ebd be39 3e3e
000000c0: f8c9 6bbe c277 853d 4151 553d fee0 2f3e
000000d0: fbdd da3d 1384 afbd f2e1 dabd adc7 153d
000000e0: 6226 713c dae1 3ebd 4d7b 00bb 6072 333e
0.05743376 -0.045041233 0.09248406 0.00070938584 -0.26216465 0.12331554 0.016398726 0.15267904
-0.08861905 0.013313867 -0.15966576 -0.06344087 0.006394714 0.0016667304 -0.036925707 0.08782697
-0.0109293675 0.13784762 -0.034887113 0.0964639 0.096251525 0.14164013 0.0273475 0.0057012937
-0.05562619 0.046370976 -0.091263354 -0.035853278 -0.011965426 0.15572141 0.11237194 -0.19450524
0.12939262 -0.114450134 0.21771406 -0.08035246 0.015717693 -0.01748078 0.22409068 -0.0050247554
0.22922544 0.07126308 0.0008119646 0.11264506 -0.12584445 0.11659635 -0.06961371 0.18576714
-0.23026264 0.065169826 0.052079443 0.17175671 0.10686871 -0.08570113 -0.10687627 0.03656738
0.014718624 -0.046602108 -0.0019604743 0.175241

fca2.weight f4 [1, 60]
00000000: e774 56bf 5310 be3e a677 e9bd 809d 243d
00000010: 83e6 263f 9d90 69bf 343c 14be 935b fc3e
00000020: 5b1b da3d f97a 743e ff6d 873f a625 be3e
00000030: 5f0c 76be 5116 133f aef4 8b3e a5f2 7cbe
00000040: d14c 05be 7b2c f23e 88c1 a1be f20d df3e
00000050: e396 15be 5e7d 9e3e 6dbc 89be aa61 3ebe
00000060: 517c e9bd 3723 5fbd 7b92 a0bd e9e3 fc3e
00000070: 857c 193f f30f 643f 6d45 63bf 15eb cd3e
00000080: 90e9 f93e eba4 073d af4c ff3e e79e 863c
00000090: f507 92bd 2c93 13bd d931 45be 0f17 14be
000000a0: e92c fe3e 3234 63bd 31e8 ec3e cc62 a93e
000000b0: c1a4 603c cf43 92be b24e 14bd ee16 113f
000000c0: ce94 623e c97d a8bd e0b5 7dbd a422 f63e
000000d0: 745e 163f 6586 16be 6794 9f3e e782 08be
000000e0: eda8 b43e f2ae 48be f9a2 c9bd f1f3 d03e
-0.8377213 0.3712183 -0.11399774 0.040189266 0.6519548 -0.9123629 -0.1447609 0.49288616
0.10649749 0.23875035 1.0580443 0.37138098 -0.24028157 0.5745593 0.27335113 -0.24701937
-0.13017584 0.4729956 -0.31592965 0.43565327 -0.1460834 0.30955023 -0.2690157 -0.18591943
-0.114006646 -0.054476943 -0.07840439 0.49392632 0.59955627 0.89086837 -0.8877781 0.40218416
0.48811007 0.033116262 0.49863192 0.016433192 -0.07130424 -0.036029026 -0.19257297 -0.14461921
0.4964364 -0.0554697 0.46270898 0.3308319 0.013711155 -0.2856736 -0.036207862 0.5667561
0.22127077 -0.082271166 -0.061941028 0.48073304 0.58737874 -0.14699705 0.3116791 -0.13331185
0.3528513 -0.19597986 -0.09845538 0.40811113
