DDPG/models/8900_actor.pt (torch, 2835 bytes, 3 tensors)

fa1.weight f4 [60, 3]
0.69325495 -1.0910342 -0.29979467 0.755422 -1.112039 -0.7036109 1.1445185 -1.798429
-0.3190058 0.7524767 1.1078706 -1.363929 1.1410903 1.130071 -0.21497041 -0.22695637
1.8766532 -0.1347211 -0.092620604 -0.1603878 -0.005839608 1.1677008 1.163929 -0.21634014
-1.3704143 -1.024709 -0.6423122 -0.22679415 0.29627502 -0.90003794 0.81739694 -0.7252059
-0.6224989 -0.3271251 -0.76635563 0.8970197 -0.03422885 0.16427618 -0.0151247 1.1272116
-1.5092599 -0.8261523 -0.50986785 -0.9154342 1.1959709 -0.10890186 0.5229267 -0.827838
-1.6359807 -0.26432312 -1.0106671 1.1166488 -0.97031564 -0.83123296 0.8817506 0.9104358
-0.24068396 -0.04955231 0.00852733 -0.053729255 -0.77070403 -1.0205257 0.8602092 0.5100599
0.051095508 0.03617566 0.9572863 -0.87747586 -0.7752556 0.21125467 -0.047162626 -0.4839893
1.0243388 -0.034249164 0.894099 -0.69557375 -0.9951866 0.777929 0.041144624 -0.10252819
0.025459757 0.9696676 -1.0745667 -0.77247447 0.093278304 -0.0394176 -0.7044985 -1.6320477
-1.680458 -0.44082996 0.9736493 -1.7632778 -0.32383034 0.27401948 -0.09715342 -0.9102439
-0.3087821 0.3484043 0.77391344 0.79603535 -0.8959502 0.96440125 1.0514767 -1.4756181
-0.8658396 -1.4825714 -0.46952462 -0.96791184 0.533322 0.64319783 0.39496967 -0.13167152
0.40254167 -0.782664 -0.23028882 0.34746695 0.8790156 -1.0780143 0.56981456 -0.76026744
1.2640531 0.1484359 1.1850741 -0.6825381 1.0539653 -0.71605027 0.56118435 0.53873795
0.4047137 1.3869959 0.24687865 1.301981 -1.5625869 -1.5615908 -0.5718989 1.108938
1.0971029 -0.2126876 -0.34434843 -0.8710498 0.8117691 1.0393592 -1.4233307 -0.87340105
0.6955454 0.65285754 0.4790722 -2.4558458 2.1496956 0.11459401 0.99134403 -1.4653654
-0.8575125 0.8534917 -0.57347906 -0.9070237 0.14768323 1.4079081 -0.50803035 -0.40951645
-1.0669998 0.9805357 1.0318455 0.49348497 0.8302112 -0.7072899 -1.01447 0.7962561
1.245135 0.09693857 1.0947064 0.501473 0.71353334 0.42198902 1.3751407 1.3876735
-0.22571471 -0.718546 -0.9375034 0.7836513
00000000: 2879 313f 02a7 8bbf b07e 99be 5663 413f
00000010: 4b57 8ebf d81f 34bf 957f 923f ec32 e6bf
00000020: ba54 a3be 50a2 403f b4ce 8d3f 3a95 aebf
00000030: 3f0f 923f 2ba6 903f 3421 5cbe 4067 68be
00000040: 2c36 f03f 54f4 09be dfaf bdbd b33c 24be
00000050: 2f5a bfbb 3877 953f a0fb 943f 4588 5dbe
00000060: bc69 afbf aa29 83bf 936e 24bf ba3c 68be
00000070: 5cb1 973e e368 66bf ed40 513f 18a7 39bf
00000080: 175c 1fbf f17c a7be e22f 44bf 15a3 653f
00000090: 8d33 0cbd 0438 283e 97cd 77bc 7848 903f
000000a0: 6e2f c1bf b87e 53bf b386 02bf e559 6abf
000000b0: 9315 993f f007 dfbd 86de 053f 31ed 53bf
000000c0: d167 d1bf 5c55 87be 8a5d 81bf 59ee 8e3f
000000d0: 9b66 78bf afcb 54bf 68ba 613f 5212 693f
000000e0: db75 76be 5df7 4abd 37b6 0b3c 3513 5cbd
000000f0: dc4c 45bf 96a0 82bf ac36 5c3f 4993 023f
00000100: 8649 513d ee2c 143d b710 753f 42a2 60bf
00000110: 2777 46bf 2553 583e 992d 41bd 72cd f7be
00000120: 891d 833f da48 0cbd ace3 643f 1f11 32bf
00000130: 8dc4 7ebf 5b26 473f 4487 283d 4dfa d1bd
00000140: fb90 d03c 233c 783f 678b 89bf e3c0 45bf
00000150: b208 bf3d 5974 21bd 045a 34bf f0e6 d0bf
00000160: 3f19 d7bf 77b4 e1be 1541 793f 16b3 e1bf
00000170: 17cd a5be 484c 8c3e 5ff8 c6bd bf05 69bf
00000180: b018 9ebe 0c62 b23e 311f 463f f9c8 4b3f
00000190: fe5c 65bf 00e3 763f ca96 863f 0ee1 bcbf
000001a0: aaa7 5dbf e6c4 bdbf 8865 f0be 12c9 77bf
000001b0: ca87 083f 9da8 243f 7739 ca3e e6d4 06be
000001c0: f119 ce3e ab5c 48bf d5d0 6bbe 30e7 b13e
000001d0: 2b07 613f 5ffc 89bf 5edf 113f e3a0 42bf
000001e0: 7ecc a13f 95ff 173e 82b0 973f d1ba 2ebf
000001f0: 56e8 863f 124f 37bf c7a9 0f3f bbea 093f
00000200: a236 cf3e 1589 b13f c2cd 7c3e 50a7 a63f
00000210: d902 c8bf 35e2 c7bf f767 12bf aef1 8d3f
00000220: de6d 8c3f c7ca 59be 704e b0be 1ffd 5ebf
00000230: 1ad0 4f3f b909 853f b32f b6bf 3697 5fbf
00000240: 430f 323f ac21 273f f448 f53e 942c 1dc0
00000250: 9d94 0940 44b0 ea3d b9c8 7d3f 1891 bbbf
00000260: f085 5bbf 6f7e 5a3f 86cf 12bf b532 68bf
00000270: 463a 173e 5536 b43f 470e 02bf 24ac d1be
00000280: 7393 88bf 6304 7b3f 8313 843f 10aa fc3e
00000290: b988 543f f310 35bf 27da 81bf 71d7 4b3f
000002a0: 9560 9f3f bb87 c63d 571f 8c3f 8960 003f
000002b0: 1faa 363f f20e d83e 9c04 b03f 499f b13f
000002c0: c221 67be a1f2 37bf 3900 70bf 5f9d 483f

fa1.bias f4 [60]
0.8704535 -0.005666935 0.7701197 -1.1712841 0.06436059 -1.13713 -0.295763 0.061939895
-0.3002892 0.49877825 -0.12923814 0.75833046 -0.28385732 -0.28895444 0.8228507 0.39456007
-0.11501147 -0.36079562 0.27321893 -0.55098695 1.0514904 0.87828726 -0.49003044 0.08380105
-0.50936234 0.9638589 -0.31140813 -0.22377272 0.7471479 -0.69262826 0.6921661 -0.6880447
-1.0460049 -1.2347467 -0.3755896 -0.061117873 -0.025025569 0.39999434 -0.9594101 -0.14972681
-0.08884248 0.09364042 0.08206856 -0.1428646 -0.49855027 0.071783245 0.7712343 -0.37350306
0.09506117 -0.47194874 -0.42995408 -0.6102125 0.18481733 0.8839118 -0.4447944 0.97866696
-0.101742014 0.010142672 0.043154653 0.9853193
00000000: 0ad6 5e3f b2b1 b9bb 9126 453f a3ec 95bf
00000010: 7ccf 833d 7a8d 91bf 3f6e 97be b0b4 7d3d
00000020: 82bf 99be dd5f ff3e 0157 04be f221 423f
00000030: bf55 91be d6f1 93be 58a6 523f c703 ca3e
00000040: 228b ebbd 34ba b8be 5ae3 8b3e 7b0d 0dbf
00000050: 3d97 863f 6fd7 603f 45e5 fabe e39f ab3d
00000060: 9265 02bf 75bf 763f e370 9fbe ad24 65be
00000070: 1645 3f3f 1650 31bf cc31 313f b323 30bf
00000080: 7de3 85bf 2e0c 9ebf 484d c0be bc56 7abd
00000090: 6c02 cdbc 0fcc cc3e e69b 75bf fc51 19be
000000a0: 0cf3 b5bd 8cc6 bf3d 9013 a83d 194b 12be
000000b0: fb41 ffbe 1803 933d 9c6f 453f cb3b bfbe
000000c0: 6eaf c23d 44a3 f1be f122 dcbe e336 1cbf
000000d0: c140 3d3e 0b48 623f 17bc e3be eb89 7a3f
000000e0: 1e5e d0bd 732d 263c efc2 303d e33d 7c3f

fa2.weight f4 [1, 60]
0.82050747 0.7672561 0.9258755 1.877352 -1.2145787 -2.9066567 -0.0684354 -1.2643747
-2.2129848 -0.3890588 0.71239704 0.49491328 -0.16032678 1.590285 1.3973211 -0.55173653
-1.5462838 1.0536212 -0.56737465 0.11315759 1.0724988 0.3882602 1.256548 0.30910152
-1.4718837 1.1666552 0.07130343 0.75972205 -0.4914219 -2.0342035 1.106026 1.4535896
-1.4758223 -1.4449458 1.4938585 -1.3506608 -0.742382 -0.45004848 -1.8428617 -0.85098374
-1.7010483 -1.0018376 -0.15966013 -1.5873132 -1.9527223 -0.989654 0.78623295 1.4682989
-0.26557937 1.6647053 1.5120255 1.2971998 -0.9370248 1.1803455 -1.369195 1.0973132
-1.6457968 -0.44678172 -1.6746184 0.94156635
00000000: c70c 523f e56a 443f 2d06 6d3f 124d f03f
00000010: 5177 9bbf aa06 3ac0 dc27 8cbd 08d7 a1bf
00000020: 8ba1 0dc0 b732 c7be a75f 363f 4665 fd3e
00000030: b42c 24be 758e cb3f 6bdb b23f 9b3e 0dbf
00000040: a1ec c5bf 0fdd 863f 773f 11bf 2bbf e73d
00000050: a447 893f 0aca c63e 91d6 a03f 8e42 9e3e
00000060: af66 bcbf f554 953f 8807 923d 257d 423f
00000070: a79b fbbe 6430 02c0 4392 8d3f 390f ba3f
00000080: bfe7 bcbf fcf3 b8bf c136 bf3f 74e2 acbf
00000090: bf0c 3ebf c16c e6be e4e2 ebbf 12da 59bf
000000a0: f3bb d9bf 373c 80bf f27d 23be 142d cbbf
000000b0: cef2 f9bf f759 7dbf 9046 493f 38f1 bb3f
000000c0: 05fa 87be 1015 d53f 0d8a c13f a50a a63f
000000d0: dbe0 6fbf 9015 973f c841 afbf c274 8c3f
000000e0: 78a9 d2bf 93c0 e4be e559 d6bf 7e0a 713f
