DDPG/models/9000_critic.pt (torch, 18423 bytes, 7 tensors)

fc1.weight f4 [30, 3]
00000000: 275c a8be 8bfa 10bf 4d4a 1dbd d2dd 12bf
00000010: d494 77be c098 debd 7c91 133f 7f64 fa3e
00000020: 37ce 3b3e 0e08 efbe 9489 86bf 641a fbbd
00000030: 46d2 7fbf e6d6 a2be f071 21bd 12a2 5f3c
00000040: 272c a1be 9d99 25bc 7e66 053e 07d4 b6bf
00000050: 3576 78be 7000 0dbf 3bfd c03f f12e be3e
00000060: aecf 1abf ccf9 2f3f 66b0 173d 305c 103d
00000070: d01e cb3d f0f3 7abc a280 693d 52a2 003e
00000080: 121c 75bc 3f8b 44bf 878f da3e 69d6 a13e
00000090: 9e22 273f 4580 c3be 8bb4 2dbe a10d c3be
000000a0: b5d6 91be a7f4 163d 278b 3a3f 09f9 f83e
000000b0: 1d49 503e 4710 08bf 0bab d8bd 608d fe3d
000000c0: f50c e73e d1e1 d1be 8df7 b2bd 4385 e0be
000000d0: ebd4 d3be d247 15be f440 0c3e c757 513f
000000e0: f741 093e a917 d53b 71a6 563f b9e8 2c3e
000000f0: ce14 4d3e 4fa0 1b3e 3b35 823e 2a95 48bc
00000100: 97df d8bd 71a1 3d3a abfe 2dbe 0439 103f
00000110: 4d31 0a3d 021f 13bf 3c4f 843f 54bf 363e
00000120: 671b 63bf 6b45 033f a653 803e 63e2 56bf
00000130: 6e1d bebe 1563 64bc 615b f3be 17ee 03bd
00000140: 9b78 983d 2a2b 3bbf 2e15 b53c 596b ca3d
00000150: 7e1a 07bf f4e6 1a3f 9137 093e 86bc 80bd
00000160: 160e 18bf 6dc5 9cbe
-0.32882807 -0.566323 -0.038400937 -0.5736972 -0.24177867 -0.108689785 0.57643867 0.48904797
0.18340383 -0.46685833 -1.0510736 -0.12260893 -0.99930227 -0.3180458 -0.0394153 0.01364948
-0.31478998 -0.010107425 0.13027379 -1.4283456 -0.24263842 -0.5507879 1.507728 0.37145188
-0.60473144 0.68740535 0.03703346 0.035244167 0.099179864 -0.015316948 0.05700744 0.1256192
-0.014960306 -0.7677497 0.42687628 0.31608894 0.65287197 -0.381838 -0.16963403 -0.38096336
-0.2848412 0.036854412 0.7286858 0.486275 0.2034039 -0.5314984 -0.10579499 0.12429309
0.45127073 -0.40992597 -0.08738623 -0.4385167 -0.4137338 -0.14578179 0.13696653 0.8177456
0.1340407 0.0065030647 0.8384772 0.16885652 0.20027468 0.15197872 0.25431237 -0.012242595
-0.105895214 0.00072338345 -0.1699168 0.56337 0.033738423 -0.5746919 1.033668 0.17846423
-0.8871369 0.512778 0.2506382 -0.8393919 -0.37131828 -0.013939639 -0.47530654 -0.032209482
0.07444879 -0.7311274 0.022104826 0.09883756 -0.527748 0.60508657 0.13400103 -0.06285958
-0.59396493 -0.30619374

fc1.bias f4 [30]
00000000: 0c2c efbc 4ddd a33e 2ef5 7fbe ba03 c7be
00000010: 218e dabe 511a cabe 997e 18bf 1676 b0bd
00000020: bb88 04bf 4041 b0be b02e b7be 9357 06bf
00000030: c339 44be 9120 063f 506d dcbe c1e3 563e
00000040: 7d11 fbbd 9ca3 033f cac5 bf3d 3722 f53e
00000050: af1f 153f 0c93 b8be c95a d43e 5972 9abe
00000060: 9fa6 f53d a62f ce3d af5f 523e 6b79 ba3d
00000070: a4b2 0c3f 1de8 41be
-0.029195808 0.32004777 -0.24995872 -0.3887003 -0.4268656 -0.39473203 -0.5956817 -0.08616273
-0.51771134 -0.34424782 -0.35777807 -0.5247738 -0.1916266 0.5239344 -0.4305215 0.20985319
-0.12259195 0.51421523 0.09363897 0.47877666 0.5825147 -0.36049688 0.41475514 -0.30165365
0.11994671 0.10067682 0.20544313 0.0910519 0.54960084 -0.189362

fa1.weight f4 [30, 1]
00000000: d44f 353b b3a7 6dbc 0746 72ba 19f5 2abd
00000010: c2fe 653d e34b e93d 8178 b73c 7d0c a43d
00000020: f965 32be bb09 46be ed69 c6bd 7f30 0b3d
00000030: 79e4 753d 47a8 b13d 20f2 16be 2bf7 99bd
00000040: 09f5 4a3b 4efa e63c d6c9 183e a7ef 88bd
00000050: 54ed 02be c701 a6bc 9fc3 82bd 7106 393c
00000060: e4fa 85bd 68dc 3ebd e6ed b3bd 60df f53d
00000070: 4055 223a 7008 bd39
0.002766599 -0.014505315 -0.0009242002 -0.04173765 0.05615116 0.11391427 0.022396328 0.080101945
-0.17421712 -0.1933965 -0.096881725 0.033981796 0.06003234 0.086746745 -0.14740801 -0.07517847
0.0030968806 0.028195526 0.14920744 -0.06686335 -0.12785846 -0.02026452 -0.06384968 0.01129304
-0.06541994 -0.046596915 -0.0878561 0.12005496 0.0006192513 0.00036055176

fa1.bias f4 [30]
00000000: 7e38 1a3f f33f 04bd a002 6ebd 44a3 43bf
00000010: 68c8 4ebf eaf3 53bf 5f24 ba3c 5808 11bf
00000020: 4279 b3be a612 6abf 9754 093e c152 8cbd
00000030: ad4c 8abd 1433 5ebf 81d9 f0bd 32f9 1bbe
00000040: 3c9d fabb 10c2 2c3f f036 03bf f019 6bbe
00000050: c071 83be 9f3b 883c 42be 19bf b133 e53e
00000060: 2129 363f de27 57bd 2ad0 48bf a28e f73c
00000070: c4f2 adbe d3cd 90ba
0.6024245 -0.03228755 -0.058107972 -0.76421 -0.80774546 -0.8279406 0.022722421 -0.56653357
-0.3505345 -0.91434705 0.13411175 -0.068517216 -0.06752906 -0.8679669 -0.117602356 -0.15231779
-0.0076481383 0.67483616 -0.512557 -0.22959113 -0.25672722 0.016629992 -0.60055935 0.44766
0.7115651 -0.052528255 -0.78442633 0.03021938 -0.33974278 -0.0011047669

fca1.weight f4 [60, 60]
00000000: 6379 4c3d 0d38 913e 5918 a3bf 1017 06be
00000010: 1e37 3f3d f929 f23d 0759 623e e98e f3bd
00000020: 1ab7 03c0 fc21 cbbd 38d1 53bd b5a6 16bf
00000030: 64f1 6abe 852d e13d c5c3 0a3f c034 283e
00000040: d0e8 043f 1001 a83e baae b5be a582 1ebe
00000050: 08d2 82be ed32 49bc e896 bd3e 77ad 2e3e
00000060: e4aa bfbe 4f81 a8bd aef4 b43b b829 2a3e
00000070: e093 513e 36ea 1ebf abe1 b7ba 7da8 12bd
00000080: 6af7 303e 4ebc b0bb e595 193d a70f 32be
00000090: 1276 953d f001 5dbd 6a20 f03d e347 fdbd
000000a0: 0d68 f5be e7e4 dbbd 0ae1 5b3d 0005 e23d
000000b0: 8655 a0be 36dd 34be 20bb 623e 1d8c 3bbc
000000c0: fccb 0abd ceac 8c3d 256b ba3d c9ee 23be
000000d0: bc68 90bd b8f2 93bd a36e 73be 4b3f a6be
000000e0: bab9 883d 9af2 603e 9726 92bd 4bf5 53be
000000f0: 9bb0 803e 3ed6 bc3c 74cb 00c0 ad6c 2b3e
00000100: fafc c83e 3ff8 b0bd 1e72 423e 6753 be3e
00000110: b72d 14bf c4c5 0fbe b27c 1e3d bba3 733f
00000120: 5e17 003f a188 bfbd 314e e7bf 8330 cdbd
00000130: 0c26 953e 99f2 9a3b 64a0 d5bf 5e49 cbbf
00000140: 2e05 783e 9556 5abe c9a9 2dbe bbe3 1b3f
00000150: e2b6 f63d 2c88 7e3e 90d4 14be ba9e 4bbe
00000160: f427 553e f432 17bf a9ca 47be 83a4 66be
00000170: af13 103d ff83 0c3d 8879 923d e556 61bd
00000180: 52ed 0c3d 171f 6c3c 2ea8 16bb dbe4 abbd
00000190: fd37 dd3c 568f 313e 2451 0bbc 53ae a53b
000001a0: 238f 05bf efdc f9be 9fe6 5f3c e5ec 05be
000001b0: ea7f f4bc 47e2 133d 6954 463e 6999 bdbd
000001c0: 4b49 18bd 95bf 84bd 1297 b53b 2c6f b8be
000001d0: 3645 ccbc ae0c 823d 0dd2 f03c 7186 f2be
000001e0: 55f7 ee3c dfe8 a33e fa93 383e f077 663e
000001f0: 95cb b1ba 55e3 2b3e f35f ee3e 3a57 893e
00000200: aa1c 58bd 55ca 7fbc 776d 093e 0663 6b3e
00000210: c993 ce3d dd4a 6b3e 2301 33be ce30 3b3e
00000220: 408a 3e3d 1456 ff3d 496c 8d3d d409 82bc
00000230: ec3e 48bc 6627 a5bc 7a33 7e3e 5dd3 123e
00000240: 2901 103e 1a40 743e 93cb 923d bb02 473e
00000250: a9f9 883e 8616 003e 499e 9d3d d6dd 663d
00000260: 154a 703d 2bfc 99bd a560 283e bf68 e93c
00000270: f6b5 9abd 6d9e fdbd f4ed 383c 690c 8d3d
00000280: bf8b 8fbd 8df4 8ebd d3fd 583d 0bc1 b8bd
00000290: 2dcb 173d bde2 f83d cfd7 2a3e 9c69 713e
000002a0: 1df8 d93d 88c0 2fbe 4bfc 05be e642 5b3e
000002b0: 85a4 81bd 840c 5cbe bfd4 ef3d 9431 173e
000002c0: 0b96 4b3d 5ea5 b4bd d4bc 0c3d b2f4 54bd
000002d0: cbf9 d83d 6b19 7cbc fd53 2fbe 5009 8bbd
000002e0: f3b9 30bd a45c b43c aac7 1bbd 60c4 5ebd
000002f0: 32c3 5abe cc71 1f3d 8ced 23bb 9067 f13c
00000300: 0ee4 833d c3e6 a3bd 57e3 c23d 0e27 93bd
00000310: 0b73 72bd 64de 043e 42cb 75bd ed6b 23be
00000320: de1e 00be 40ee 75bd 5576 b6bd b01b f8bd
00000330: 67d0 54bc 70d8 71bd f340 25bc 6edf 88bd
00000340: a085 1c3c 17ce cabd e845 05be 4b7d 21be
00000350: f247 60be cc06 18be fff9 babc 13bc 6bbc
00000360: d909 14be 6acd 693c 01a0 8a3d c8cc 5fbe
00000370: dc6b 803d a10a 81ba 1aab 4e3d 9664 9abd
00000380: 7549 a33d d0a3 ee3d 8ad5 94bd bdff e6bb
00000390: 5335 3ebe 5b4c 43bc 53a2 63bb fdf5 28bd
000003a0: d77f b23a 7cb3 483c df70 2ebd 7c5f 9ebc
000003b0: 2ac4 66be 336b aa3d a497 213e ae9d 463e
000003c0: f5c7 67bf ba1d ec3e b7a2 0cbe af9f b5bb
000003d0: fda6 1cbf 2dc2 51be 146a dd3e 19f2 ec3e
000003e0: b060 003f 38e9 1cbd 1772 40be b438 89be
000003f0: 2ede 34bf cf0b 83be 74d5 ec3e e252 e6be
0.04992045 0.28363076 -1.2741805 -0.13094735 0.046683423 0.11824412 0.22104274 -0.11892492
-2.0580506 -0.099185914 -0.0517132 -0.58848125 -0.22943646 0.1099501 0.5420497 0.16426373
0.51917744 0.3281331 -0.35484868 -0.15479524 -0.25550866 -0.012280208 0.37029195 0.17058359
-0.37435067 -0.08227789 0.005522332 0.16617477 0.20466566 -0.6207613 -0.0014029046 -0.035805214
0.17281881 -0.0053935414 0.037496466 -0.17388783 0.07297911 -0.053956926 0.117249325 -0.12367227
-0.47930947 -0.10737019 0.05368141 0.1103611 -0.3131525 -0.1766251 0.22141695 -0.01144698
-0.03388594 0.068688974 0.091024674 -0.16009058 -0.070512265 -0.07224029 -0.23772673 -0.32470164
0.066760495 0.21967545 -0.07136267 -0.2069904 0.2513474 0.023051377 -2.0124178 0.16740675
0.39255506 -0.08641099 0.18988845 0.37173006 -0.57882255 -0.14040285 0.038693137 0.9517171
0.50035655 -0.09352232 -1.8070737 -0.100190185 0.2913059 0.004728627 -1.6689572 -1.5881765
0.24220726 -0.21322091 -0.16959299 0.60894364 0.12046601 0.24856633 -0.14534211 -0.19884768
0.20816022 -0.59062123 -0.19510902 -0.22523694 0.03517502 0.03430557 0.071520865 -0.05501451
0.034406014 0.014411709 -0.0022988426 -0.0839326 0.027004236 0.17339835 -0.008503232 0.0050561815
-0.52171534 -0.4880137 0.013665824 -0.1307865 -0.02984615 0.036104467 0.19368137 -0.09257776
-0.037179273 -0.06481854 0.0055416906 -0.36022317 -0.024935346 0.06350075 0.029397035 -0.47368196
0.029170671 0.32013604 0.18025199 0.2250669 -0.00135647 0.16785939 0.46557578 0.2682436
-0.05276171 -0.015612205 0.13420664 0.22986993 0.100867815 0.22977777 -0.17480902 0.18280336
0.046518564 0.1246759 0.069054194 -0.015873827 -0.012222033 -0.020160388 0.24824324 0.14338441
0.14062943 0.23852578 0.07167735 0.19434635 0.26752976 0.12508592 0.07696206 0.056363903
0.0586644 -0.075188 0.16443117 0.02849233 -0.075542375 -0.12383733 0.011287201 0.06887133
-0.07009076 -0.06980238 0.05297644 -0.09021195 0.037058998 0.12152622 0.16683887 0.23575443
0.10643027 -0.17163289 -0.13084523 0.21412238 -0.06330208 -0.2148915 0.117105 0.14765006
0.04970364 -0.08820604 0.034359768 -0.051991172 0.10594519 -0.0153869195 -0.17121883 -0.067888856
-0.043146085 0.02201683 -0.03803221 -0.054386497 -0.21363524 0.038926885 -0.0025013415 0.029468328
0.06439982 -0.08002999 0.09516018 -0.071851835 -0.059191745 0.1297546 -0.060008295 -0.15959139
-0.12511775 -0.060041666 -0.08909289 -0.12114656 -0.01298914 -0.0590443 -0.010086286 -0.06683241
0.009553343 -0.0990259 -0.13014948 -0.15770452 -0.21902445 -0.14846343 -0.022824286 -0.014388102
-0.14456882 0.014270166 0.067687996 -0.21855462 0.062705725 -0.0009845087 0.050456144 -0.075387165
0.07972995 0.116523385 -0.07267292 -0.0070495293 -0.18575029 -0.01192006 -0.0034734204 -0.041250218
0.0013618422 0.012249824 -0.04258811 -0.01933264 -0.22535768 0.08321228 0.15780503 0.19396088
-0.90539485 0.4611643 -0.13733946 -0.0055427174 -0.61192304 -0.20484228 0.43244994 0.46278456
0.50147533 -0.038308352 -0.18793522 -0.26801074 -0.7065152 -0.25594947 0.46256602 -0.4498511

fca1.bias f4 [60]
00000000: 1bb0 793d a87e 52bd b38f c33d 14f6 393a
00000010: cc7d 8cbe d9bc 033e 38f1 a73c 3034 2b3e
00000020: e87d b5bd 0cce 343c dcff 21be b296 9ebd
00000030: cb50 2f3c c72d de3b ffc4 64bd 8c4a 9f3d
00000040: 5d42 e7bb 48c8 0d3e d6ae f5bc 7c22 c93d
00000050: 33e7 cb3d db20 0c3e 290e 033d cf1b 203c
00000060: 912e 59bd 7eef 3d3d 48e8 babd a00b ecbc
00000070: a20a 44bc 4553 163e cdfe f83d e379 5cbe
00000080: 291a 013e d564 eabd 53b6 613e d58f a4bd
00000090: de6c 893c 0d8e c4bc c4c3 693e 0fd9 b8ba
000000a0: c655 633e 534f 943d 993c c23b d99d ca3d
000000b0: 5edd 00be f785 f83d a291 8ebd d870 3f3e
000000c0: 30e9 7cbe a1f9 893d d3dc 583d c243 2f3e
000000d0: aec6 d93d 0bea a7bd b9ba dfbd 7acb 213d
000000e0: 25cb 4d3c c031 2dbd a89c 8f39 3c17 393e
0.060958963 -0.05139032 0.09548893 0.00070938584 -0.27439725 0.12865008 0.020500764 0.16719127
-0.08861905 0.0110354535 -0.15820259 -0.077435866 0.010700415 0.0067803594 -0.055851933 0.077778906
-0.0070574717 0.13845932 -0.029990595 0.098210305 0.09956207 0.13684408 0.031995926 0.009772255
-0.053022925 0.046370976 -0.091263354 -0.028814137 -0.011965426 0.14680202 0.121579744 -0.21530871
0.12607636 -0.114450134 0.22042207 -0.08035246 0.016775545 -0.023993516 0.22828585 -0.0014102774
0.22200689 0.072416924 0.005927634 0.09893388 -0.12584445 0.12134927 -0.06961371 0.1869539
-0.24698329 0.06737066 0.05294497 0.17115691 0.10633598 -0.08198937 -0.109242864 0.03950069
0.01256064 -0.042283773 0.00027391803 0.1807527

fca2.weight f4 [1, 60]
00000000: 07b1 4cbf f036 d23e 0a5e e6bd 809d 243d
00000010: b634 243f c59d 7cbf 6842 13be 6947 ee3e
00000020: 5b1b da3d b515 6c3e 48c0 6d3f 0954 be3e
00000030: 146c 72be 5d2d 173f 8fb3 833e 7f29 7abe
00000040: da17 04be 082a df3e 3f33 a1be 566f db3e
00000050: dc02 13be 604a 923e 5444 89be dfab 3cbe
00000060: 029e e1bd 3723 5fbd 7b92 a0bd 9dd9 023f
00000070: 857c 193f fdcc 663f a155 62bf 5b3d c73e
00000080: 4337 f53e eba4 073d 066c fd3e e79e 863c
00000090: 96d9 8bbd 6af0 d1bc 2444 44be 8fd0 10be
000000a0: 80fb f13e 4571 4bbd 0147 e13e d390 9d3e
000000b0: c1a4 603c f894 91be b24e 14bd c56e 0d3f
000000c0: 711b 5b3e 05d1 a2bd 1855 66bd 6cfc e83e
000000d0: 784b 0f3f 772f 14be f58f 9a3e db1c 04be
000000e0: c714 ab3e b057 47be 476a bebd 7bf2 cd3e
-0.7995762 0.4105754 -0.11248405 0.040189266 0.6414293 -0.9867824 -0.143808 0.46538857
0.10649749 0.23055156 0.9287152 0.3717349 -0.23674041 0.59053594 0.2572293 -0.24429892
-0.12899724 0.43586755 -0.3148441 0.4285838 -0.1435656 0.2857237 -0.26809943 -0.18424939
-0.11016466 -0.054476943 -0.07840439 0.511133 0.59955627 0.9015654 -0.8841191 0.38913998
0.47893724 0.033116262 0.49496478 0.016433192 -0.068286106 -0.025627334 -0.19166619 -0.14142059
0.47262192 -0.04966857 0.43999484 0.30774555 0.013711155 -0.28433967 -0.036207862 0.55247146
0.21397187 -0.079500236 -0.056233495 0.45505083 0.5597453 -0.14471231 0.30187955 -0.12901632
0.3341429 -0.19467044 -0.092976145 0.4022406
