DDPG/models/900_actor.pt (torch, 2835 bytes, 3 tensors)

fa1.weight f4 [60, 3]
0.021518886 -0.27275985 -0.15948789 0.17455561 -1.0682572 -0.2704347 0.2725502 -0.9927493
-0.28924686 0.39741185 0.93420565 -0.5904542 0.46758085 1.0986941 0.25496343 0.65729004
1.4789844 0.008540842 -0.092620604 -0.1603878 -0.005839608 0.5153173 1.0963424 0.28872874
-1.1866398 -1.1426977 -0.16173504 0.022377053 0.7842442 -0.31656194 0.07349436 -0.5398922
-0.17985299 0.104364865 -0.64696294 0.2908613 -0.03422885 0.16427618 -0.0151247 0.52700764
-1.3012464 -0.43403897 -0.40586472 -0.77631915 0.56731975 0.0013241349 0.70966256 -0.27230003
-1.0171263 -0.44350424 -0.3430557 0.66705 -1.1592782 -0.53337073 0.010456153 0.5458706
0.15206708 -0.04955231 0.00852733 -0.053729255 -1.1623917 0.8873929 0.50929505 0.20310685
-0.03663014 -0.032879874 0.6211138 -1.1326666 -0.5382908 0.0106926095 -0.17325282 -0.064111255
0.8223212 -0.29584154 0.49338046 -1.0571238 0.9669229 0.4220883 0.041144624 -0.10252819
0.025459757 0.32353544 -1.0606298 -0.2770907 0.11934833 0.78048545 -0.2885574 -1.4093719
-1.5110943 -0.21100841 0.20458204 -1.0291314 -0.28357905 0.4666131 -1.1406691 -0.47044694
0.4366543 0.9126172 0.32097384 0.9371699 -0.56409395 0.58914393 0.53971636 -1.5062621
-0.2995235 -0.93897593 -0.5592293 -0.31004503 0.08632769 0.837048 0.20715928 0.07951153
0.63665104 -0.25401756 0.44210103 0.9440976 0.32675895 -0.3029486 0.5618879 -0.32138675
0.6286312 0.9984047 0.46832278 -0.2597858 0.6817399 -0.31081343 -0.011950971 0.44206023
0.19545266 0.7486511 1.1295428 0.5346883 -1.4400709 -1.5363368 -0.21554844 0.35784835
1.0721657 0.24474207 -0.0059881825 -0.81533456 0.33513528 0.5418149 -1.4558431 -0.2786597
0.27058065 0.9499905 0.28138816 -0.9891559 0.9336299 0.4007535 0.4748514 -1.4998462
-0.2910386 0.59414595 -1.0570711 -0.6067439 -0.14534357 0.59789336 -0.25347328 -0.33373144
-0.8076836 0.51160353 0.8174172 -0.36197853 0.48136032 -1.0395617 0.9086923 0.44848675
0.6080178 0.8435515 0.4307902 0.022734448 0.84032565 0.23758778 0.79550046 1.3478807
0.34513372 -1.0269916 1.0025733 0.46659687
00000000: 6048 b03c 2ea7 8bbe cb50 23be b5be 323e
00000010: a7bc 88bf 6b76 8abe b38b 8b3e d124 7ebf
00000020: 2a18 94be 9179 cb3e 1a28 6f3f 0228 17bf
00000030: c266 ef3e 02a2 8c3f 918a 823e 2944 283f
00000040: 5c4f bd3f e3ee 0b3c dfaf bdbd b33c 24be
00000050: 2f5a bfbb d6eb 033f f354 8c3f 41d4 933e
00000060: d0e3 97bf eb43 92bf df9d 25be 1550 b73c
00000070: 3ac4 483f 6814 a2be 3684 963d 6036 0abf
00000080: 622b 38be 3fbd d53d 5d9f 25bf c6eb 943e
00000090: 8d33 0cbd 0438 283e 97cd 77bc f9e9 063f
000000a0: 3e8f a6bf 5b3a debe 80cd cfbe dabc 46bf
000000b0: de3b 113f 988e ad3a 72ac 353f e96a 8bbe
000000c0: 3231 82bf fd12 e3be ffa4 afbe cac3 2a3f
000000d0: 3a63 94bf fc8a 08bf 4950 2b3c 2dbe 0b3f
000000e0: 79b7 1b3e 5df7 4abd 37b6 0b3c 3513 5cbd
000000f0: 40c9 94bf 2e2c 633f 2961 023f 3efb 4f3e
00000100: 7c09 16bd 0cad 06bd 5001 1f3f 38fb 90bf
00000110: 6dcd 09bf 0e30 2f3c 3069 31be c34c 83bd
00000120: a483 523f 8b78 97be 5d9c fc3e d54f 87bf
00000130: 4288 773f f51b d83e 4487 283d 4dfa d1bd
00000140: fb90 d03c 70a6 a53e b8c2 87bf d5de 8dbe
00000150: e66c f43d e5cd 473f ccbd 93be 4c66 b4bf
00000160: 8a6b c1bf 9712 58be f47d 513e 94ba 83bf
00000170: 4631 91be eae7 ee3e 7201 92bf 6cde f0be
00000180: 2791 df3e 48a1 693f af56 a43e 5eea 6f3f
00000190: 7668 10bf 23d2 163f da2a 0a3f 32cd c0bf
000001a0: 255b 99be ba60 70bf a729 0fbf 39be 9ebe
000001b0: 92cc b03d c748 563f 9021 543e f1d6 a23d
000001c0: 90fb 223f 970e 82be 115b e23e 61b0 713f
000001d0: f34c a73e 141c 9bbe e3d7 0f3f ce8c a4be
000001e0: f9ed 203f 7397 7f3f 01c8 ef3e a502 85be
000001f0: 8286 2e3f f022 9fbe 01ce 43bc b855 e23e
00000200: be24 483e 99a7 3f3f dc94 903f 55e1 083f
00000210: 3e54 b8bf afa6 c4bf bbb8 5cbe e637 b73e
00000220: ba3c 893f aa9d 7a3e 8438 c4bb c4b9 50bf
00000230: da96 ab3e 62b4 0a3f 1159 babf 7cac 8ebe
00000240: 8c89 8a3e 9432 733f 1c12 903e 5239 7dbf
00000250: 5e02 6f3f 902f cd3e b91f f33e f6fa bfbf
00000260: 0303 95be f319 183f 1b4e 87bf 9153 1bbf
00000270: f2d4 14be 8a0f 193f 40c7 81be d9de aabe
00000280: 5ac4 4ebf 73f8 023f 4142 513f 4055 b9be
00000290: dc74 f63e 5c10 85bf 0fa0 683f 0ea0 e53e
000002a0: 0ea7 1b3f fef2 573f 8890 dc3e 983d ba3c
000002b0: 951f 573f 364a 733e eba5 4b3f 5b87 ac3f
000002c0: 5eb5 b03e 7674 83bf 5254 803f c9e5 ee3e

fa1.bias f4 [60]
0.657447 0.42265335 0.611959 -0.5063455 0.053609386 -0.21401198 -0.295763 0.027232524
0.21693541 0.652434 0.46833658 0.6042785 -0.28385732 -0.07799353 0.46352363 0.49049303
0.30896765 -0.041877516 0.22318628 -0.55098695 0.55570763 0.48138836 -0.10271761 0.6041398
-0.56981534 0.5168955 -0.31140813 0.47519332 0.6345573 0.15577735 0.53737533 -0.16418923
-0.023993883 -0.74177766 0.104001775 0.3305717 0.21518914 0.52274734 -0.03282327 0.44878304
-0.14900817 0.40534562 0.54982775 -0.19004935 0.14429992 0.114017636 0.46125802 0.074577406
0.49740443 0.51010257 0.08239725 -0.27722445 0.35743904 0.4231338 -0.5714568 0.5429928
-0.22530006 0.36110282 -0.0061401147 0.58088523
00000000: 724e 283f 0566 d83e 58a9 1c3f dc9f 01bf
00000010: 8495 5b3d f525 5bbe 3f6e 97be be16 df3c
00000020: 5124 5e3e ea05 273f d0c9 ef3e ffb1 1a3f
00000030: bf55 91be 12bb 9fbd f852 ed3e e721 fb3e
00000040: 0231 9e3e c287 2bbd f28a 643e 7b0d 0dbf
00000050: db42 0e3f 8978 f63e 9c5d d2bd e8a8 1a3f
00000060: 6bdf 11bf 4353 043f e370 9fbe 8a4c f33e
00000070: 5972 223f 1984 1f3e 6e91 093f 3921 28be
00000080: d28e c4bc 24e5 3dbf e2fe d43d b240 a93e
00000090: 8b5a 5c3e c5d2 053f b171 06bd e4c6 e53e
000000a0: 9995 18be 7689 cf3e 83c1 0c3f 4c9c 42be
000000b0: 5cc3 133e 1482 e93d 032a ec3e 0abc 983d
000000c0: cbab fe3e 1596 023f e4bf a83d 5df0 8dbe
000000d0: 4002 b73e fea4 d83e fe4a 12bf 9301 0b3f
000000e0: 0fb5 66be 78e2 b83e 0433 c9bb e5b4 143f

fa2.weight f4 [1, 60]
0.20328079 0.36432397 0.17750494 1.0301938 -0.7875114 -1.3817257 -0.0684354 -0.83708495
-1.3888499 -0.28824365 0.2595878 0.26216918 -0.16032678 1.0833099 0.80814755 -0.36913565
-0.7097358 0.69486904 -0.34312212 0.11315759 0.7878796 0.09698975 0.8669072 0.23917295
-1.0718327 0.94480103 0.07130343 0.38649738 -0.41250083 -1.600989 0.40847227 1.1591394
-0.856725 -0.97202784 1.0028611 -0.58292496 -0.5624833 -0.33249912 -1.1432898 -0.3913689
-1.1270113 -0.60884804 -0.16620332 -1.0144087 -1.5686791 -0.61653006 0.47367647 0.9697568
-0.19070566 0.7797894 0.983955 0.9572983 -0.46879956 0.6273754 -0.96004504 0.82441294
-0.9833751 -0.32956317 -1.239658 0.76130044
00000000: d728 503e ac88 ba3e dbc3 353e 64dd 833f
00000010: 599a 49bf 63dc b0bf dc27 8cbd 334b 56bf
00000020: d5c5 b1bf ac94 93be b1e8 843e 0a3b 863e
00000030: b42c 24be e6a9 8a3f c2e2 4e3f 59ff bcbe
00000040: 3fb1 35bf f0e2 313f b4ad afbe 2bbf e73d
00000050: 7ab2 493f 90a2 c63d a1ed 5d3f c1e9 743e
00000060: d031 89bf 7bde 713f 8807 923d fce2 c53e
00000070: 4f33 d3be 35ed ccbf 4723 d13e ae5e 943f
00000080: 5452 5bbf d1d6 78bf c15d 803f 923a 15bf
00000090: e8fe 0fbf 533d aabe 5257 92bf 8161 c8be
000000a0: e841 90bf 77dd 1bbf 3431 2abe 25d8 81bf
000000b0: 7aca c8bf ead4 1dbf b985 f23e fb41 783f
000000c0: 5848 43be 47a0 473f 7ae4 7b3f 8011 753f
000000d0: 7f06 f0be ad9b 203f 83c5 75bf ba0c 533f
000000e0: 78be 7bbf 81bc a8be 1dad 9ebf 96e4 423f
