DDPG/models/9100_actor.pt (torch, 2835 bytes, 3 tensors)

fa1.weight f4 [60, 3]
000000 96 e3 35 3f a1 34 95 bf 80 c8 77 be 2c 34 41 3f
       0.71050394 -1.1656686 -0.24197578 0.7547023
000010 83 f2 8a bf 95 67 39 bf d9 c1 94 3f 32 01 ef bf
       -1.0855259 -0.7242368 1.1621658 -1.867224
000020 ca fe 8b be e5 6d 55 3f 87 8d 93 3f 08 1c b0 bf
       -0.27342826 0.8337081 1.1527566 -1.3758554
000030 96 65 92 3f 99 35 8f 3f 5b 86 3e be b0 35 a1 be
       1.1437252 1.1188232 -0.1860594 -0.31486273
000040 10 67 f2 3f 89 73 17 be df af bd bd b3 3c 24 be
       1.8937702 -0.14790167 -0.092620604 -0.1603878
000050 2f 5a bf bb 67 dd 95 3f f7 7a 93 3f f8 d1 3f be
       -0.005839608 1.1708192 1.1521901 -0.1873244
000060 48 97 a9 bf e3 0e 78 bf 5c 53 2b bf 5a 72 80 be
       -1.3249292 -0.96897715 -0.6692407 -0.25087243
000070 d0 df a5 3e d6 8b 64 bf c8 1f 51 3f 3b 2d 35 bf
       0.32397318 -0.8927587 0.8168912 -0.7077214
000080 1f 22 24 bf 4e 62 b9 be 02 1c 51 bf de 47 66 3f
       -0.64114565 -0.36207813 -0.8168336 0.8995341
000090 8d 33 0c bd 04 38 28 3e 97 cd 77 bc e6 16 90 3f
       -0.03422885 0.16427618 -0.0151247 1.1256988
0000a0 15 dc bd bf b8 24 59 bf 31 80 0b bf 9d 43 77 bf
       -1.4832789 -0.84821653 -0.5449248 -0.96587545
0000b0 45 72 99 3f 26 ed 05 be 4f 58 0d 3f ff ea 51 bf
       1.1987997 -0.13078746 0.55212873 -0.819992
0000c0 ed 13 d0 bf 0e 6e 6b be 0f 68 86 bf d4 f6 8f 3f
       -1.6256081 -0.22991201 -1.0500506 1.1247201
0000d0 27 02 75 bf 76 3f 58 bf 16 75 5c 3f a8 8f 60 3f
       -0.9570641 -0.84471834 0.8611616 0.877192
0000e0 b8 db 87 be 5d f7 4a bd 37 b6 0b 3c 35 13 5c bd
       -0.2653482 -0.04955231 0.00852733 -0.053729255
0000f0 fb c8 50 bf eb 04 8c bf 7f 0b 5b 3f 22 ee 00 3f
       -0.8155667 -1.0939001 0.85564417 0.5036336
000100 a3 27 00 3d a1 d1 0f 3d 86 43 79 3f e8 fe 5d bf
       0.0312878 0.035112027 0.9736866 -0.8671708
000110 00 07 49 bf 2a dc 80 3e ef 45 1b bd ff 82 fa be
       -0.78526306 0.25167972 -0.03790849 -0.48928067
000120 fc 18 8b 3f f6 e0 87 3c 64 3f 64 3f 43 e4 3d bf
       1.0867 0.016586762 0.89159226 -0.74176425
000130 4e 52 89 bf c8 94 45 3f 44 87 28 3d 4d fa d1 bd
       -1.0728242 0.7718015 0.041144624 -0.10252819
000140 fb 90 d0 3c 1e 0c 79 3f 35 4a 87 bf bf 1d 4a bf
       0.025459757 0.97284114 -1.0569521 -0.7895164
000150 49 90 c5 3d 4e e3 a5 bc 21 3d 30 bf 0c 0d ce bf
       0.09646661 -0.020249989 -0.68843275 -1.6097732
000160 b1 0e cf bf bc 20 ed be ec 4a 7d 3f 17 de ea bf
       -1.6176358 -0.46314037 0.98942447 -1.8349026
000170 16 fd 8b be 5a 3b cc 3e 07 f5 0c bd 2d 1c 6b bf
       -0.27341527 0.39889032 -0.034413364 -0.9183987
000180 42 de a1 be a2 02 b7 3e 55 a1 44 3f aa b7 51 3f
       -0.31614882 0.35744196 0.76808673 0.81920874
000190 ac e1 64 bf e7 32 77 3f f5 a6 87 3f 13 8c ba bf
       -0.8940685 0.96562046 1.0597826 -1.4573997
0001a0 30 8c 61 bf b2 c2 bb bf 1b 24 db be 15 3c 81 bf
       -0.88104534 -1.4668791 -0.42800984 -1.009646
0001b0 5b c3 02 3f bd bd 14 3f f9 19 d8 3e 7f 86 1d be
       0.5107934 0.5810202 0.42207316 -0.15383337
0001c0 01 90 db 3e 0b 96 46 bf 14 33 74 be e8 7c be 3e
       0.42883304 -0.775727 -0.2384761 0.3720467
0001d0 51 f6 5f 3f d4 a5 9a bf a3 5c 0b 3f b7 c0 40 bf
       0.87485224 -1.2081857 0.5443823 -0.7529406
0001e0 bb 26 aa 3f 37 03 62 3e c9 6b 97 3f 70 ff 53 bf
       1.329307 0.22071539 1.1829768 -0.8281164
0001f0 a5 54 83 3f ed 0c 33 bf 8c 91 09 3f db 64 f1 3e
       1.0260206 -0.699416 0.5373771 0.4714726
000200 7b 78 dd 3e 92 f2 b9 3f fc 86 a3 3e 67 5f a6 3f
       0.43255982 1.4527152 0.31938922 1.2997864
000210 e3 66 c7 bf 7f 52 c6 bf 0c b5 0f bf e8 3d 8e 3f
       -1.5578274 -1.5493926 -0.5613563 1.1112642
000220 50 0a 8b 3f b3 3a 3c be a7 13 c4 be c2 7c 6c bf
       1.0862522 -0.18381767 -0.38296244 -0.92377865
000230 cc 76 50 3f bf 55 86 3f 44 07 b4 bf 67 2f 63 bf
       0.8143127 1.0494918 -1.4064717 -0.88744205
000240 d6 5f 2a 3f 3c 3d 13 3f b5 b1 02 3f 49 c8 1e c0
       0.66552484 0.5751531 0.5105241 -2.4809744
000250 9b 27 0d 40 06 14 b7 3d 11 8a 80 3f ea a2 b9 bf
       2.2055423 0.08939366 1.0042135 -1.4502842
000260 32 be 5e bf 29 b0 63 3f 0b c6 13 bf 8a af 69 bf
       -0.87008965 0.88940674 -0.57724065 -0.91283476
000270 1f 9e 03 3e 66 e1 b8 3f 23 ad fe be 98 36 e3 be
       0.12853287 1.4443786 -0.49741468 -0.4437759
000280 c6 40 8f bf 3b 9a 7b 3f b0 ea 8c 3f ba 1e 12 3f
       -1.1191642 0.9828221 1.1009121 0.57078135
000290 ec cf 53 3f d7 f5 40 bf 6f d2 8b bf c0 3e 4a 3f
       0.8273914 -0.7537512 -1.0923594 0.79002
0002a0 2b 90 a7 3f e9 0b 2d 3e 76 e2 8b 3f 7f 99 f5 3e
       1.3090872 0.16899075 1.0928485 0.4796867
0002b0 b2 b3 25 3f 33 2a e6 3e 15 82 b0 3f 56 00 b0 3f
       0.6472732 0.4495407 1.3789698 1.3750103
0002c0 56 0b 4a be 1e e0 43 bf 84 0c 82 bf de f2 46 3f
       -0.19730887 -0.7651385 -1.016007 0.77714336

fa1.bias f4 [60]
000000 81 00 71 3f 18 b8 88 bc 8c 4d 57 3f 91 49 8a bf
       0.94141394 -0.016689345 0.841027 -1.0803701
000010 50 94 9a 3d 65 ae 91 bf 3f 6e 97 be 97 a8 96 3d
       0.075478196 -1.1381346 -0.295763 0.07356375
000020 bc 4d 91 be 69 aa f0 3e 82 aa 06 be 6b e3 36 3f
       -0.2837962 0.47005013 -0.13150981 0.7144076
000030 bf 55 91 be e2 d1 99 be 03 8d 47 3f 9c db bc 3e
       -0.28385732 -0.3004294 0.7794954 0.368863
000040 d1 72 00 be ae 97 b6 be b9 b6 a0 3e 7b 0d 0d bf
       -0.12543799 -0.35662597 0.31389406 -0.55098695
000050 43 bd 82 3f 34 ba 61 3f 86 64 f5 be b4 0a ac 3d
       1.0214008 0.8817475 -0.47928256 0.08400479
000060 6a 91 ea be d7 cf 6f 3f e3 70 9f be 4b 0a 67 be
       -0.45814067 0.93676513 -0.31140813 -0.2256252
000070 cf f5 3d 3f 6a ac 35 bf 09 d3 43 3f 1b 3c 1a bf
       0.742032 -0.7096621 0.7649389 -0.60247964
000080 5b c0 86 bf ab b0 9a bf 2e 66 c1 be 14 04 83 bd
       -1.0527452 -1.2085165 -0.3777327 -0.06397262
000090 f8 14 81 bd 8b 2b be 3e 29 3b 74 bf d6 2b 7a be
       -0.063028276 0.37142596 -0.9540277 -0.24430785
0000a0 32 48 b1 bc 39 dc 6a bb ec 3a 23 3d ef 59 9a bd
       -0.02164087 -0.003583683 0.039851114 -0.07536685
0000b0 19 f2 09 bf 28 2b a9 3d 54 cf 39 3f 18 73 bf be
       -0.53885037 0.082601845 0.7258198 -0.37392497
0000c0 de a2 3d 3d 99 5c f0 be 42 17 db be 09 ae 12 bf
       0.0462979 -0.46945646 -0.42791182 -0.57296807
0000d0 d4 63 20 3e 47 b2 57 3f b0 dd be be a3 9c 73 3f
       0.15663081 0.84256405 -0.3727851 0.95160884
0000e0 f9 5c 0f bd 49 b4 ff bc 46 71 64 3d 1d 6c 75 3f
       -0.035000775 -0.031213896 0.05577209 0.9586809

fa2.weight f4 [1, 60]
000000 01 cc 61 3f e7 5d 46 3f 83 8f 80 3f c7 28 f1 3f
       0.8820191 0.77487034 1.0043796 1.8840569
000010 eb fe 9b bf 76 4b 3e c0 dc 27 8c bd d2 5e a2 bf
       -1.218717 -2.9733558 -0.0684354 -1.2685187
000020 dd aa 0c c0 51 e6 c2 be 49 50 39 3f 87 24 fe 3e
       -2.1979287 -0.38066342 0.7238813 0.49637243
000030 b4 2c 24 be ab ce cc 3f 42 32 b3 3f d8 a9 0b bf
       -0.16032678 1.600057 1.3999712 -0.54556036
000040 1d 22 ca bf 3f 84 88 3f f6 7d 12 bf 2b bf e7 3d
       -1.579166 1.0665358 -0.5722345 0.11315759
000050 d9 ab 89 3f 4a ca c7 3e b1 97 a2 3f 0d 14 a3 3e
       1.0755569 0.39021522 1.2702543 0.31851235
000060 ce 2b bd bf fa c7 95 3f 88 07 92 3d c0 79 45 3f
       -1.4778993 1.1701653 0.07130343 0.771389
000070 95 23 f5 be 9f dc 00 c0 af 5c 97 3f 07 91 b9 3f
       -0.4787871 -2.0134656 1.182516 1.4497384
000080 38 5f bc bf 9f 8b b8 bf 3e b6 c0 3f 8b d5 b0 bf
       -1.4716558 -1.4417609 1.5055616 -1.3815168
000090 67 77 42 bf 28 c3 e2 be 02 47 eb bf 61 c4 62 bf
       -0.75963444 -0.44289517 -1.8381045 -0.885809
0000a0 df 70 db bf 52 93 80 bf ee d9 33 be d9 e3 cc bf
       -1.714382 -1.0044959 -0.17563602 -1.6007034
0000b0 fe 5c f8 bf 94 68 7e bf b9 c5 49 3f b7 78 bd 3f
       -1.9403379 -0.99378324 0.78817326 1.4802464
0000c0 d5 15 90 be 42 5e db 3f d3 17 c3 3f b8 59 a7 3f
       -0.28141657 1.713814 1.5241646 1.3074255
0000d0 26 8b 71 bf c8 5f 97 3f a8 2d b1 bf dd e6 8c 3f
       -0.9435295 1.1826105 -1.3842058 1.1007954
0000e0 72 70 d4 bf db ee ec be f7 ec d6 bf bb d4 71 3f
       -1.6596816 -0.46275982 -1.6791066 0.94465226
