DDPG/models/9600_critic.pt (torch, 18423 bytes, 7 tensors)

fc1.weight f4 [30, 3]
0	0xbea68572	-0.32523686
1	0xbf0fc822	-0.56164753
2	0xbd249e43	-0.040189993
3	0xbf16a19c	-0.58840346
4	0xbe7f3fff	-0.24926756
5	0xbde0ac72	-0.10970391
6	0x3f1480ed	0.58009225
7	0x3efc2ccd	0.4925293
8	0x3e39ee4e	0.18157312
9	0xbefeaa41	-0.49739268
10	0xbf872693	-1.0558647
11	0xbe003880	-0.12521553
12	0xbf8383da	-1.0274613
13	0xbeacfab1	-0.33785012
14	0xbd25f244	-0.040514246
15	0x3c5fa212	0.01364948
16	0xbea12c27	-0.31478998
17	0xbc25999d	-0.010107425
18	0x3de6f07f	0.1127634
19	0xbfb5f28a	-1.4214642
20	0xbe7fac82	-0.2496815
21	0xbf1778b5	-0.5916856
22	0x3fc1dfc1	1.5146409
23	0x3ec039e4	0.37544167
24	0xbf20e82e	-0.6285428
25	0x3f3e4d0d	0.7433632
26	0x3d24aac8	0.040201932
27	0x3d105c30	0.035244167
28	0x3dcb1ed0	0.099179864
29	0xbc7af3f0	-0.015316948
30	0x3d6980a2	0.05700744
31	0x3e00a252	0.1256192
32	0xbc751c12	-0.014960306
33	0xbf48f87c	-0.7850416
34	0x3ee1aca4	0.44077027
35	0x3ea2ee6a	0.3182252
36	0x3f26d206	0.6516422
37	0xbeca86f2	-0.3955608
38	0xbe2cafdf	-0.16863964
39	0xbeba1603	-0.3634492
40	0xbe9c0d59	-0.30478933
41	0x3d1fa237	0.03897306
42	0x3f403e06	0.7509464
43	0x3f073735	0.52818614
44	0x3e575567	0.21028672
45	0xbf121855	-0.5706838
46	0xbe0576e0	-0.13033628
47	0x3df568cb	0.11982878
48	0x3eec832a	0.4619382
49	0xbec162c1	-0.37770656
50	0xbdba876d	-0.09107862
51	0xbee9260f	-0.4553685
52	0xbee4ffbe	-0.44726366
53	0xbe13c846	-0.14431867
54	0x3e103bac	0.14085263
55	0x3f511508	0.81672716
56	0x3e0369c4	0.12833315
57	0xbc48b0f6	-0.012249222
58	0x3f5a9e94	0.8539822
59	0x3e311d9d	0.17296453
60	0x3e5631d9	0.20917453
61	0x3e6de560	0.23232031
62	0x3e7b84b0	0.24562335
63	0xbc48952a	-0.012242595
64	0xbdd8df97	-0.105895214
65	0x3a3da171	0.00072338345
66	0xbe2994d1	-0.16560675
67	0x3f102a8c	0.5631492
68	0x3d241654	0.040060356
69	0xbf10af05	-0.5651706
70	0x3f86dfb4	1.0537019
71	0x3e3d3237	0.18476187
72	0xbf543bbe	-0.8290366
73	0x3f1cad3d	0.6120184
74	0x3e873511	0.26407674
75	0xbf5544ab	-0.83307904
76	0xbec930e5	-0.39295116
77	0xbc4dc565	-0.01255927
78	0xbf006fac	-0.501704
79	0xbc81b524	-0.015833445
80	0x3d83346f	0.06406485
81	0xbf37b194	-0.7175534
82	0x3d31a9fd	0.043375004
83	0x3dc73769	0.097273655
84	0xbf07bebb	-0.53025407
85	0x3f198ec4	0.5998347
86	0x3e13e6e4	0.14443547
87	0xbd44bb97	-0.048030462
88	0xbf2a6b27	-0.6656975
89	0xbe9c97e3	-0.3058463

fc1.bias f4 [30]
0	0xbc429314	-0.0118758865
1	0x3ea559b7	0.3229501
2	0xbe83c4dd	-0.25736132
3	0xbecf94aa	-0.4054311
4	0xbedc72db	-0.43056378
5	0xbeca1a51	-0.39473203
6	0xbf189fcc	-0.5961883
7	0xbd9d4d04	-0.07680705
8	0xbf09077b	-0.5352704
9	0xbeb04140	-0.34424782
10	0xbeb72eb0	-0.35777807
11	0xbf06ccbc	-0.5265615
12	0xbe4688e8	-0.19388163
13	0x3f089e57	0.5336661
14	0xbedb702b	-0.42859015
15	0x3e43eddc	0.19133705
16	0xbdfbb3cd	-0.12290154
17	0x3f01cc14	0.50702024
18	0x3de965a8	0.113963425
19	0x3ee71d47	0.45139524
20	0x3f12720c	0.5720527
21	0xbeb8930c	-0.36049688
22	0x3ec96fe6	0.39343184
23	0xbe998da6	-0.29990882
24	0x3e0ff059	0.14056529
25	0x3e00d243	0.12580208
26	0x3e3e45f4	0.18581372
27	0x3dab1a9a	0.08354683
28	0x3f093888	0.53601885
29	0xbe057b22	-0.13035253

fa1.weight f4 [30, 1]
0	0x3c04de96	0.008109709
1	0xbc6da7b3	-0.014505315
2	0xba724607	-0.0009242002
3	0xbd2af519	-0.04173765
4	0x3d65fec2	0.05615116
5	0x3de94be3	0.11391427
6	0xb91d10e9	-0.00014978986
7	0x3da40c7d	0.080101945
8	0xbe3265f9	-0.17421712
9	0xbe4609bb	-0.1933965
10	0xbde7facf	-0.11327135
11	0x3d0b307f	0.033981796
12	0x3d66371f	0.05620491
13	0x3db1a847	0.086746745
14	0xbe230f1d	-0.15923734
15	0xbd99f72b	-0.07517847
16	0x3b4af509	0.0030968806
17	0x3c90f6a1	0.017695727
18	0x3e18c9d6	0.14920744
19	0xbd88efa7	-0.06686335
20	0xbe02ed54	-0.12785846
21	0xbcdc9c50	-0.026930004
22	0xbd82c39f	-0.06384968
23	0x3d00130e	0.031268172
24	0xbd863ba0	-0.06554341
25	0xbd7ef7b5	-0.06224795
26	0xbdb3ede6	-0.0878561
27	0x3df1b0c2	0.11801292
28	0x3a225540	0.0006192513
29	0x39bd0870	0.00036055176

fa1.bias f4 [30]
0	0x3f116598	0.56795645
1	0xbd043ff3	-0.03228755
2	0xbd6e02a0	-0.058107972
3	0xbf43a344	-0.76421
4	0xbf4ec868	-0.80774546
5	0xbf53f3ea	-0.8279406
6	0xb9aebabd	-0.00033326997
7	0xbf110858	-0.56653357
8	0xbeb37942	-0.3505345
9	0xbf6a12a6	-0.91434705
10	0x3e0789be	0.13236138
11	0xbd8c52c1	-0.068517216
12	0xbda4d09c	-0.080476016
13	0xbf5e3314	-0.8679669
14	0xbe52647f	-0.20546149
15	0xbe1bf932	-0.15231779
16	0xbbfa9d3c	-0.0076481383
17	0x3f27da7c	0.65567756
18	0xbf0336f0	-0.512557
19	0xbe6b19f0	-0.22959113
20	0xbe8371c0	-0.25672722
21	0xbc00a85d	-0.007852641
22	0xbf19be42	-0.60055935
23	0x3ed1a02b	0.4094251
24	0x3f2c6aa7	0.6735024
25	0xbdc1d172	-0.09463777
26	0xbf48d02a	-0.78442633
27	0x3dc38aca	0.09547956
28	0xbeadf2c4	-0.33974278
29	0xba90cdd3	-0.0011047669

fca1.weight f4 [60, 60]
0	0x3da6faa0	0.08153272
1	0x3e905e20	0.28196812
2	0xbf2af002	-0.6677247
3	0xbdf42d76	-0.119227335
4	0x3da98390	0.08277047
5	0x3df229f9	0.11824412
6	0x3e807944	0.25092518
7	0x3dec00da	0.115236
8	0xc001b068	-2.026392
9	0xbdcb21fc	-0.099185914
10	0xbd53d138	-0.0517132
11	0xbf4c2802	-0.7974855
12	0xbe6d6847	-0.2318431
13	0x3e05fdfb	0.13085167
14	0x3f0a417d	0.5400618
15	0x3e281b9b	0.1641678
16	0x3f117ee9	0.56834275
17	0x3eaac47f	0.3335304
18	0xbe7b8564	-0.24562603
19	0xbe256ca8	-0.1615473
20	0xbe9ed9f3	-0.31025657
21	0xbc4932ed	-0.012280208
22	0x3e975518	0.2955711
23	0x3dd3672d	0.103224136
24	0xbe984e31	-0.29747155
25	0xbda923a6	-0.082587525
26	0x3c0f0cba	0.008731062
27	0x3e1e86ca	0.15481105
28	0x3e2a74bb	0.16646092
29	0xbf1f4a31	-0.6222258
30	0xbbc6e8d6	-0.0060702367
31	0xbd12a87d	-0.035805214
32	0x3e30f76a	0.17281881
33	0xbbb0bc4e	-0.0053935414
34	0x3d1995e5	0.037496466
35	0xbe320fa7	-0.17388783
36	0x3dbda0ad	0.09259162
37	0xbd5d01f0	-0.053956926
38	0x3df0206a	0.117249325
39	0xbdfd47e3	-0.12367227
40	0xbf0b6503	-0.54451007
41	0xbddbe4e7	-0.10737019
42	0x3d47bd05	0.048764247
43	0x3de20500	0.1103611
44	0xbeb03a5a	-0.3441952
45	0xbe34dd36	-0.1766251
46	0x3e62bb20	0.22141695
47	0xbc5558c4	-0.013021652
48	0xbd0acbfc	-0.03388594
49	0x3d8cacce	0.068688974
50	0x3dba6b25	0.091024674
51	0xbe4ddeba	-0.20104495
52	0xbd9068bc	-0.070512265
53	0xbd914568	-0.07093316
54	0xbe7daa29	-0.24771942
55	0xbeaa1eab	-0.33226523
56	0x3d88b9ba	0.066760495
57	0x3e7dd6e8	0.24789011
58	0xbd922697	-0.07136267
59	0xbe53f54b	-0.2069904
60	0x3e8c087c	0.27350223
61	0x3ac1d74b	0.0014788894
62	0xbff5b390	-1.9195423
63	0x3e8046b3	0.2505394
64	0x3ecde7ba	0.40215856
65	0xbdb0f83f	-0.08641099
66	0x3e5b8b0b	0.2143976
67	0x3eaba6bb	0.33525643
68	0xbf02ae22	-0.51046956
69	0xbe0fc5c4	-0.14040285
70	0x3d1e7cb2	0.038693137
71	0x3f725b65	0.94670707
72	0x3ef6e8f8	0.48224616
73	0xbda9e449	-0.08295495
74	0xbfde6712	-1.7375205
75	0xbd960171	-0.07324494
76	0x3e82d67f	0.25554273
77	0xbc02869c	-0.007966664
78	0xbfd01430	-1.6256161
79	0xbfce7584	-1.6129613
80	0x3e79fc94	0.24412757
81	0xbe5a5695	-0.21322091
82	0xbe77b5aa	-0.24190393
83	0x3f192961	0.59828764
84	0x3dbb9840	0.09159899
85	0x3e88b500	0.26700592
86	0xbe051785	-0.12997253
87	0xbe35cb76	-0.17753395
88	0x3e4d128e	0.2002661
89	0xbf25b0af	-0.6472272
90	0xbe487698	-0.1957649
91	0xbe66a483	-0.22523694
92	0x3d1013af	0.03517502
93	0x3d0c83ff	0.03430557
94	0x3d927988	0.071520865
95	0xbd6156e5	-0.05501451
96	0x3b822091	0.0039711674
97	0x3c6c1f17	0.014411709
98	0xbb16a82e	-0.0022988426
99	0xbdabe4db	-0.0839326
100	0xbe1c5800	-0.15267944
101	0x3e318f56	0.17339835
102	0xbcf66ad3	-0.030080235
103	0x3ba5ae53	0.0050561815
104	0xbf58f201	-0.8474427
105	0xbef9dcef	-0.4880137
106	0x3c5fe69f	0.013665824
107	0xbe0560b4	-0.1302517
108	0xbcf47fea	-0.02984615
109	0x3d13e247	0.036104467
110	0x3e465469	0.19368137
111	0xbef47cc6	-0.47751445
112	0xbd18494b	-0.037179273
113	0xbd80f340	-0.06296396
114	0xbba7ad87	-0.0051171216
115	0xbf128163	-0.5722868
116	0xbccc4536	-0.024935346
117	0x3d8f04e0	0.06983352
118	0x3cf0d20d	0.029397035
119	0xbef28671	-0.47368196
120	0x3cc4d3d7	0.024026794
121	0x3ea7c568	0.32767797
122	0x3e370136	0.17871556
123	0x3e5c9584	0.2154141
124	0xbc867940	-0.016415238
125	0x3e2be355	0.16785939
126	0x3ee5238f	0.44753692
127	0x3e8e7584	0.27824032
128	0xbd87ecbd	-0.06636951
129	0xbc7fca55	-0.015612205
130	0x3e096d77	0.13420664
131	0x3e5e4d16	0.21709093
132	0x3db29862	0.08720471
133	0x3e68b8ac	0.22726697
134	0xbe3d0ead	-0.1846263
135	0x3e22dfe3	0.15905719
136	0x3cf3772d	0.029719913
137	0x3e119b4d	0.14219399
138	0x3d884db2	0.06655444
139	0xbc3500db	-0.011047567
140	0xbd06a2aa	-0.032869972
141	0xbca52766	-0.020160388
142	0x3e81d618	0.25358653
143	0x3e1554e6	0.14583167
144	0x3e1a8d75	0.15093024
145	0x3e783136	0.24237522
146	0x3d88676c	0.06660351
147	0x3e3714b5	0.17878993
148	0x3e89d65d	0.2692136
149	0x3e0bdff9	0.13659658
150	0x3d989f7c	0.07452294
151	0x3d66ddd6	0.056363903
152	0x3d704a15	0.0586644
153	0xbd99fc2b	-0.075188
154	0x3e2860a5	0.16443117
155	0x3ce968bf	0.02849233
156	0xbdb3ee05	-0.08785633
157	0xbdfd9e6d	-0.12383733
158	0x3c38edf4	0.011287201
159	0x3d8d0c69	0.06887133
160	0xbd8d0d9c	-0.068873614
161	0xbd8ef48d	-0.06980238
162	0x3d42ded2	0.04757578
163	0xbdb8c10b	-0.09021195
164	0x3d43f824	0.047844067
165	0x3df8e2bd	0.12152622
166	0x3e2ad7cf	0.16683887
167	0x3e7008e4	0.23440892
168	0x3dd9f81d	0.10643027
169	0xbe2fc088	-0.17163289
170	0xbe05fc4b	-0.13084523
171	0x3e5e4a69	0.21708073
172	0xbd81a485	-0.06330208
173	0xbe6149e6	-0.22000846
174	0x3df4c228	0.11951095
175	0x3e20f3a4	0.15717942
176	0x3d4b960b	0.04970364
177	0xbdc45cd9	-0.09588022
178	0x3d0cbcd4	0.034359768
179	0xbd54f4b2	-0.051991172
180	0x3dd8f9cb	0.10594519
181	0xbc7c196b	-0.0153869195
182	0xbe2f53fd	-0.17121883
183	0xbd8b0950	-0.067888856
184	0xbd30b9f3	-0.043146085
185	0x3cb45ca4	0.02201683
186	0xbd1bc7aa	-0.03803221
187	0xbd5ec460	-0.054386497
188	0xbe5ac332	-0.21363524
189	0x3d1f71cc	0.038926885
190	0xbb23ed8c	-0.0025013415
191	0x3cf16790	0.029468328
192	0x3d83e40e	0.06439982
193	0xbda3e6c3	-0.08002999
194	0x3dc2e357	0.09516018
195	0xbd93270e	-0.071851835
196	0xbd72730b	-0.059191745
197	0x3e04de64	0.1297546
198	0xbd75cb42	-0.060008295
199	0xbe236bed	-0.15959139
200	0xbe001ede	-0.12511775
201	0xbd75ee40	-0.060041666
202	0xbdb67655	-0.08909289
203	0xbdf81bb0	-0.12114656
204	0xbc54d067	-0.01298914
205	0xbd71d870	-0.0590443
206	0xbc2540f3	-0.010086286
207	0xbd88df6e	-0.06683241
208	0x3c1c85a0	0.009553343
209	0xbdcace17	-0.0990259
210	0xbe0545e8	-0.13014948
211	0xbe217d4b	-0.15770452
212	0xbe6047f2	-0.21902445
213	0xbe1806cc	-0.14846343
214	0xbcbaf9ff	-0.022824286
215	0xbc6bbc13	-0.014388102
216	0xbe1409d9	-0.14456882
217	0x3c69cd6a	0.014270166
218	0x3d8aa001	0.067687996
219	0xbe5fccc8	-0.21855462
220	0x3d806bdc	0.062705725
221	0xba810aa1	-0.0009845087
222	0x3d4eab1a	0.050456144
223	0xbd9a6496	-0.075387165
224	0x3da34975	0.07972995
225	0x3deea3d0	0.116523385
226	0xbd94d58a	-0.07267292
227	0xbbe6ffbd	-0.0070495293
228	0xbe3e3553	-0.18575029
229	0xbc434c5b	-0.01192006
230	0xbb63a253	-0.0034734204
231	0xbd28f5fd	-0.041250218
232	0x3ab27fd7	0.0013618422
233	0x3c48b37c	0.012249824
234	0xbd2e70df	-0.04258811
235	0xbc9e5f7c	-0.01933264
236	0xbe66c42a	-0.22535768
237	0x3daa6b33	0.08321228
238	0x3e2197a4	0.15780503
239	0x3e469dae	0.19396088
240	0xbf64be72	-0.89353096
241	0x3ef44486	0.4770853
242	0xbe4dfb62	-0.20115426
243	0xbcc0978a	-0.02350976
244	0xbf11c230	-0.5693693
245	0xbe51c22d	-0.20484228
246	0x3ef485e4	0.477584
247	0x3ef8300a	0.4847415
248	0x3f0b275b	0.54356927
249	0xbd1ce938	-0.038308352
250	0xbe407217	-0.18793522
251	0xbea51bbc	-0.32247722
252	0xbf4521ed	-0.7700489
253	0xbe908b33	-0.282312
254	0x3ec7ac34	0.38998568
255	0xbef48616	-0.4775855

fca1.bias f4 [60]
0	0x3d775168	0.06038037
1	0xbd646138	-0.055756778
2	0x3dbfd7e7	0.09367352
3	0x3a39f614	0.00070938584
4	0xbe919207	-0.28431723
5	0x3e0e2b5e	0.13883731
6	0x3ca83f79	0.020538079
7	0x3e2b5f2a	0.16735521
8	0xbdb57de8	-0.08861905
9	0xbb8ebfc9	-0.0043563587
10	0xbe345833	-0.1761177
11	0xbdcc81f6	-0.099857256
12	0x3c355fde	0.01107022
13	0x3b65d67a	0.0035070465
14	0xbd64c4ff	-0.055851933
15	0x3d859044	0.06521657
16	0xbbf25668	-0.0073955543
17	0x3e0eb5b7	0.13936506
18	0xbceab4dd	-0.028650695
19	0x3de765c8	0.1129871
20	0x3dc979a6	0.09837656
21	0x3e11c6b4	0.14235955
22	0x3d06e845	0.032936353
23	0x3c204ba3	0.009783658
24	0xbd636df7	-0.055524793
25	0x3d3def7e	0.046370976
26	0xbdbae848	-0.091263354
27	0xbd28d78f	-0.041221198
28	0xbc440aa2	-0.011965426
29	0x3e14c567	0.14528428
30	0x3e0a337f	0.13496207
31	0xbe6ee9b5	-0.2333134
32	0x3e004642	0.12526801
33	0xbdf75c35	-0.12078134
34	0x3e693d7e	0.22777364
35	0xbda48fd5	-0.08035246
36	0x3c3c9679	0.011510485
37	0xbd560bda	-0.052257396
38	0x3e69f399	0.22846831
39	0xbb11ae8e	-0.0022229287
40	0x3e4a1925	0.19736154
41	0x3d87e00d	0.06634531
42	0xbb453af9	-0.0030094965
43	0x3d9e7372	0.07736863
44	0xbe00dd5e	-0.12584445
45	0x3dfad515	0.122476734
46	0xbd8e91a2	-0.06961371
47	0x3e446acf	0.19181369
48	0xbe8e3add	-0.27779284
49	0x3d8382f0	0.06421459
50	0x3d3ff263	0.046862017
51	0x3e39c21b	0.18140452
52	0x3dd42004	0.10357669
53	0xbda91f7e	-0.0825796
54	0xbde0b37a	-0.109717324
55	0x3d1a2497	0.03763255
56	0x3ccaf1d4	0.024773516
57	0xbd2b7de6	-0.041868113
58	0xbb48bb5e	-0.0030629258
59	0x3e37bb3e	0.17942521

fca2.weight f4 [1, 60]
0	0xbf4da5a1	-0.80330855
1	0x3ec01fbd	0.37524214
2	0xbddff4e9	-0.10935385
3	0x3d249d80	0.040189266
4	0x3f24659d	0.6421755
5	0xbf6f44b7	-0.93464226
6	0xbe15b7a7	-0.14620839
7	0x3eec6edd	0.46178332
8	0x3dda1b5b	0.10649749
9	0x3e789213	0.24274473
10	0x3f4da814	0.8033459
11	0x3eb99cad	0.36252347
12	0xbe6ea578	-0.23305309
13	0x3f12619b	0.57180184
14	0x3e83b38f	0.2572293
15	0xbe60a348	-0.21937287
16	0xbe06de77	-0.13170801
17	0x3ee895fa	0.45426923
18	0xbea0ad11	-0.3138204
19	0x3ee293d2	0.44253403
20	0xbe10ad7e	-0.14128682
21	0x3e82bd1b	0.255349
22	0xbe88d731	-0.26726678
23	0xbe3c31de	-0.18378398
24	0xbdd8b4ed	-0.10581384
25	0xbd5f2337	-0.054476943
26	0xbda0927b	-0.07840439
27	0x3efa8fbb	0.48937783
28	0x3f197c85	0.59955627
29	0x3f533881	0.82508093
30	0xbf69bc63	-0.9130308
31	0x3ebe0702	0.37114722
32	0x3ef5d19b	0.4801148
33	0x3cedf070	0.029045314
34	0x3f03bcb5	0.5145982
35	0x3c869ee7	0.016433192
36	0xbd81bfdf	-0.06335425
37	0xbc31161e	-0.010808496
38	0xbe445391	-0.19172503
39	0xbe0f316f	-0.13983701
40	0x3eebd3e5	0.460601
41	0xbd29276c	-0.04129736
42	0x3ee09a56	0.4386775
43	0x3e8eb402	0.2787171
44	0x3c60a4c1	0.013711155
45	0xbe91b807	-0.28460714
46	0xbd144eb2	-0.036207862
47	0x3f165865	0.5872863
48	0x3e41664b	0.18886678
49	0xbd9f4a16	-0.07777803
50	0xbd4fe6df	-0.050757285
51	0x3edd1d07	0.4318621
52	0x3f093158	0.5359092
53	0xbe12987e	-0.14315984
54	0x3e943fd6	0.28954953
55	0xbe0000ee	-0.12500355
56	0x3ebf930d	0.37416878
57	0xbe488c55	-0.19584782
58	0xbdae8275	-0.085209765
59	0x3ec352ba	0.38149053
